model/results/skew-skew/mean-e10000/10-10-SGD-relu-0.001-50-e10000-mean.pt (torch, 3383 bytes, 5 tensors)

layers.0.weight f4 [10, 5]
0.11328788 0.084277056 0.44764882 0.24376057 0.2228137 -0.20524593 -0.06665616 -0.010560456
0.05580563 -0.23417674 0.4723582 0.04554406 0.34433782 0.19439806 -0.11713153 -0.21194316
-0.057071853 0.55707544 -0.007509284 -0.06793081 0.05931877 0.017818348 0.6773836 -0.26507378
-0.08528297 -0.07094663 0.014914301 0.64874953 -0.054930568 -0.056226656 0.042356227 -0.006596239
0.73370075 0.3305361 0.036880113 -0.12517738 0.10960796 0.51670516 -0.49367404 0.1598296
0.42093182 -0.1812191 -0.10745878 -0.24467121 0.20265596 -0.38058588 0.19464543 -0.18884537
0.056657556 0.11408621
00000000: 7a03 e83d 7399 ac3d 3a32 e53e 5f9c 793e
00000010: 4629 643e fd2b 52be 0683 88bd c305 2dbc
00000020: 7294 643d 07cc 6fbe efd8 f13e 698c 3a3d
00000030: 0c4d b03e 4910 473e a8e2 efbd a107 59be
00000040: 2dc4 69bd 7f9c 0e3f 7110 f6bb 4f1f 8bbd
00000050: 3df8 723d c9f7 913c 0369 2d3f c0b7 87be
00000060: d6a8 aebd 774c 91bd 1d5b 743c 7314 263f
00000070: e0fe 60bd ec4d 66bd b97d 2d3d 4325 d8bb
00000080: d0d3 3b3f 073c a93e 9a0f 173d 802e 00be
00000090: 237a e03d ca46 043f d8c2 fcbe 5faa 233e
000000a0: 6084 d73e 8091 39be 5913 dcbd 178b 7abe
000000b0: 0b85 4f3e 27dc c2be 2251 473e ae60 41be
000000c0: c111 683d 08a6 e93d

layers.0.bias f4 [10]
-0.04900401 0.44367725 0.36490494 -0.35894302 0.13863277 -0.22746122 0.027961273 -0.12913582
-0.37705374 0.30132905
00000000: 6eb8 48bd aa29 e33e d2d4 ba3e 61c7 b7be
00000010: c0f5 0d3e 98eb 68be 0a0f e53c 2e3c 04be
00000020: 300d c1be cd47 9a3e

layers.2.weight f4 [10, 10]
0.21695754 0.16375156 0.03405115 -0.3225562 0.087474406 0.17250973 -0.35110864 -0.17112386
-0.16486241 -0.10551587 0.11112552 -0.15724999 -0.30522937 -0.1376759 -0.04021812 -0.2557785
0.186238 0.09754303 0.18494092 0.002880871 0.078022 -0.2398598 0.10282825 -0.26256105
-0.12743948 -0.21621856 -0.1277918 0.05463939 0.2738792 0.11840869 0.1110974 0.18095389
-0.38544706 0.034355443 0.47085586 -0.3206098 -0.33449137 -0.0412565 0.14865077 0.07923757
0.2846106 -0.1693926 -0.10574892 -0.07097742 0.3865141 0.1329659 0.26514295 -0.05602917
0.1197505 -0.20926891 -0.015503311 -0.30635214 -0.09386447 -0.14974312 -0.013815075 -0.0048165824
0.07216716 -0.19561768 -0.27914733 -0.31462967 0.0072247623 0.090713814 0.35924995 -0.10076207
0.112703025 0.30940047 0.24917133 -0.13912182 0.20005985 -0.14541195 -0.12381893 0.16284546
-0.20531568 -0.180409 0.06606129 0.06320335 0.18467347 -0.13036375 -0.13423835 0.04144093
-0.22540508 0.25587237 0.048826657 -0.22329068 0.04548743 -0.26767454 -0.13161597 0.012643783
0.040303074 0.18591186 0.017559854 0.10467498 0.38425305 0.16166161 0.0516943 0.28376102
0.40841717 0.16884793 -0.2522054 -0.013705279
00000000: 1e2a 5e3e 7dae 273e 3879 0b3d 1626 a5be
00000010: c825 b33d 64a6 303e 83c4 b3be 183b 2fbe
00000020: b1d1 28be b418 d8bd c795 e33d 2406 21be
00000030: 0647 9cbe e9fa 0cbe c1bb 24bd 66f5 82be
00000040: 2db5 3e3e a4c4 c73d 2761 3d3e ffcc 3c3b
00000050: 00ca 9f3d cf9d 75be 9e97 d23d 676e 86be
00000060: 7f7f 02be 6668 5dbe dbdb 02be 8ecd 5f3d
00000070: e539 8c3e 4180 f23d 0987 e33d fa4b 393e
00000080: 5159 c5be 4bb8 0c3d 0514 f13e f826 a4be
00000090: 7442 abbe 93fc 28bd e837 183e 4f47 a23d
000000a0: 7bb8 913e 4175 2dbe e492 d8bd 9c5c 91bd
000000b0: 2de5 c53e 3628 083e d1c0 873e d87e 65bd
000000c0: c03f f53d 974a 56be 9901 7ebc 30da 9cbe
000000d0: 043c c0bd 4356 19be a058 62bc 6cd4 9dbb
000000e0: 60cc 933d 0050 48be 66ec 8ebe 2417 a1be
000000f0: b3bd ec3b 2ac8 b93d 9cef b73e 585c cebd
00000100: d8d0 e63d bd69 9e3e c526 7f3e f375 0ebe
00000110: 7ddc 4c3e dfe6 14be c794 fdbd f6c0 263e
00000120: 463e 52be 23bd 38be 244b 873d c270 813d
00000130: 0b1b 3d3e 137e 05be c775 09be f7bd 293d
00000140: 97d0 66be b401 833e 76fe 473d 50a6 64be
00000150: 0751 3a3d a30c 89be 56c6 06be df27 4f3c
00000160: d614 253d ae5f 3e3e afd9 8f3c d65f d63d
00000170: d1bc c43e 9f8a 253e 67bd 533d 2049 913e
00000180: 0e1c d13e 79e6 2c3e 1121 81be 1b8c 60bc

layers.2.bias f4 [10]
0.27753788 0.14149365 -0.28746542 0.18206729 0.34574375 -0.0902363 -0.04697228 -0.28582186
-0.25783432 -0.09010032
00000000: 7219 8e3e b6e3 103e ab2e 93be d96f 3a3e
00000010: 5305 b13e cfcd b8bd 0166 40bd 3e57 92be
00000020: dc02 84be 8486 b8bd

layers.4.weight f4 [1, 10]
-0.38038754 -0.13244252 0.017236859 -0.43620685 0.39251754 0.04927484 0.19356613 -0.079238266
-0.18986604 0.5469472
00000000: 28c2 c2be 039f 07be 5034 8d3c 8156 dfbe
00000010: 0ff8 c83e 6ad4 493d 3336 463e ac47 a2bd
00000020: 3e6c 42be bb04 0c3f
