model/results/skew-skew/mean-e10000/100-100-SGD-tanh-0.001-50-e10000-mean.pt (torch, 45767 bytes, 5 tensors)

layers.0.weight f4 [100, 5]
00000000: 7a8d e03d e4c3 72bd c80d c23c 01b0 aabe
00000010: e1ca e03e 2dc3 bdbe 77c4 3bbe 9b33 b93e
00000020: bf17 d5be 75d9 4e3e 5d26 eabd 64fc a2be
00000030: 0dec 473e 075b ccbd 5f3e ce3e a265 0d3e
00000040: 0505 c93e 9ec9 c73e 84f1 b83e 1b16 7b3e
00000050: ca7f 693e 7cfb 67be f09b 913d 116a 8f3e
00000060: 61c0 32bd 4c4f 9cbe b3f0 bf3c 5385 51be
00000070: f255 833e bf6e ca3e 358f f03e 538a 00be
00000080: e1b6 cc3e eee6 213e 90fe acbe 659f 5e3b
00000090: fabe 58bd 78de 753e 661f 9e3d 2a2a 59be
000000a0: ebf1 9bbb 2a35 c23d ea6e b43e 1706 7ebe
000000b0: 278b af3e 2dc3 b43e 7df3 7d3e ddcc 663e
000000c0: 2d71 1ebe 5c6d d63e 7152 6d3e cf3f e5bd
000000d0: 0043 c0be 4c48 d1be 8f51 6d39 03cd b0be
000000e0: 2fe4 4b3e c8a9 37be d348 a63d 9ecb 9bbe
000000f0: 3f9e b63d 8ddb 4e3e 6f5b cb3e 4da6 093e
00000100: 482a 8ebe 83ef e73e cc3e 09be 8c5f 4fbe
00000110: abaa cd3e 4866 6e3e 9fcf 003d 412d dfbe
00000120: 718a 7fbe 609b 733e d038 e7bd c0f5 19be
00000130: ba05 c1bd cc22 543d 51db 653e da2c 7fbe
00000140: 6dd0 583c 75cd 2f3e e683 443d 9b97 5abc
00000150: c1ab 65bd edc4 debe ed1a a33e 38c9 1dbe
00000160: c10e df3e d079 b3be cffa 8c3e e371 7cbd
00000170: f45b 243e beaf 99be fddd 63be 71b9 4b3e
00000180: b6b9 3f3e 291e ca3e 2f84 2bbe 2529 83bd
00000190: c88d e43e a50e 4dbe 4a81 813e 65dd e7bd
000001a0: 1d0a aa3e dab9 a33e 59a2 97be 52f9 7fbe
000001b0: 8276 f03c 92df 7f3e 491a 73be 8c61 bd3e
000001c0: bdcd fabd 1465 903e b8c7 3cbe ea79 423e
000001d0: 4c37 d43e 8d97 55be cb3d 87be 5ade 6f3e
000001e0: 1fee 39be d1b7 68bd 7c1f 8e3d c025 583d
000001f0: f35d 233c 6f18 8abe bbfd a43e eabe af3e
00000200: ccfb 083e 5556 bdbe 9863 70bd f249 8bbe
00000210: d84e bcbe 2b4f 503e c02c a53e 34ef a33c
00000220: bbe8 d83e b2aa a33e 93e7 9cbe 1586 11bd
00000230: 5a8b abbe 8108 2fbc fb30 543e bf0c 903e
00000240: b5ee 9a3d dff3 b53d 81f0 dbbe 392f 83bc
00000250: 5064 b9bd 3847 d7be 645e 963e 9fdf c03c
00000260: 5dad 50be 9bf6 81be c8e8 8d3d 7725 c4be
00000270: 20b9 b8bd 10c9 e83e ddc6 17be 373b 66be
00000280: b0f8 b73e 8a72 92be f992 dabe ed0c 253e
00000290: efcc 693d 15d7 34be d3c2 90be 6b8c 0d3d
000002a0: d944 433e 40fd 93be d6fb ad3e 6973 ebbc
000002b0: 7fbc e3be a6b3 9dbe d52c 76be 8ed7 fdbd
000002c0: 01f9 9cbd 7a39 6c3e 9360 dbbe d531 abbe
000002d0: 648e 063e 88b1 da3e ae79 cabe 4f32 993e
000002e0: 16dd 8cbe 3343 1f3e 668e 8ebe f26a d43e
000002f0: f7e9 193d 6849 4bbe 68a7 e7be fd21 8cbd
00000300: 6b21 41bc d2e4 243e 94ff 89be a3eb babe
00000310: 5f3d 9a3e 65e2 cebe 597a 993e 7a27 9f3c
00000320: 105c d33e 3b06 813e 24b0 d83e 093b e0be
00000330: f26b 58be 2717 ae3e af39 06be 947b 80bd
00000340: 54d6 723e 73de 8a3e 1bec 0ebd b597 5dbd
00000350: 8755 923d 1693 cbbe e665 db3e eca8 e53e
00000360: 6d68 bdbc 0b5b 58be f2eb f03d 3ec8 393e
00000370: 2fd8 a6bd ac32 abbe 2189 f53d b30e 773d
00000380: f317 e2bd 36fe e43e 1617 173e 5c51 f33d
00000390: ee86 b2bd 3c88 b83d dc8c 9c3e 67eb 9a3c
000003a0: 7571 c43e bf13 e2be 4197 84be cb98 df3d
000003b0: f2f7 85be 0c9a 933e a31a c63e 0695 933e
000003c0: 76b6 043e ae07 5d3e 6187 85be 0416 4d3d
000003d0: 3b3f c53e 6c4c 59bd b00f 4ebe 86d9 333e
000003e0: 4e46 ad3e f083 b73e 5c24 923d d6c7 69be
000003f0: dbb9 46be 68c7 5d3e 1ef2 1b3e 86b8 a1be
0.109644845 -0.059268847 0.023688212 -0.33337405 0.43904784 -0.3706297 -0.18336664 0.36172184
-0.4161968 0.20200141 -0.114330985 -0.31833184 0.1952364 -0.099782996 0.4028196 0.13808301
0.39261642 0.3902101 0.36121762 0.24520151 0.22802654 -0.22654527 0.07109821 0.2801061
-0.043640498 -0.3052925 0.023430204 -0.20461015 0.2565151 0.39537618 0.46984258 -0.12552767
0.39983276 0.15810749 -0.33787966 0.0033969518 -0.052916504 0.24010646 0.077208325 -0.2120749
-0.0047590635 0.094827965 0.3524087 -0.2480701 0.34285852 0.35305157 0.24799915 0.22539087
-0.1547286 0.4188031 0.2317598 -0.11193811 -0.37551117 -0.4087547 0.00022632464 -0.34531412
0.19911264 -0.1793586 0.08119359 -0.30428785 0.08916902 0.2020094 0.39718196 0.13442345
-0.27766633 0.4529992 -0.13402861 -0.20251292 0.40169272 0.23281205 0.031448003 -0.43589213
-0.24955155 0.2378974 -0.11290133 -0.15035152 -0.094249204 0.051790997 0.22446944 -0.24919453
0.013233286 0.1716822 0.04797735 -0.01334181 -0.056072 -0.43509617 0.3185648 -0.1540879
0.43565944 -0.35053873 0.27535102 -0.06163205 0.16050702 -0.30016893 -0.2225265 0.19894959
0.18723187 0.39476135 -0.16749643 -0.06404332 0.4463942 -0.20025118 0.25293952 -0.113215245
0.3321084 0.3197773 -0.2961605 -0.24997452 0.029353384 0.24987629 -0.23740496 0.36988485
-0.12246273 0.28202116 -0.18435562 0.18991819 0.41448438 -0.20858593 -0.26414332 0.23424664
-0.18157242 -0.056815926 0.06939599 0.052770376 0.00997113 -0.26971766 0.3222483 0.34325343
0.13377303 -0.3697993 -0.05868873 -0.27204853 -0.36778903 0.203427 0.32260704 0.020011522
0.4236506 0.31966168 -0.30645427 -0.03552826 -0.33504754 -0.01068318 0.2072181 0.28134724
0.07565061 0.08884405 -0.42956927 -0.016013728 -0.09052336 -0.42046523 0.2936889 0.02354413
-0.20378633 -0.25383458 0.06929165 -0.38309833 -0.09019685 0.454659 -0.14821954 -0.22483526
0.3593192 -0.2860301 -0.42690256 0.16118212 0.057080206 -0.17660172 -0.2827364 0.03455774
0.19069232 -0.28904152 0.33981198 -0.028741555 -0.4447975 -0.30801123 -0.2404054 -0.123946294
-0.07664681 0.230688 -0.42847118 -0.33436456 0.13140255 0.4271357 -0.3954596 0.29921195
-0.27512425 0.15552978 -0.27843016 0.41487843 0.037576642 -0.19852221 -0.45244908 -0.0684242
-0.011787753 0.16102913 -0.26952803 -0.36507902 0.30124947 -0.404071 0.29976156 0.019428004
0.41281176 0.25200066 0.42321885 -0.4379504 -0.21134928 0.3400204 -0.13107942 -0.06273571
0.23714572 0.2712284 -0.034893136 -0.054099757 0.07145219 -0.39760655 0.4285118 0.4485544
-0.023121083 -0.2112848 0.11763753 0.18142793 -0.081467025 -0.33437097 0.11989046 0.060316753
-0.11039724 0.44725198 0.147549 0.118807524 -0.08717142 0.0901036 0.30576217 0.018911077
0.3836781 -0.4415569 -0.25896648 0.10917815 -0.2616573 0.28828466 0.38692197 0.28824633
0.12960228 0.21584961 -0.26079848 0.050069824 0.38524804 -0.053051397 -0.20123172 0.17563447
0.338427 0.35842848 0.07135841 -0.22830138 -0.19406836 0.21658099 0.15229079 -0.31586093

layers.0.bias f4 [100]
00000000: 287e 6c3e 243b c5be 235c a3be f59d 56bd
00000010: 188c 883d d0e2 853d c09d 843e e97f 8c3e
00000020: 2baa c2be 97b5 b53c f071 e53e 1914 0f3e
00000030: 31ea fbbb 1681 03bd 00f3 b9be 84c5 3cbc
00000040: 9f3e 173e e296 aabc 06a3 de3e b952 b93e
00000050: 7fec d13e 09b7 89be f0f2 cd3e 08fc 733e
00000060: 3e93 a23e a713 36bd 7672 b73e 2831 523d
00000070: 8b91 c6be 5b14 293d a00b 703e 6fe0 cbbb
00000080: 8420 6f3e c62d c73e 5882 b83e bf08 243e
00000090: 6144 d1be f119 943d 8696 c43e 83dc 6a3e
000000a0: 2ad3 773e 1be7 993d a87e 27be 018d 8fbe
000000b0: e19d d2be 45ff dabe 0ebc bdbd 7fb4 b13d
000000c0: 9dc8 463e 2e0d bb3e 9619 0b3e b0aa 65be
000000d0: 71e7 083d 566d d03e f4ad 9abe 1eae acbe
000000e0: 03b1 bfbe a853 cf3c 0a25 9bbe 88e9 12be
000000f0: a365 853e e6c6 5f3e 6d95 50bd 87b4 babe
00000100: bb90 88be 0271 f0bd 3b5e 1fbe 454c 853e
00000110: f60c 483d 1268 8cbe 8a83 d23e b1fe bc3e
00000120: 7959 a4be b098 a8bc e732 cb3e 0507 ee3d
00000130: e228 85be 58d0 543e 9a49 e1be 379d 873d
00000140: bf5d b0bd 6b33 96be c471 ca3e 634b a63e
00000150: 7530 5a3d 0f22 cdbe 0a6b fa3c 8e9a 8dbe
00000160: f949 27be d47b 7c3d 2c22 7d3e b8e5 d8be
00000170: b121 c03e a7a6 5abd 74a5 be3e f079 a4bb
00000180: 061d 983e 160d 933e 82d8 c33e 1282 6d3e
0.23095 -0.38521683 -0.31906232 -0.052396733 0.06667346 0.06537402 0.25901604 0.27441338
-0.38020453 0.022181315 0.4481349 0.1397251 -0.00768783 -0.032105528 -0.36318207 -0.011521701
0.14769982 -0.0208239 0.43483752 0.36195925 0.41000745 -0.26897457 0.4022441 0.23826611
0.31752962 -0.044452336 0.35829514 0.05131641 -0.38782915 0.041279178 0.23441935 -0.006221823
0.23352247 0.3890211 0.36036944 0.16018961 -0.4087248 0.072315104 0.3839609 0.22935681
0.24201646 0.07514783 -0.1635691 -0.28037265 -0.41136077 -0.4277288 -0.09264384 0.08677005
0.19412465 0.36533493 0.13583979 -0.22428393 0.033423845 0.40708417 -0.3021084 -0.3372659
-0.37439737 0.025308445 -0.30301696 -0.14346898 0.26054105 0.21853217 -0.050923754 -0.36465856
-0.2667292 -0.117403045 -0.1556329 0.26034752 0.048840486 -0.2742315 0.4111598 0.36913064
-0.32099512 -0.02058062 0.39687273 0.116224326 -0.26007754 0.20782602 -0.44001466 0.06621783
-0.08611631 -0.29336104 0.3953992 0.3247939 0.05326887 -0.40065047 0.030568618 -0.27656978
-0.16336812 0.06164153 0.24720067 -0.42362761 0.37525705 -0.05338159 0.37235606 -0.005019419
0.29709643 0.2872092 0.3825112 0.23194149

layers.2.weight f4 [100, 100]
00000000: bd16 543d 8496 a8bd 4a6c 763d 9d66 c7bd
00000010: a457 33bd 3a1d c73d 4646 8fbb 3cb4 273d
00000020: 2e05 8c3c fc5f ee3c f3a8 703d 3fc7 40bd
00000030: dd0a 99bb f9b2 3bbd 22a8 793d 930f 303d
00000040: c2e3 05bd ada5 c43d 4cc2 8cbd 0940 9d3d
00000050: 9512 c2bd d3e6 f4bc c89c d73c b988 27bd
00000060: 4cb1 70bd a699 6d3c 1908 cd3c 3750 663d
00000070: e786 313d f196 59bd 8af4 c93d 1205 47bd
00000080: c40b a13d d544 7fbd 7360 a0bd 074b 6a3c
00000090: 0f0f 8e3d fe25 4b3d ff4d 3abd a866 4b3d
000000a0: 0855 71bd 6f93 69bc a0ae b3bd 7054 7dbd
000000b0: 7792 a3b9 cbd1 68bc 1750 743d 8133 74bd
000000c0: 78b6 603d 62a9 3b3d 95c8 ae3c f211 dabd
000000d0: 4176 7f3d 0e65 993d e288 283d 78ea 4dbd
000000e0: 09b5 85bd 8af2 21bc 0e0e 6ebd 646b a63d
000000f0: d7cc 943d da9c ca3c 451f e8bc a0d2 b6bd
00000100: 8827 0c3d f087 33bd a295 a3bd 6075 8f3d
00000110: 6d90 743d 78c4 a93c f690 633d 0964 52bc
00000120: 6a52 3bbd edbe ba3c 9384 343b a25d 2bbd
00000130: 3321 3a3c 0d69 0c3d 6288 9bbc a8c4 c53d
00000140: 74cf 34bd 101d 9bbd 8e12 923d 2a79 a73d
00000150: 72db 43bd 8cee 0ebd 9d10 673c a6aa 0dbd
00000160: 642d c83c 4430 b63d f15a 98bd 07cc 903d
00000170: 2481 0abd 7347 3d3d 57b4 30bd b808 6a3d
00000180: 732b a03c 3873 8d3d 23ab 19bd 7115 283d
00000190: 2719 9fbb 9b70 ddbc ded0 7c3d 49df 41bd
000001a0: 7c6e 153d 939d b6bd 7381 17bc da48 bfbd
000001b0: 4c50 89bd 9930 843c 653f 563c e771 34bd
000001c0: e7de 143d df28 31bb 7633 ae3d 4f9d 3ebd
000001d0: 43ae a7bd acd5 b83d 7674 ef3c 9349 93bc
000001e0: a57f 8b3d 6302 3fbd 4bf0 513d 1b8d a03d
000001f0: 8f32 86bd e2a8 043c 0f63 eebc 2da1 823d
00000200: d967 c8bb 4729 c1bd 8978 213c f6e4 673d
00000210: eda6 d53d 4085 febc a6a1 8dbc 7d6f 913d
00000220: 3e28 b53d 09d2 d6bd c8c1 f4bc 41b2 e43c
00000230: e027 0ebc b9b0 a1bd c5e4 a03c 39b9 64bd
00000240: 8389 5abc 0857 613d b65f 8d3d e7bd 7f3d
00000250: fa22 ab3c 8087 9a3d 6ba0 c1bd fc9c ad3d
00000260: 4b2c 8dbd 211b 3b3c bb69 003d 5038 1ebd
00000270: 055a 963d 8017 953d 01df 71bd 6f89 863d
00000280: ab4d 1fbd f0fe 303d 3f1c 923d d7e4 483c
00000290: e4d5 8b3a 26b8 8abc d0f4 803d ed35 b73d
000002a0: 7376 78ba b577 683c 8eab aa3d 9923 c3bd
000002b0: fa2a bc3d 023e 793c a601 31bd e791 5bbb
000002c0: 808e c9bd 0332 8cbc 2395 bb3d 6f7d 383d
000002d0: c0e0 2d3d c8f1 6bbd 7421 403d 7905 d03c
000002e0: 5889 e4bb c035 523d 61c6 1e3d 7568 843d
000002f0: 3096 41bd 174c a6bd e153 88bc 3767 0a3c
00000300: 1708 58bd 77f0 bebd 09b8 8a3d e8da 793c
00000310: 90e1 73bd 4fa6 6cbd 5391 1fbd 346d 97bc
00000320: 1a9d aabb fe8f 843d af89 95bb 9c46 93bd
00000330: 9c71 213c 096a aabd 26fc 5b3d 5123 d63d
00000340: 68e4 c239 de17 0f3d 2b73 4dbd 0250 41bd
00000350: 199f 7dbd 7903 0b3c 4d9d 81bd f389 973d
00000360: 39ea ac3d 72f2 843b b49e 8e3d 1902 a8bd
00000370: 3091 ca3d 7c62 773d 7ed8 173d dc29 943d
00000380: 77ad 99bc e31e cabc 5176 aa3d d8b6 63bd
00000390: d7b0 ba3d 3416 e2bd 3db1 b6bc 3c0a afbd
000003a0: 6aba 603d 442e e13c 9298 763c 999a bc3c
000003b0: 91bd 113d bd3e b53c 69c2 303d 84c2 913d
000003c0: 24f0 8f3d 0e9a 3c3d f569 98bd 40ff 43bd
000003d0: d6b0 9d3d f35a b83c dbac 823d 8ec6 1e3d
000003e0: 07df b5bc 1369 95bd 87d7 303d 6cfe 99bd
000003f0: 442f bdbb c8b7 76bd 14f9 323d a450 37bd
0.051779497 -0.082318336 0.060161866 -0.09736369 -0.043784752 0.097223714 -0.004372391 0.04094337
0.017092314 0.029098503 0.058754873 -0.047065016 -0.0046704845 -0.04582498 0.06095136 0.042983603
-0.03268791 0.09601913 -0.06872997 0.07678229 -0.094762005 -0.029895222 0.026319876 -0.040901873
-0.058762833 0.014501965 0.025028275 0.056228843 0.043341544 -0.053122465 0.09861095 -0.04858882
0.07863572 -0.062321503 -0.07830896 0.0143001145 0.06936466 0.04959678 -0.04548454 0.049658448
-0.058918983 -0.014256342 -0.087735415 -0.061848104 -0.00031198908 -0.014210175 0.059646692 -0.05961943
0.054861516 0.045815833 0.02133588 -0.10647954 0.062368635 0.07489978 0.041146167 -0.050272435
-0.0652867 -0.009884486 -0.058118872 0.08125952 0.072656326 0.024732996 -0.028335223 -0.08926892
0.034217387 -0.043830812 -0.079875246 0.070048094 0.059708048 0.020723566 0.055558167 -0.012841233
-0.045732893 0.022796119 0.002754484 -0.041837342 0.011360454 0.03427987 -0.01898593 0.0965665
-0.044143155 -0.075739026 0.07132445 0.08177407 -0.0478167 -0.034895465 0.014103082 -0.03458657
0.024435706 0.08895925 -0.07439221 0.07070165 -0.033814564 0.046210717 -0.043140735 0.05713722
0.019551968 0.06906742 -0.037516724 0.041036073 -0.0048552933 -0.027031234 0.06172263 -0.047332082
0.03648232 -0.08916774 -0.009247172 -0.09340067 -0.067047685 0.016136454 0.013076638 -0.04405394
0.03634539 -0.0027032418 0.08505909 -0.04653674 -0.08187535 0.0902513 0.029230338 -0.017979419
0.06811456 -0.046633136 0.05125455 0.07839414 -0.06552612 0.008096905 -0.02909997 0.06378398
-0.006115895 -0.09431701 0.009855398 0.05661484 0.10432229 -0.031069398 -0.017288994 0.07101343
0.08845566 -0.1048928 -0.029877558 0.02791703 -0.008676499 -0.07895035 0.019640336 -0.055840705
-0.013338449 0.05501464 0.06903021 0.062436964 0.020890702 0.07545376 -0.094544254 0.08477208
-0.06893214 0.011420042 0.031350832 -0.038627923 0.073413886 0.07279873 -0.059050564 0.06569182
-0.03889243 0.043211877 0.07134294 0.012261591 0.0010668603 -0.016933512 0.06296694 0.089458324
-0.00094780995 0.014188697 0.08333503 -0.09528274 0.09187885 0.015212538 -0.043214463 -0.0033503713
-0.09841633 -0.017113691 0.09159305 0.045041498 0.042450666 -0.057603627 0.046906903 0.025393235
-0.0069743805 0.05132079 0.038763408 0.06465236 -0.04726237 -0.08119982 -0.01664156 0.00844746
-0.05274209 -0.09323209 0.06773383 0.015249945 -0.059541285 -0.05777579 -0.03895695 -0.01848469
-0.0052067162 0.06472777 -0.0045635323 -0.07191202 0.009853747 -0.08321006 0.053707264 0.10455955
0.0003717274 0.03493487 -0.05015866 -0.047195442 -0.061919305 0.008484715 -0.06328831 0.073993586
0.08443112 0.004057222 0.06963864 -0.08203525 0.098909736 0.060396656 0.037071697 0.072345465
-0.018759472 -0.024672931 0.08323348 -0.055594295 0.09115761 -0.11039391 -0.02230131 -0.08546874
0.05486528 0.027487881 0.015051024 0.023022937 0.035581175 0.022124643 0.043154154 0.07117179
0.07028225 0.046045355 -0.07442085 -0.047850847 0.076997444 0.022504305 0.06380626 0.038763575
-0.022201074 -0.07295432 0.043174293 -0.0751923 -0.005773457 -0.06023386 0.04369457 -0.04475464

layers.2.bias f4 [100]
00000000: 79f0 1b3d f967 0d3d bf16 a33d 7f6b b13d
00000010: d265 dc3d ea81 0c3d 3fb6 253d 977d 9c3d
00000020: 1df1 babd 2ced 0ebc 986f 723c 0479 213d
00000030: 529b 91bd b6c0 07bc 3586 3d3d ff97 67bc
00000040: dbff b9bd 84b0 16bd 6e00 97bd 9eaf 6dbd
00000050: 0842 733d 1f65 9f3c 0911 0b3d 1da1 55bd
00000060: c49a 423d 4e45 32bc 41e4 f43c 46de 8dbd
00000070: 3fa1 6e3d 4d95 c3bb 271b abbd a3b5 77ba
00000080: 1354 5dbd 626d 303e 38be 9bbd 9a1b 1ebd
00000090: 3ef6 b43b d2ce 51bd b2ea 2b3d 9981 623d
000000a0: 4688 ff3d 606b 74bd 98b7 4dbd 8bbf 96bd
000000b0: 78f8 b9bd 49ac 713d bd2b 493d 7488 8cbd
000000c0: bba3 f63d 4507 423d d0e9 ea3d 2306 c1bd
000000d0: 4ed8 d53d 55f6 b63d 52ba 963d fc16 84bd
000000e0: 613b ab3d 3d19 14bc 5e37 7cbd 82ed 3dbd
000000f0: 2e23 b0bc c53f a43c c84a 9dbd da07 323d
00000100: 86ae 4c3d 68a8 e6bd 30a6 803d a544 7b3d
00000110: e632 c8b9 82cb 98bd 6ff8 60bb 5498 8bbc
00000120: 308d c73d 5350 66bd 077e 9ebd 1a43 03be
00000130: fabc c73d 0484 babd 0851 1e3d 4458 9f3d
00000140: fa35 833d d9a0 453d 4c87 053d e3c8 87bd
00000150: 4a56 e4bc 652f 1a3d 3b2a 9b3d d41b 5a3d
00000160: 73f8 32bd 2c86 be3d a44e 81bd b1f6 0d3a
00000170: 7ea0 2b3d ad8c acbd 25e0 773d 2ad4 543d
00000180: 7542 283d a58f 4fbc 937d 8b3d 2505 47bd
0.03807113 0.034522984 0.07963323 0.086630814 0.10761608 0.034303583 0.040457007 0.07641142
-0.0912802 -0.008723538 0.014797114 0.03942205 -0.07109703 -0.008285692 0.046270568 -0.01413536
-0.09082004 -0.036789432 -0.07373129 -0.05802881 0.059389144 0.019457398 0.033951793 -0.052155603
0.047510877 -0.010880781 0.029893996 -0.06927161 0.058259245 -0.005968726 -0.08354788 -0.0009449368
-0.054035258 0.17229226 -0.07604641 -0.03860054 0.0055225184 -0.05122263 0.04197187 0.055299375
0.12477164 -0.059672713 -0.050223917 -0.07360753 -0.09080595 0.059002195 0.049113978 -0.06861964
0.12042948 0.047370214 0.114703774 -0.094249986 0.104416475 0.08933703 0.073597565 -0.064496964
0.08360935 -0.00903922 -0.06157624 -0.046369083 -0.02150115 0.020049939 -0.07680279 0.04346452
0.049971126 -0.1126259 0.06281698 0.06134476 -0.00038184895 -0.07460691 -0.0034327765 -0.01704041
0.09743726 -0.056228947 -0.077388816 -0.12818566 0.09752841 -0.09107211 0.038651496 0.07780507
0.064067796 0.0482491 0.032599732 -0.06630113 -0.027873177 0.037642855 0.07576414 0.053249195
-0.04369397 0.09302935 -0.06313828 0.0005415483 0.041901104 -0.08425269 0.060516495 0.051960148
0.041079003 -0.012668525 0.06811061 -0.04858889

layers.4.weight f4 [1, 100]
00000000: f437 fdbc 31b2 acbc 9986 283e 0992 12bc
00000010: e033 e93d dbd1 b63b e004 453c 65c3 f03d
00000020: 3e70 50bd d838 36bc 1996 ffbd ed23 a93c
00000030: 7c0d 19be 8612 723d d857 c13b 925b 1cbc
00000040: dd0a 2cbe 21c8 8dbd 8dbc febc 576c 923d
00000050: e8ba e03d 71b6 a73c e020 233c e5d1 3cbc
00000060: 3936 92bc 9714 97bd 3c7a 833e a826 1d3d
00000070: c6f0 143d b095 503d b2f5 5a3c ad24 4b3d
00000080: ac00 253c 0488 92be c19e 9cbd a18b a33d
00000090: 0688 123e 10c2 85bd 7829 cc3c 68cb d5bb
000000a0: 0b8e 003e 9c0c 86bd 6c89 b63d 1d32 1e3d
000000b0: babd 20be 3fb1 7d3c 70c4 0f3e 918c f83c
000000c0: b422 c63d 4973 a13d 9625 52be 703b 8a3e
000000d0: 467a 713e ce90 963d b066 1dbd c6ca c9bd
000000e0: 3583 57bd ca0c 553d 6480 54bc 9527 03bb
000000f0: 01be 7a3c e101 683e c925 d3bd bb84 e23d
00000100: 2c71 4c3d 7fb3 44bd 95ed b93c cda5 a63d
00000110: 44c3 1fb9 928e 93bb fba8 24bd 5f76 2ebe
00000120: 27b1 523d 7233 8d3e ab81 a1bc 9b9d 9bbd
00000130: 0813 f93c 1951 a0bd 5710 083d afb3 d63d
00000140: 4122 733d a467 0ebe 4141 373d 2c92 b33c
00000150: eb71 eebc 2d52 113d d327 403d 2895 1c3e
00000160: bd35 98bc 146c cf3d 73f4 8f3d 52a4 eabd
00000170: efbc 76bd 8d5f 913d 061d 653d 611a 01be
00000180: d5b3 05be 2556 9a3a 904e ab3d 5e65 6e3d
-0.03091047 -0.021081062 0.16457595 -0.00894595 0.113868475 0.005579216 0.012025088 0.117560185
-0.050888292 -0.011121951 -0.12479801 0.020647014 -0.1494655 0.059099697 0.0059003644 -0.009543316
-0.16801019 -0.06922937 -0.031095767 0.071495704 0.109731495 0.020472737 0.0099565685 -0.011524652
-0.017848121 -0.07376974 0.25679195 0.038366944 0.036362432 0.050924003 0.013364242 0.049595524
0.010070961 -0.28619397 -0.076474674 0.079856165 0.14309701 -0.06531155 0.024922118 -0.006524492
0.12554185 -0.06545374 0.0891293 0.03862201 -0.15697375 0.015484153 0.14039779 0.030340465
0.09674588 0.07883317 -0.2052215 0.26998472 0.235818 0.07351838 -0.03842801 -0.09853129
-0.052615363 0.05201415 -0.012970064 -0.0020012606 0.0153040895 0.22656967 -0.10309941 0.110604726
0.049912617 -0.048022743 0.022696296 0.08137093 -0.00015236164 -0.0045030797 -0.040200215 -0.17037342
0.051438477 0.27578312 -0.01971515 -0.0759842 0.030404583 -0.07827968 0.033218708 0.10483491
0.05935884 -0.13906723 0.044739965 0.021920286 -0.029107055 0.03547876 0.04691298 0.15291274
-0.018580312 0.10128036 0.07029047 -0.11457123 -0.060238775 0.07098303 0.055935882 -0.12607719
-0.13056882 0.0011774941 0.08364594 0.05820214
