model/results/skew-skew/mean-e10000/15-15-SGD-relu-0.001-50-e10000-mean.pt (torch, 4023 bytes, 5 tensors)

layers.0.weight f4 [15, 5]
000000 11 68 aa 3e e1 12 0d be 2f 8d 60 be cb ae b4 be
       0.3328252 -0.13776733 -0.21928857 -0.35289606
000010 8b c2 b4 3e 89 9f 0f 3e 8a 0a 20 bd d5 70 04 bf
       0.35304675 0.14025702 -0.03907255 -0.5173467
000020 be 96 81 3e f9 3f 4e bd 11 18 93 be 1c 31 a1 be
       0.2531032 -0.050353978 -0.287293 -0.3148278
000030 1e 1b 73 be 36 00 2b be 49 d2 9b 3e bd 24 bd be
       -0.23740813 -0.16699299 0.30433872 -0.36942092
000040 ec b5 67 bc 24 7c 83 3e 7c 06 11 3e 6e ee 98 3e
       -0.014142495 0.2568065 0.1416263 0.29869407
000050 fd 0b 09 be a1 a6 01 3e 72 58 4d 3f 85 89 51 3e
       -0.1338348 0.1266122 0.8021308 0.20462616
000060 37 93 88 3d 42 ea 72 bd 90 ca 29 be d5 93 91 be
       0.06668704 -0.059305437 -0.16581178 -0.284331
000070 d9 a1 c4 3d 91 b6 d5 be d0 3b d8 3e d7 dc 18 be
       0.096011825 -0.4174085 0.42233133 -0.14927994
000080 1b 2c f5 3d cf e9 62 3e f4 c8 51 3e 13 39 cd be
       0.11971303 0.22159503 0.20486814 -0.40082607
000090 bc 49 53 bc f8 2b 24 3e dc 2c 9b be 50 18 b5 3c
       -0.012895998 0.16032398 -0.30307662 0.02210632
0000a0 c9 74 c8 3e 37 90 c7 bd 37 35 41 3f 8c 6b 3c bd
       0.391516 -0.09744304 0.75471824 -0.046001002
0000b0 07 56 4a bd c8 bf ba be 36 74 38 3e 4b c8 4c be
       -0.04939845 -0.36474442 0.18013081 -0.1999828
0000c0 33 8d 73 3e bc 8b 34 bd 31 a7 cb bd 03 d5 d4 bc
       0.23784332 -0.044078574 -0.099439986 -0.025980478
0000d0 67 04 31 be bf a1 8e be ec 67 77 bd 51 45 7c 3e
       -0.17286836 -0.27857777 -0.060401842 0.24635817
0000e0 b1 23 81 3e 7c b3 46 be fb df 33 3e 5c 31 57 3d
       0.25222543 -0.19404405 0.1756591 0.052537307
0000f0 8a 7a c2 be 7b d8 e8 bb e7 df 79 be 8f 8d d9 be
       -0.37984115 -0.0071058846 -0.24401818 -0.42490813
000100 3c f9 c1 bc dc 51 55 be 56 42 cd bd 55 8b 8a 3e
       -0.023678415 -0.20832008 -0.10022418 0.27059427
000110 c9 12 c1 be ec d3 c1 bb 8e 26 bc be c5 35 ca bd
       -0.37709644 -0.0059151556 -0.36748165 -0.09873537
000120 ce a9 d8 3e 36 92 32 3d 03 72 a0 bd
       0.4231705 0.04359647 -0.07834246

layers.0.bias f4 [15]
000000 1e ab b2 be 5d 60 64 3e 39 6d fe bd c4 b8 8d be
       -0.34896177 0.22302385 -0.12423176 -0.27680027
000010 a8 5d 0b 3e 5f 57 c0 be a5 93 de 3e d0 e6 97 3e
       0.13609946 -0.3756666 0.4347202 0.29668283
000020 9c 0f b4 3d 02 45 b0 be 28 5b 91 3e da 66 91 3d
       0.0879204 -0.3442765 0.2838986 0.070996955
000030 fb da 81 3e f3 13 2c be b6 03 25 be
       0.2536238 -0.16804485 -0.16114697

layers.2.weight f4 [15, 15]
000000 bc 64 03 3d 62 2c 8c 3e b7 78 06 3e 90 6e 1b be
       0.03207849 0.2737761 0.13131987 -0.15178895
000010 a4 d2 93 3e 43 82 1f be a2 b8 26 3d a4 66 d5 3d
       0.28871644 -0.15577035 0.040703423 0.10419968
000020 1f bf 44 3e 6b 5b 10 3e 1d b9 40 be 7c e2 c4 3d
       0.19213532 0.14097373 -0.18820615 0.09613511
000030 19 6e 0f 3e 8e 6a 0b 3e 67 9d 5f 3e f8 a9 0e be
       0.14006843 0.13614866 0.21837388 -0.13932025
000040 2f 86 06 3e f5 5e 85 be 48 4c 31 3e 7c 07 63 3e
       0.13137124 -0.2604901 0.17314255 0.22170824
000050 41 6d 9f bd 8c 64 4e 3e b2 1b 8b bd 89 07 9e 3e
       -0.077845104 0.20155543 -0.06792392 0.30865124
000060 8e 3d f6 bd 37 0f aa bd 98 77 43 bd 99 a9 ac be
       -0.120234594 -0.08303683 -0.047721475 -0.33723143
000070 f9 2c a4 3c e3 e5 78 3d f8 db 4f be 19 5e 2c 3e
       0.020040976 0.060766112 -0.20298755 0.1683277
000080 44 3a 44 3e a7 db 24 3d 68 41 8c 3e 08 7d 52 3e
       0.19162852 0.04024854 0.2739365 0.20555508
000090 58 f0 de bd 70 2b 40 be 41 8f 7e 3e 3a 34 c6 bd
       -0.10885686 -0.1876657 0.24859335 -0.0967793
0000a0 f2 34 5b 3e eb 46 3c 3e 8d 4c f4 3c 13 97 74 3e
       0.21406916 0.18386428 0.029821659 0.23885755
0000b0 11 62 29 3e 91 73 a1 bd ce a9 17 be c4 47 28 3e
       0.16541316 -0.07883371 -0.14810869 0.16433626
0000c0 ce e9 f7 bd 95 fb 9c 3e 14 49 72 bd 79 27 06 be
       -0.121051416 0.30660692 -0.059151724 -0.13100995
0000d0 8f fd 0e 3e 2c 44 5e 3e 2f 1d 2e be ab 0a 8c 3d
       0.13963912 0.21705693 -0.1700332 0.06837972
0000e0 56 15 2c 3d 06 a8 92 bd b5 7d 44 be b9 44 51 3e
       0.042012535 -0.07160954 -0.19188578 0.20436372
0000f0 a3 4f 1f be 42 69 ed 3d 1b af 86 3b 09 54 16 3e
       -0.15557723 0.11592342 0.0041102297 0.14680494
000100 33 0e bc bd 7f 21 17 be 6a de b3 bc 5e 85 fc 3d
       -0.09182396 -0.14758871 -0.021956641 0.12330125
000110 1c b6 0e ba 48 74 30 bc 69 f2 83 3e 37 44 07 bc
       -0.00054440065 -0.010769911 0.25770882 -0.00825601
000120 ff 7f 5a be 46 5f 00 3e 81 cd e1 3c d0 51 02 3e
       -0.21337889 0.12536344 0.027563812 0.12726521
000130 71 58 8b 3e db 91 34 be 04 0c ed 3a 09 4e b6 3e
       0.27215913 -0.17633764 0.0018085246 0.3560641
000140 a8 18 dc bd da 9e ad bc 8f 38 5a 3c 11 40 08 3e
       -0.1074689 -0.02119391 0.013319149 0.1330569
000150 3b 33 4d be 0d c6 52 be 64 a7 ce bd 5b eb 09 be
       -0.20039074 -0.20583363 -0.10090521 -0.13468687
000160 f1 81 68 3e 9d 59 0c be 95 2f 4a 3a f5 1d 51 bd
       0.22705819 -0.1370606 0.0007712779 -0.05105396
000170 c3 15 29 be 72 4a 07 3d d6 57 44 bd b3 48 b5 bd
       -0.16512208 0.03302998 -0.04793533 -0.08851757
000180 71 4b 74 be 8c ee 64 be b6 70 6e be 80 ce 77 3e
       -0.23856904 -0.22356623 -0.23285183 0.24199867
000190 85 d8 eb 3c 2d d4 fe bd 30 cf 3c bd ae 25 72 bc
       0.028789768 -0.12442813 -0.046096027 -0.014779491
0001a0 02 15 34 3e 1f 2c 7d 3e 6f b9 6b bd e9 50 c7 3d
       0.17586139 0.24723862 -0.05754989 0.09732229
0001b0 95 26 1a be 2e e2 6d 3d b0 6b f1 bd f4 eb 66 3c
       -0.1505378 0.05807703 -0.11788118 0.014094342
0001c0 9c a5 58 bd b7 97 7b 3e 7a 7d 33 bd 44 13 43 be
       -0.052892312 0.24569593 -0.043820836 -0.19050318
0001d0 13 89 17 be d7 d8 a2 be cf 1b 12 be 77 86 83 3d
       -0.14798383 -0.3180606 -0.1426842 0.064221315
0001e0 04 73 5b 3d 60 cb 1a 3e 0c 6e 72 be 01 7b 4f be
       0.053576484 0.15116644 -0.23674792 -0.20261766
0001f0 f5 6e eb bd 9f c6 23 bd e3 a4 55 3e f7 7c 84 bd
       -0.11495773 -0.03998434 0.2086368 -0.06469148
000200 d9 05 68 be 7d 72 63 3e 94 54 4d bc 2e 20 8f 3e
       -0.2265848 0.22211643 -0.012532372 0.2795424
000210 af b8 60 3e 29 38 5c 3e d0 7c 3c bd 1b 65 0d 3e
       0.21945451 0.21505798 -0.046017468 0.138081
000220 74 a0 23 3e 93 62 f0 3d 09 b1 35 3e c8 36 8b bc
       0.15979177 0.117375515 0.17743315 -0.016993895
000230 10 46 7c bd 4b 02 5c 3d 2d 28 56 bd b9 8c 41 be
       -0.061590254 0.053713124 -0.05228441 -0.18901338
000240 d2 b5 76 be 38 cf 14 be 40 5c 59 3e a9 cc 2c be
       -0.24092796 -0.14532173 0.21226597 -0.16874947
000250 3b ab 06 bb 93 c1 29 be 81 70 45 bd 2a a9 16 3d
       -0.0020548839 -0.16577749 -0.048202995 0.03678242
000260 6f 74 45 be 73 cc eb 3d 89 1a 4e be 32 9f 6f be
       -0.19282697 0.11513605 -0.2012731 -0.23400572
000270 59 55 fb 3d 51 b9 3a 3e 2a 0d 7b bd a0 47 c1 3d
       0.12272138 0.18234755 -0.06129185 0.094374895
000280 cf 97 8a bd d6 ac 35 3e be 03 21 bc 55 de 12 bd
       -0.067672364 0.17741713 -0.009827552 -0.035856564
000290 51 8c 38 3e 15 90 91 3d aa 93 28 be 93 0b 1e 3e
       0.18022276 0.071075596 -0.1646258 0.15434103
0002a0 78 25 c5 bd a6 fa 13 3e 5f d9 23 3d 47 81 36 bb
       -0.09626287 0.14451084 0.040002223 -0.0027848051
0002b0 b0 b4 35 3e 40 12 94 be d0 2b 4f 3e a2 b6 2e be
       0.17744708 -0.28920174 0.20231557 -0.17061856
0002c0 3a b3 38 3e 00 7b 43 3e 39 88 ac bd 67 c0 b0 3c
       0.1803712 0.1908989 -0.0842442 0.02157612
0002d0 4a 23 c3 3c 5b 14 06 be 67 56 81 be a6 ba 9e 3d
       0.023820538 -0.13093702 -0.25261232 0.07750444
0002e0 e1 d3 47 bd 50 f7 84 bd df f7 d7 3c fd 86 7a be
       -0.048786048 -0.064924836 0.026363311 -0.24465556
0002f0 36 be 2d be dc a9 fd 3c a1 23 29 be 10 e9 17 3e
       -0.16967091 0.030964784 -0.16517498 0.14835
000300 92 c3 48 be f5 57 a3 3c 9c cf 0d be 77 7d b8 3d
       -0.19605854 0.019939402 -0.13848728 0.090083055
000310 ae 27 50 bb 29 5c 50 be 1c db 1a 3d 15 dd 99 bc
       -0.0031761932 -0.20347656 0.037806615 -0.018782178
000320 cb 4b 7b be 67 9f 7a 3e 1c d3 0d 3e dc 71 71 be
       -0.24540631 0.2447487 0.13850063 -0.2357859
000330 af 77 e9 bd 18 70 9c 3c 84 e1 77 be 6c 10 21 bd
       -0.11399781 0.01909642 -0.24207121 -0.0393223
000340 7d e5 e6 bd e3 82 9d bd a2 61 3c be f8 0f 13 be
       -0.1127424 -0.0769098 -0.18396619 -0.1436156
000350 cb cf 3e 3e b7 10 bd 3d 97 50 21 3e 6f 5e 38 3d
       0.18633954 0.09231704 0.15753399 0.045011934
000360 9a bd ac 3d d7 86 08 be 36 fe 1f be d2 ac 0f 3d
       0.08434601 -0.13332687 -0.15624318 0.035076924
000370 ab 89 3c be bc 55 ec bc 71 6c 8b 3d 8c c5 fc 3c
       -0.18411891 -0.028849475 0.06807793 0.030855916
000380 e6 d5 44 be
       -0.19222221

layers.2.bias f4 [15]
000000 20 3e 05 be 42 d1 5d bc 2f af 0e 3c af 3d 11 be
       -0.1301198 -0.0135386605 0.008708759 -0.14183687
000010 f2 db 50 be 47 eb 00 3d f6 b4 fd bc 71 9f 20 3e
       -0.20396402 0.031474378 -0.030970078 0.15685822
000020 6f db d6 bd f8 69 6b be 13 c1 68 3e a3 25 c1 3d
       -0.104910724 -0.22989643 0.22729902 0.09431007
000030 84 8a 16 be 2d eb 62 3e 4e cd 55 be
       -0.14701277 0.22160025 -0.20879099

layers.4.weight f4 [1, 15]
000000 01 42 94 3e f9 df ea 3e 08 69 8b 3e 71 b2 92 3e
       0.28956607 0.45874003 0.2722857 0.28651765
000010 91 98 32 3d f6 15 d5 3e f7 98 72 bc 10 db 81 3e
       0.04360253 0.41618317 -0.0148069775 0.25362444
000020 9e d7 79 3d d2 8c 34 be 59 bf 53 be d1 65 1c be
       0.060996644 -0.17631844 -0.20678462 -0.15273215
000030 e1 8e 38 be f1 22 79 be b8 eb 10 be
       -0.18023254 -0.24329735 -0.1415242
