model/results/skew-skew/mean-e10000/150-150-SGD-tanh-0.001-50-e10000-mean.pt (torch, 97351 bytes, 5 tensors)

layers.0.weight f4 [150, 5]
0.06435962 0.03199307 0.15520804 -0.43673274 -0.10378841 -0.030960498 0.40481323 0.28271958
0.36520988 0.10207206 -0.13587141 -0.07101884 0.2512246 -0.39357403 0.22185503 -0.0320107
0.14414398 0.20546855 0.2664207 0.31373003 -0.035417747 0.22154216 -0.22905229 -0.23457006
0.2905577 0.0015608385 0.10802665 0.0046067634 -0.19943637 -0.03454958 0.11038239 -0.2104565
-0.25357974 0.11666842 0.32458693 0.25100335 0.009525908 0.30531108 -0.40976655 0.19555424
-0.10636048 -0.43433237 0.44852224 -0.01550049 -0.001252538 -0.179155 0.1824901 -0.34108195
-0.21154076 -0.13328336 0.012683101 -0.32270932 0.41312551 -0.011044109 -0.32771862 0.06936644
-0.3097734 0.39711356 -0.11925347 0.34039944 -0.3199698 0.39207578 -0.09951866 0.34226558
0.32732213 -0.2357929 0.35963497 -0.21771522 -0.14422236 0.04381922 -0.02179986 -0.3745756
-0.45412886 0.10442073 -0.35147217 -0.190645 0.4491679 0.36968282 0.41719186 0.20975953
0.24490358 0.40665856 0.047236692 -0.3646918 0.19568636 -0.27050677 -0.3582001 -0.16455442
0.18559419 -0.079531685 0.42929453 0.37357545 0.22121522 0.33372906 -0.055440567 -0.308713
0.20868444 0.43922156 -0.1892744 -0.26602483 -0.11289303 -0.35309687 -0.13357638 -0.29031593
0.019381087 -0.10187228 -0.008157174 0.11401153 0.065041624 -0.05560248 -0.14664178 0.363502
-0.4289866 0.016934656 0.3345164 -0.11225315 0.4343074 0.2619201 0.23988782 0.12432281
-0.26495084 -0.29117268 0.3813402 -0.27219775 0.20885578 -0.24597333 0.19420086 -0.09205448
-0.2252567 -0.20236292 0.030305218 -0.29149768 0.28316444 0.0021332046 0.09816719 0.4000524
0.26852527 -0.0047744215 -0.30249166 0.13442186 0.033586003 -0.4311814 -0.059683833 -0.19381943
0.056560587 0.05143708 -0.09740396 0.26360413 -0.29440507 0.38850027 0.23839754 -0.25445485
-0.27192956 -0.15487804 -0.29798886 -0.31792015 0.12875417 -0.20999268 0.24563454 -0.18190832
0.32465273 0.2765347 -0.48001865 0.26657644 -0.38169187 0.27015227 -0.030622717 -0.1309155
0.12435895 -0.37495318 -0.17749989 0.16726011 0.44609383 0.3691506 -0.18495022 0.12240965
-0.28467956 0.106084265 0.26474643 0.2551889 0.054754727 0.33063963 0.34653318 -0.3735077
0.18611988 -0.40075174 0.21138436 0.16846079 0.0859056 -0.2010422 0.18814802 -0.044742424
0.1977765 0.27847975 0.26466557 -0.26128948 -0.27382854 -0.41823512 -0.10015934 -0.21926335
0.02831748 0.13224818 -0.3692489 -0.21091479 0.16280422 0.114967585 -0.1952272 -0.41002548
0.41400564 -0.017538054 0.24956785 0.10079878 -0.21431863 0.25334272 0.32213762 -0.3249531
0.4161154 0.3816651 0.3687501 0.19444597 0.0069051655 -0.4005391 -0.2896754 0.31992695
-0.081323735 0.05754646 0.21274292 0.53214717 -0.16782905 -0.03819077 -0.11033957 -0.010524307
0.15321593 0.26654828 0.019376248 0.3891161 -0.36122683 -0.42756873 -0.031748857 0.14839901
-0.3020133 -0.24729918 0.21023309 0.17197442 -0.22073826 -0.41291523 0.14349031 0.38425153
-0.22994691 0.34793106 -0.042000353 0.21335192 -0.16108671 -0.3767942 0.40117 0.024170682
00000000: face 833d 2a0b 033d dbee 1e3e 6f9b dfbe
00000010: 058f d4bd dfa0 fdbc ae43 cf3e 9fc0 903e
00000020: cafc ba3e 280b d13d e021 0bbe 5372 91bd
00000030: 83a0 803e 8982 c9be f72d 633e a71d 03bd
00000040: 7b9a 133e 5966 523e 4b68 883e 39a1 a03e
00000050: 3312 11bd f3db 623e af8c 6abe 2233 70be
00000060: fbc3 943e 0d95 cc3a 143d dd3d 55f4 963b
00000070: 0c39 4cbe dc83 0dbd 2a10 e23d e981 57be
00000080: 34d5 81be daef ee3d 4230 a63e 8383 803e
00000090: 8e12 1c3c bc51 9c3e eccc d1be 5f3f 483e
000000a0: 86d3 d9bd d060 debe b5a4 e53e c4f5 7dbc
000000b0: 332c a4ba 6974 37be afde 3a3e 4ba2 aebe
000000c0: 249e 58be 6f7b 08be c8cc 4f3c 283a a5be
000000d0: 3085 d33e 5af2 34bc bcca a7be fe0f 8e3d
000000e0: 9e9a 9ebe 7852 cb3e 2a3b f4bd d648 ae3e
000000f0: 15d3 a3be 28be c83e 70d0 cbbd 6f3d af3e
00000100: c496 a73e b273 71be 1322 b83e bdf0 5ebe
00000110: 07af 13be c87b 333d 9f95 b2bc 5fc8 bfbe
00000120: 9483 e8be 89da d53d 29f4 b3be 7138 43be
00000130: 56f9 e53e 1147 bd3e 2c9a d53e 34cb 563e
00000140: 01c8 7a3e 8d35 d03e 437b 413d e2b8 babe
00000150: 0162 483e dd7f 8abe 0166 b7be f480 28be
00000160: 670c 3e3e 82e1 a2bd 7ecc db3e 4845 bf3e
00000170: 3e86 623e 89de aa3e a615 63bd a10f 9ebe
00000180: 60b1 553e a6e1 e03e 26d1 41be 6834 88be
00000190: 7634 e7bd 1dc9 b4be 3fc8 08be 4aa4 94be
000001a0: 16c5 9e3c 6aa2 d0bd aba5 05bc e17e e93d
000001b0: 8b34 853d 6dbf 63bd 4329 16be ef1c ba3e
000001c0: 22a4 dbbe 8cba 8a3c bc45 ab3e fbe4 e5bd
000001d0: 8a5d de3e 641a 863e 27a5 753e f59c fe3d
000001e0: a3a7 87be 9614 95be 063f c33e 815d 8bbe
000001f0: 4ade 553e 6fe0 7bbe 97dc 463e 0f87 bcbd
00000200: b1a9 66be 3a38 4fbe a642 f83c 2f3f 95be
00000210: eefa 903e 3ccd 0b3b e10b c93d abd3 cc3e
00000220: 257c 893e c072 9cbb 30e0 9abe e2a5 093e
00000230: 7a91 093d cfc3 dcbe 0977 74bd 9a78 46be
00000240: 13ac 673d b0af 523d ba7b c7bd 1ff7 863e
00000250: 43bc 96be 82e9 c63e 7c1e 743e e847 82be
00000260: 5a3a 8bbe 5998 1ebe ff91 98be 6ec6 a2be
00000270: 22d8 033e 5208 57be 9f87 7b3e 2d46 3abe
00000280: e238 a63e f595 8d3e 01c5 f5be b57c 883e
00000290: 1e6d c3be 6651 8a3e 7edc fabc b60e 06be
000002a0: e8af fe3d ddf9 bfbe 88c2 35be 3c46 2b3e
000002b0: 6966 e43e 4f01 bd3e 9763 3dbe e9b1 fa3d
000002c0: 85c1 91be b542 d93d d88c 873e 1fa8 823e
000002d0: 7e46 603d 9949 a93e cc6c b13e 673c bfbe
000002e0: 3696 3e3e 552f cdbe 2475 583e fc80 2c3e
000002f0: 46ef af3d 02de 4dbe e0a9 403e d543 37bd
00000300: ec85 4a3e e694 8e3e 3f82 873e bcc7 85be
00000310: 4133 8cbe ea22 d6be 5720 cdbd 9286 60be
00000320: 0ffa e73c 116c 073e 310e bdbe 0cfa 57be
00000330: 26b6 263e 2074 eb3d a4e9 47be dcee d1be
00000340: 8cf8 d33e f7ab 8fbc b78e 7f3e 976f ce3d
00000350: 5876 5bbe 23b6 813e 39ef a43e 4160 a6be
00000360: 140d d53e 9c69 c33e d0cc bc3e d81c 473e
00000370: ba44 e23b 7613 cdbe 5650 94be 77cd a33e
00000380: 0f8d a6bd d6b5 6b3d 48d9 593e cc3a 083f
00000390: 61db 2bbe ed6d 1cbd b6f9 e1bd 256e 2cbc
000003a0: a3e4 1c3e 0479 883e f0ba 9e3c 3a3a c73e
000003b0: b9f2 b8be 4aea dabe 170b 02bd e9f5 173e
000003c0: 7da1 9abe ff3b 7dbe 5847 573e 101a 303e
000003d0: 3609 62be a069 d3be 20ef 123e 9ebc c43e
000003e0: 3477 6bbe 0524 b23e 9008 2cbd ed78 5a3e
000003f0: eaf3 24be 2beb c0be 2766 cd3e 9801 c63c

layers.0.bias f4 [150]
0.28175092 -0.44764456 -0.2027558 0.015164729 0.079783484 -0.26645458 -0.14440095 0.1692922
0.17088456 0.13510552 0.13346459 -0.46766987 -0.44714138 -0.2582434 -0.16291343 0.23260829
-0.32103923 0.17362702 -0.016196916 -0.22136514 -0.440203 0.34286922 0.40713394 -0.2843212
0.1306742 -0.40277022 -0.16084594 -0.093962766 -0.42294014 -0.3280278 0.39785284 0.41037738
-0.3613879 0.37932527 -0.32799128 -0.16600552 0.22357635 -0.28624958 -0.28927207 -0.40725693
-0.18568519 0.23939574 -0.26102337 0.19672912 0.32363287 -0.43917203 0.27303448 -0.3303297
-0.17507799 -0.37298554 0.25486466 -0.090759434 -0.13342877 0.11203404 0.15188782 0.037545677
0.3200199 0.03678529 -0.37510037 -0.29912233 0.21934444 -0.2588991 0.0071196374 0.41075027
0.06769505 0.18635899 0.14043316 0.23512988 -0.09821737 -0.012156958 -0.035534453 0.22550713
-0.29155418 0.008941098 -0.36239463 0.22936356 0.31232676 -0.49326503 -0.10238802 -0.30207115
0.31053862 -0.03601957 -0.2332809 -0.009224905 0.32714278 0.08742646 -0.11242046 0.123767294
0.1887445 -0.42554027 0.34339672 0.45459408 -0.27209595 -0.27195644 0.1113715 0.17700027
0.21053134 0.35143068 0.4033623 -0.045898065 0.3332257 0.045955133 0.16513671 0.006574225
-0.28149027 -0.058108814 0.2343027 0.4268817 0.26004487 0.26297584 -0.049073152 -0.2450805
0.077899 -0.4009207 -0.2575359 0.1816936 -0.12608396 -0.39852288 -0.11497819 0.41059622
0.13429675 0.10788176 -0.021558253 0.2357221 -0.15122096 -0.18691431 0.2651569 0.3798863
-0.3241536 -0.12065228 -0.1237128 -0.44020563 -0.01654109 0.417645 0.17867705 0.21916625
-0.3126342 -0.16825882 -0.022404445 0.095811404 0.06149267 -0.20899166 0.3027897 -0.30566764
-0.4247796 0.23579809 0.4155193 -0.42324054 -0.09780811 0.27934843
00000000: a841 903e ab31 e5be 379f 4fbe 7c75 783c
00000010: 8665 a33d bc6c 88be d8dd 13be ef5a 2d3e
00000020: 5dfc 2e3e 1a59 0a3e f1aa 083e 6d72 efbe
00000030: b7ef e4be 7b38 84be c7d2 26be de30 6e3e
00000040: 415f a4be 48cb 313e 65af 84bc 8bad 62be
00000050: 4a62 e1be 8e8c af3e dc73 d03e 8c92 91be
00000060: 75cf 053e e637 cebe ccb4 24be 8d6f c0bd
00000070: 9c8b d8be 43f3 a7be 5eb3 cb3e fc1c d23e
00000080: d607 b9be ec36 c23e 79ee a7be 5afd 29be
00000090: 33f1 643e 4e8f 92be 781b 94be fb83 d0be
000000a0: 4224 3ebe 2824 753e dba4 85be 5c73 493e
000000b0: 35b3 a53e 28db e0be 2dcb 8b3e f920 a9be
000000c0: a547 33be f6f7 bebe 9f7d 823e 15e0 b9bd
000000d0: 8da1 08be 1a72 e53d 7b88 1b3e 7fc9 193d
000000e0: a6d9 a33e 2cac 163d 280d c0be 9026 99be
000000f0: d49b 603e 6c8e 84be d94b e93b dc4d d23e
00000100: b4a3 8a3d e4d4 3e3e b6cd 0f3e e3c5 703e
00000110: 3026 c9bd fa2d 47bc 938c 11bd 57eb 663e
00000120: 9746 95be af7d 123c ca8b b9be 48de 6a3e
00000130: 4be9 9f3e 3c8d fcbe cfb0 d1bd 12a9 9abe
00000140: ebfe 9e3e 4289 13bd 30e1 6ebe 0e24 17bc
00000150: 427f a73e a50c b33d b33c e6bd b579 fd3d
00000160: 3d46 413e 6ae0 d9be b2d1 af3e 8ec0 e83e
00000170: 2950 8bbe e03d 8bbe be16 e43d 8f3f 353e
00000180: 8795 573e b9ee b33e 8185 ce3e 9cff 3bbd
00000190: 8f9c aa3e 733b 3c3d 9919 293e 996c d73b
000001a0: 7e1f 90be 8203 6ebd 0ced 6f3e 3d90 da3e
000001b0: 9a24 853e c5a4 863e ee00 49bd 62f6 7abe
000001c0: 8389 9f3d 7a45 cdbe bfdb 83be e30d 3a3e
000001d0: 271c 01be 310b ccbe af79 ebbd ab39 d23e
000001e0: 1685 093e 1df1 dc3d ef9a b0bc 2261 713e
000001f0: abd9 1abe 7766 3fbe a5c2 873e 7580 c23e
00000200: 76f7 a5be 8b18 f7bd 235d fdbd a262 e1be
00000210: 2e81 87bc 91d5 d53e 1ef7 363e 1e6d 603e
00000220: 9711 a0be 0a4c 2cbe 8789 b7bc c538 c43d
00000230: bddf 7b3d e901 56be 4007 9b3e 7880 9cbe
00000240: b67c d9be 0e75 713e f2be d43e fcb2 d8be
00000250: 9e4f c8bd c206 8f3e

layers.2.weight f4 [150, 150]
-0.0641238 -0.08018771 -0.065665565 0.05732408 0.031154811 -0.08028705 0.018832298 0.039595943
0.057079848 0.038620744 0.011294175 0.025381912 -0.03966515 -0.02681941 -0.01150961 0.013730996
-0.04611657 -0.055653963 0.07721253 0.00040981246 -0.07414341 -0.06595282 -0.038320962 -0.0045531224
0.027261334 -0.043285828 -0.0036377646 0.057605404 -0.06896102 0.035344273 0.06313516 -0.0038506272
-0.05107535 0.01758628 0.038406577 -0.011966087 -0.049253054 -0.055627774 0.022827972 -0.055109788
-0.078601 0.045812957 0.037196357 -0.061932337 -0.07532766 -0.028411832 0.026591472 0.038471956
0.008823562 -0.037318476 0.06255867 0.014443333 0.07680964 0.0200034 0.036984928 -0.03153844
-0.037512477 -0.007944943 -0.019121129 0.0723898 0.045128457 0.002140653 -0.024631001 0.05061933
0.020157797 -0.0137483785 -0.03511859 0.051564712 -0.01705397 0.034729183 -0.06807628 0.053337734
-0.050252333 -0.055962507 -0.07560173 0.025020953 -0.044122707 -0.042861056 0.04018249 -0.06177504
0.024624182 -0.051354647 -0.07457027 -0.04886595 -0.031869955 0.04148118 -0.060093388 -0.025089148
-0.033514507 -0.03238324 -0.06973003 0.029534755 0.064905085 0.009410433 0.044004604 0.0399916
0.0030416097 0.051994838 0.036607485 0.07416673 -0.029603014 0.04072808 0.040002603 -0.06499211
-0.019132711 -0.0329155 0.05372863 0.010158131 -0.019800691 -0.054545797 0.052679837 0.0055028345
-0.0019478673 -0.063492954 -0.034998424 -0.029388193 -0.053675376 -0.030457899 0.070366606 0.042976413
-0.0022367728 -0.0002530919 -0.043041755 -0.07465498 0.07789833 -0.03353332 0.03840534 -0.026936796
-0.05295221 0.024924632 0.029516555 -0.0677395 -0.04294938 0.0059151226 0.021559855 -0.062816076
-0.077770226 -0.080800794 0.0041279676 0.02895048 0.07579785 0.08111764 -0.034266934 -0.041176006
-0.0713855 -0.023408713 -0.03275757 -0.032195505 0.062008973 0.030924397 -0.050381888 0.07917758
0.063480034 -0.047068477 0.0076498077 0.068994924 -0.03997214 0.07003569 0.04357029 -0.030254265
-0.079413675 0.00037741748 -0.015624848 0.0074448823 0.033117834 -0.05946668 0.03778948 0.028244784
0.042493157 0.08606886 -0.026857007 -0.038103584 -0.08480606 0.06091253 -0.05337896 -0.043275684
0.038004167 0.08237418 0.00452054 0.07147681 -0.015396136 0.008055683 -0.03251141 0.0821428
-0.032028034 0.016667672 -0.071958795 0.08111293 -0.01387036 0.04970496 0.07327928 -0.0015832433
-0.04049146 0.008837276 -0.04919161 -0.062794015 -0.0018961142 -0.0037272861 0.061403986 0.0025473684
0.04324962 0.01803982 0.031727407 -0.027617918 0.018431796 0.0024725974 -0.04697649 0.060308576
0.07249413 0.03568227 -0.064396314 0.030395765 0.042656388 -0.030431496 0.015254442 -0.03298586
-0.031555794 0.006214451 0.04369102 0.0050655217 0.07400002 -0.05771318 -0.011301007 -0.06749108
0.017003901 0.023084478 0.015214192 -0.017912328 -0.07144864 0.070468485 -0.008357518 -0.023561645
-0.03772897 0.01442573 0.036308527 0.0131463455 0.044439126 -0.08096194 -0.07125527 0.018341668
0.048300777 0.0077758394 0.07517767 -0.011479518 0.05418076 -0.033341043 0.00557671 -0.07224101
-0.038816128 -0.0631188 -0.07014989 -0.017855925 -0.022964157 -0.0021125202 -0.04708168 -0.0036264965
00000000: 5753 83bd 7439 a4bd ab7b 86bd a8cc 6a3d
00000010: 6038 ff3c 896d a4bd 3146 9a3c 5b2f 223d
00000020: 8fcc 693d c930 1e3d 340b 393c baed cf3c
00000030: ed77 22bd 61b4 dbbc ce92 3cbc f9f7 603c
00000040: bae4 3cbd 69f5 63bd 9a21 9e3d 19dc d639
00000050: 80d8 97bd 4612 87bd 71f6 1cbd 5c32 95bb
00000060: 2953 df3c 7b4c 31bd 9067 6ebb a5f3 6b3d
00000070: 6f3b 8dbd 28c5 103d 024d 813d ce5a 7cbb
00000080: 6334 51bd 1a11 903c 3750 1d3d 680d 44bc
00000090: 92bd 49bd f3d9 63bd ba01 bb3c cdba 61bd
000000a0: 90f9 a0bd 5ea6 3b3d 355b 183d c3ac 7dbd
000000b0: 6345 9abd eebf e8bc 5cd6 d93c c594 1d3d
000000c0: b490 103c 42db 18bd c31e 803d bba3 6c3c
000000d0: 5f4e 9d3d 2cde a33c 827d 173d 742e 01bd
000000e0: afa6 19bd 822b 02bc eaa3 9cbc 1a41 943d
000000f0: 9ed8 383d 334a 0c3b f4c6 c9bc 3756 4f3d
00000100: f721 a53c e140 61bc 83d8 0fbd 8535 533d
00000110: c4b4 8bbc 3040 0e3d 946b 8bbd ab78 5a3d
00000120: 64d5 4dbd f138 65bd 14d5 9abd bef8 cc3c
00000130: 03ba 34bd 138f 2fbd 6596 243d d307 7dbd
00000140: a7b8 c93c 4059 52bd 4cb8 98bd aa27 48bd
00000150: 128a 02bd 2be8 293d 7c24 76bd c287 cdbc
00000160: 8246 09bd 4aa4 04bd 9ece 8ebd dff2 f13c
00000170: f5ec 843d 372e 1a3c 2c3e 343d 3bce 233d
00000180: be55 473b 8af8 543d bbf1 153d bae4 973d
00000190: 0582 f2bc 7dd2 263d c5d9 233d 951a 85bd
000001a0: 34bc 9cbc 67d2 06bd 8d12 5c3d 4a6e 263c
000001b0: 0f35 a2bc 6a6b 5fbd d0c6 573d 1f51 b43b
000001c0: 954f ffba 9808 82bd 825a 0fbd 82bf f0bc
000001d0: b6da 5bbd d882 f9bc 5e1c 903d 0908 303d
000001e0: d296 12bb 6bb1 84b9 8d4c 30bd b6e4 98bd
000001f0: 2989 9f3d 3c5a 09bd eb4e 1d3d 8eaa dcbc
00000200: 6be4 58bd be2e cc3c b4cc f13c 02bb 8abd
00000210: b0eb 2fbd a5d3 c13b 4b9e b03c b7a5 80bd
00000220: ff45 9fbd e37a a5bd e743 873b 8f29 ed3c
00000230: e73b 9b3d 0121 a63d 7c5b 0cbd 2ca8 28bd
00000240: 9032 92bd a1c3 bfbc cd2c 06bd 6fdf 03bd
00000250: 1ffd 7d3d 2955 fd3c 3d5d 4ebd db27 a23d
00000260: d201 823d e0ca 40bd 3dab fa3b 364d 8d3d
00000270: d4b9 23bd df6e 8f3d c376 323d cbd7 f7bc
00000280: a3a3 a2bd 1ee0 c539 5dff 7fbc 33f4 f33b
00000290: 91a6 073d 5593 73bd 24c9 1a3d 9b61 e73c
000002a0: 4e0d 2e3d df44 b03d 3a03 dcbc 8112 1cbd
000002b0: cdae adbd 6b7f 793d e5a3 5abd d841 31bd
000002c0: 42aa 1b3d cbb3 a83d 0a21 943b 6f62 923d
000002d0: 1340 7cbc fcfb 033c af2a 05bd 7c3a a83d
000002e0: d42f 03bd a48a 883c 225f 93bd 891e a63d
000002f0: 8240 63bc 6e97 4b3d 7213 963d d484 cfba
00000300: 60da 25bd 39ca 103c 247d 49bd 269a 80bd
00000310: 0987 f8ba 7c45 74bb bf82 7b3d c0f1 263b
00000320: 8326 313d 3fc8 933c 99f4 013d f93e e2bc
00000330: 47fe 963c 4d0b 223b 6c6a 40bd 2006 773d
00000340: cd77 943d 9227 123d 37e2 83bd 8a00 f93c
00000350: 77b8 2e3d 794b f9bc c4ed 793c 2e1c 07bd
00000360: a640 01bd 98a2 cb3b 5bf5 323d adfc a53b
00000370: 538d 973d a864 6cbd dc27 39bc c338 8abd
00000380: c44b 8b3c a91b bd3c f244 793c e0bc 92bc
00000390: aa53 92bd c851 903d f9ed 08bc 5a04 c1bc
000003a0: b189 1abd e659 6c3c 40b8 143d c563 573c
000003b0: cd05 363d 60cf a5bd 48ee 91bd 4441 963c
000003c0: 09d7 453d 78cc fe3b c0f6 993d 9714 3cbc
000003d0: a5ec 5d3d 9e90 08bd d6bc b63b 18f3 93bd
000003e0: a9fd 1ebd 6e44 81bd bfaa 8fbd 9746 92bc
000003f0: 541f bcbc 3572 0abb b8d8 40bd 84aa 6dbb

layers.2.bias f4 [150]
-0.006437447 -0.036902573 0.021092502 -0.018702213 0.03259828 0.03879217 -0.026977062 -0.06984888
-0.100623846 0.07505506 -0.029407596 0.019869734 0.018501565 0.049468603 0.016986156 0.04797942
-0.07249903 -0.03984623 0.06667414 0.05163473 -0.053046335 0.024430485 0.0293501 -0.046149902
0.039294485 0.06428683 -0.08545638 0.035074443 0.03731168 -0.006834026 -0.06259187 0.07024925
0.017839437 -0.07288717 0.06549095 -0.0014710013 0.070013635 0.061421335 0.04529189 -0.0590636
0.048641056 0.08922916 0.08030754 -0.06537418 0.07432708 -0.0882493 -0.08519559 0.030510725
-0.069937006 -0.049268406 0.06271839 0.050949167 -0.07891617 0.08070534 0.073435426 -0.06999451
0.0014437712 0.08118819 -0.02925041 0.015422811 -0.02900614 -0.015931511 0.06829545 -0.0033041155
0.020542914 0.00172572 -0.03140051 0.018954525 0.04053106 0.07145512 0.038834378 -0.018923767
0.06210479 -0.028044255 0.06833075 0.023483157 0.031727847 0.059317872 -0.045852076 0.049653355
0.03358971 -0.01775983 0.0046305056 0.039179813 0.04850989 0.018943528 0.080282904 -0.03384085
0.065034136 -0.04403654 -0.06948304 -0.07570318 -0.025682522 0.07679624 -0.03873876 0.06477467
0.07714715 0.01177195 0.050751336 0.08021196 -0.015273824 -0.004852576 -0.045597542 0.08454015
0.009340213 0.0045568156 -0.023622876 0.09316451 -0.094808795 0.07996031 0.04296247 -0.04957053
-0.06579057 0.0005005643 0.06019069 0.012890563 0.038109038 -0.042306863 -0.055427644 0.03461288
-0.030515675 -0.051898036 0.02936152 0.027330717 0.008812604 0.026880248 -0.07797584 0.08093946
0.009300567 -0.07921245 0.033657875 0.06333231 0.054947525 0.008008633 -0.07786756 -0.016503248
-0.051793817 0.053895593 -0.06580737 0.009068932 0.041166086 -0.08437689 0.0033512567 -0.030400299
-0.0056560608 0.0639412 0.051451806 -0.070526436 -0.06568593 -0.039234385
00000000: 38f1 d2bb 2727 17bd 2fca ac3c 6235 99bc
00000010: c685 053d 8ae4 1e3d 00ff dcbc ee0c 8fbd
00000020: e013 cebd 78b6 993d 33e8 f0bc dac5 a23c
00000030: 9890 973c 979f 4a3d 8d26 8b3c 1186 443d
00000040: 5f7a 94bd cd35 23bd 748c 883d f07e 533d
00000050: 1d47 59bd 7122 c83c 9f6f f03c ae07 3dbd
00000060: 41f3 203d d0a8 833d c103 afbd 38aa 0f3d
00000070: 22d4 183d f7ef dfbb 2b30 80bd d7de 8f3d
00000080: 0324 923c de45 95bd 1f20 863d 9dce c0ba
00000090: 4f63 8f3d f094 7b3d fd83 393d acec 71bd
000000a0: d83b 473d c7bd b63d 4878 a43d e6e2 85bd
000000b0: cc38 983d 0dbc b4bd 077b aebd a1f1 f93c
000000c0: 223b 8fbd abcd 49bd 8072 803d 13b0 503d
000000d0: cd9e a1bd d748 a53d 5065 963d 4859 8fbd
000000e0: ec3c bd3a fe45 a63d 8e9e efbc f5af 7c3c
000000f0: 499e edbc cd82 82bc 7cde 8b3d dc89 58bb
00000100: 9d49 a83c 8e31 e23a d29d 00bd 8546 9b3c
00000110: e603 263d 1057 923d cc10 1f3d 0406 9bbc
00000120: 9861 7e3d 11bd e5bc fef0 8b3d c05f c03c
00000130: 0ff5 013d 4cf7 723d 63cf 3bbd 5161 4b3d
00000140: 5d95 093d 107d 91bc 7fbb 973b 037b 203d
00000150: 4eb2 463d 752f 9b3c 5d6b a43d b49c 0abd
00000160: 9e30 853d a95f 34bd 204d 8ebd 450a 9bbd
00000170: 2764 d2bc 5947 9d3d 89ac 1ebd 95a8 843d
00000180: 53ff 9d3d 23df 403c a2e0 4f3d 2b46 a43d
00000190: 103f 7abc 5c02 9fbb 7dc4 3abd 6323 ad3d
000001a0: b107 193c 5751 953b c384 c1bc 09cd be3d
000001b0: 1d2b c2bd 3bc2 a33d 6af9 2f3d 780a 4bbd
000001c0: 35bd 86bd 4d38 033a 838a 763d f132 533c
000001d0: 3918 1c3d f649 2dbd 1908 63bd 3cc6 0d3d
000001e0: 02fc f9bc 0993 54bd 9287 f03c abe4 df3c
000001f0: bd62 103c f733 dc3c ccb1 9fbd 96c3 a53d
00000200: 6861 183c 233a a2bd d7dc 093d 5fb4 813d
00000210: a810 613d a436 033c 0779 9fbd d231 87bc
00000220: c125 54bd a0c1 5c3d 04c6 86bd dc95 143c
00000230: c59d 283d cacd acbd c2a0 5b3b 0c0a f9bc
00000240: 7a56 b9bb 9bf3 823d 21bf 523d 2a70 90bd
00000250: 5886 86bd 3cb4 20bd

layers.4.weight f4 [1, 150]
0.0595907 0.017720819 0.017431378 -0.030317094 -0.004757246 -0.08920639 0.103746735 -0.08756399
-0.16720508 0.06780582 0.020963281 -0.030362511 -0.058639724 0.07365906 0.052862957 -0.062022485
0.0030968476 -0.14847183 -0.021441597 0.08405753 0.053776503 0.087091886 -0.121100195 -0.041377503
0.07757413 0.002786562 -0.07076284 -0.034878474 -0.14727151 -0.008210237 -0.146136 0.10354991
-0.053010356 0.12691824 -0.10153069 -0.008152887 0.046697024 0.1367193 0.058020703 -0.079365864
0.049869567 0.14769323 0.10754701 0.013379528 -0.021197947 -0.12124097 -0.08789546 -0.01771306
0.011565763 -0.1198709 -0.0026371847 0.13331218 -0.06395366 0.0890716 0.06468823 0.0029351846
-0.058279607 0.08027407 -0.046425935 0.06340952 0.0047621136 -0.07736546 0.08998318 -0.08076977
-0.015589307 0.0694881 -0.041415356 -0.41942316 -0.09110578 0.03708816 0.016141422 -0.01867979
0.070683114 0.010651287 -0.023044879 -0.021869678 0.025465945 0.050755497 -0.16702332 -0.096317515
-0.04229471 -0.020932501 0.114159666 0.11259381 0.07613819 -0.08095774 0.11692062 0.054440495
0.01027608 0.048998985 0.04253421 -0.076550275 0.04928948 0.004886716 -0.03937119 -0.061134856
0.045053236 0.069285676 -0.0606872 0.017707124 0.0135303745 0.055633623 -0.027780285 0.10286193
0.108863465 0.086952016 0.038134087 0.16448312 -0.08276419 0.08278179 0.054739896 0.05557813
-0.0027467646 0.015419223 0.037704233 -0.065721154 0.012179361 -0.090033785 0.035206188 -0.0031532627
0.096854895 -0.06966472 -0.14172947 0.024710895 0.02803916 0.0018801161 -0.18019336 0.08915453
0.028059784 -0.1005052 0.053819455 -0.079348035 0.0636846 -0.008751255 -0.16945003 -0.033278264
-0.14833035 0.08541919 0.21365495 -0.015907994 0.05609222 0.1350539 -0.0055916035 0.06868373
-0.03603401 0.01563487 0.024216402 0.016691687 -0.017779822 -0.025044108
00000000: 6115 743d 402b 913c 40cc 8e3c 8e5b f8bc
00000010: ace2 9bbb d7b1 b6bd 2b79 d43d c054 b3bd
00000020: cf37 2bbe c7dd 8a3d 30bb ab3c cdba f8bc
00000030: 3530 70bd 90da 963d d486 583d 4a0b 7ebd
00000040: 7bf4 4a3b 0009 18be 4aa6 afbc 5b26 ac3d
00000050: c044 5c3d 3b5d b23d 6103 f8bd 757b 29bd
00000060: 2fdf 9e3d c19e 363b 1cec 90bd bbdc 0ebd
00000070: 58ce 16be 3b84 06bc ada4 15be fa11 d43d
00000080: 6321 59bd dbf6 013e 53ef cfbd b093 05bc
00000090: 6145 3f3d 2500 0c3e 1ea7 6d3d 928a a2bd
000000a0: 0844 4c3d e53c 173e 9b41 dc3d cf35 5b3c
000000b0: 51a7 adbc 304d f8bd 8902 b4bd fb1a 91bc
000000c0: 537e 3d3c e07e f5bd 9ed4 2cbb fd82 083e
000000d0: 23fa 82bd 2c6b b63d 437b 843d 3a5c 403b
000000e0: 99b6 6ebd bb66 a43d 1f29 3ebd dadc 813d
000000f0: 810b 9c3b c871 9ebd 1a49 b83d 9f6a a5bd
00000100: 4b6a 7fbc c74f 8e3d 26a3 29bd a2be d6be
00000110: ab95 babd c1e9 173d 043b 843c 5c06 99bc
00000120: 4fc2 903d bc82 2e3c 9dc8 bcbc 0a28 b3bc
00000130: f59d d03c ffe4 4f3d 2908 2bbe 1e42 c5bd
00000140: 383d 2dbd a37a abbc 8bcc e93d 9597 e63d
00000150: 57ee 9b3d 2ccd a5bd 1474 ef3d fffc 5e3d
00000160: 015d 283c 29b3 483d 5a38 2e3d 64c6 9cbd
00000170: c4e3 493d bf20 a03b af43 21bd 8b68 7abd
00000180: be89 383d a6e5 8d3d 2493 78bd 880e 913c
00000190: 81ae 5d3c 15e0 633d 7b93 e3bc 47a9 d23d
000001a0: cff3 de3d e613 b23d 7d32 1c3d 436e 283e
000001b0: 4680 a9bd 8089 a93d f136 603d e5a5 633d
000001c0: 1003 34bb e9a0 7c3c c16f 1a3d d098 86bd
000001d0: f18b 473c a263 b8bd 5d34 103d f8a6 4ebb
000001e0: dc5b c63d 60ac 8ebd 8821 11be 816e ca3c
000001f0: 61b2 e53c 3a6e f63a 9c84 38be a696 b63d
00000200: a2dd e53c acd5 cdbd ca71 5c3d 3981 a2bd
00000210: 126d 823d 6d61 0fbc 4f84 2dbe ca4e 08bd
00000220: e9e3 17be 42f0 ae3d 5dc8 5a3e 7b51 82bc
00000230: f5c0 653d 924b 0a3e c539 b7bb 0eaa 8c3d
00000240: 6698 13bd b314 803c 7a61 c63c 01bd 883c
00000250: fda6 91bc 4d29 cdbc
