model/results/skew-skew/mean-e10000/20-20-SGD-tanh-0.001-50-e10000-mean.pt (torch, 4791 bytes, 5 tensors)

layers.0.weight f4 [20, 5]
000000 fe 5f a2 3d 8a c4 b1 be fe 78 98 3e 4c 4d 25 be
       0.07928465 -0.3472026 0.2977981 -0.16142768
000010 85 a8 88 3e 72 9b 03 be 94 a9 87 3e 81 b6 ba 3e
       0.2669107 -0.12852266 0.26496565 0.36467364
000020 aa 87 56 be 51 67 a2 3e 5a 64 33 3e c2 a4 9b 3e
       -0.20950189 0.3171945 0.1751875 0.30399138
000030 07 b4 0a be 1d 5d 59 3e 78 39 7d 3e 26 47 26 bd
       -0.13545237 0.21226926 0.24728954 -0.040595196
000040 10 d0 ca bd e8 58 7c be eb 15 f7 be 5e 94 3d be
       -0.09902966 -0.2464329 -0.4825891 -0.18513629
000050 9b ef 73 3e 39 f0 72 be 8a cc 50 3e b7 13 af 3e
       0.23821871 -0.2372445 0.20390525 0.3419473
000060 be bf 94 3d 37 8a 0e 3e 3c bf 5d 3a c1 43 ca 3d
       0.072631344 0.13919912 0.0008458977 0.09876204
000070 09 9f 72 3d 5e 7d 84 be 18 e8 e5 3e a3 98 76 be
       0.0592337 -0.25876898 0.44903636 -0.24081664
000080 61 e6 41 be 71 6e 2d 3e cf 18 9c 3e 80 84 42 3e
       -0.18935539 0.16936661 0.30487677 0.18995857
000090 3d 85 bd be 29 a4 a0 be a8 ca 81 3d 31 8c 30 3a
       -0.37015715 -0.31375244 0.06337482 0.00067347573
0000a0 9b 60 fc bd 53 11 37 3d e6 49 25 bf 10 24 57 3e
       -0.123231135 0.044694256 -0.64565885 0.2100985
0000b0 30 f6 01 3e 86 b8 bf bd 7d 46 a2 be 76 25 46 3e
       0.1269157 -0.09361367 -0.31694403 0.19350228
0000c0 85 c3 8a 3e 0b 28 90 bd 92 f1 88 3e 2d ea da be
       0.27102295 -0.070388876 0.26746804 -0.42756787
0000d0 97 b0 18 be ea a8 65 be 61 99 11 be 04 04 3d be
       -0.14911114 -0.22427717 -0.14218666 -0.18458563
0000e0 bf cf 84 be a6 8f b9 3e 7a 09 95 3e e9 83 21 be
       -0.25939748 0.36242408 0.29108793 -0.15772976
0000f0 13 d8 d6 be 23 e7 6a be 34 f3 88 3e 26 fa 6a be
       -0.41961727 -0.22939734 0.2674805 -0.22946987
000100 d4 9a 1e 3e cf 61 5e 3e 74 a8 3e be 99 22 8c 3e
       0.1548875 0.21716999 -0.18618947 0.27370146
000110 64 9f da 3d 89 16 8f be c5 44 65 bd 30 2c 7d be
       0.106749326 -0.2794688 -0.055973787 -0.24723887
000120 b0 48 8b 3d 78 22 b8 be 0a 15 8f 3b 39 ee 9d be
       0.068009734 -0.35963798 0.0043665217 -0.30845812
000130 6e 3e b8 3e b6 20 5e 3c 28 3c b5 3e 97 7d 89 3e
       0.3598513 0.013557604 0.35397458 0.2685363
000140 b9 ed bd bd ad 68 8c 3d c1 68 09 3f e8 75 74 bd
       -0.092738576 0.06855903 0.53675467 -0.059682757
000150 69 1e 18 3e 9e fa 55 be 38 65 31 3e 57 4d 40 3e
       0.1485535 -0.20896384 0.17323768 0.18779503
000160 3e ef 02 be a7 7d 9e be 8a 73 d3 be 11 b0 c1 3d
       -0.12786576 -0.3095524 -0.41299087 0.0945741
000170 fb 74 b7 be 2c ab c6 be 36 f5 07 be 1e 64 bf 3e
       -0.35831437 -0.3880247 -0.13277134 0.3738107
000180 0a 44 64 3e c5 94 1a 3e 5c 2c ea bd 0a 64 4f be
       0.2229158 0.15095814 -0.11434242 -0.20253006

layers.0.bias f4 [20]
000000 ff b3 9c 3d 21 3a a2 bc 4a 32 91 be 44 bc 89 be
       0.07651519 -0.019803109 -0.2835868 -0.26901448
000010 25 3d 24 be 9a c3 d2 3e df de bf 3e 7e 8a 99 be
       -0.1603895 0.41164857 0.37474725 -0.29988474
000020 79 21 0e 3f 71 d1 0d bf 61 c3 a9 3e c6 fe b0 be
       0.55519825 -0.5539771 0.33156875 -0.34569377
000030 ca dc 9c be 1c 0d 07 bd 21 b3 9a be 5c 77 97 be
       -0.306372 -0.032971486 -0.3021479 -0.2958325
000040 23 1f 34 bf 42 c0 a9 3e a2 cd 60 be d7 e4 a4 be
       -0.7036001 0.33154494 -0.21953443 -0.3220584

layers.2.weight f4 [20, 20]
000000 c3 ef e6 bd 84 bd 15 3d e1 c9 61 3e 92 56 23 be
       -0.112762 0.03655769 0.22049667 -0.15950993
000010 a7 ad 45 3e 47 b7 cb 3d 1f 85 88 be e8 20 16 be
       0.19304524 0.09947067 -0.26664063 -0.1466099
000020 cc 91 1e be 1e 37 95 3e db 7f a4 be 48 62 28 3e
       -0.15485305 0.29143614 -0.32128796 0.16443741
000030 df 15 45 3e 28 2b a7 bd f6 06 f0 3d 91 83 11 bd
       0.19246624 -0.08162528 0.11720078 -0.035525862
000040 62 e7 a3 3e cf 56 1e be c3 89 07 be 46 36 29 be
       0.3201247 -0.15462802 -0.13236146 -0.1652461
000050 24 a1 ea bd 01 97 30 bd 31 07 11 3e ee f7 9b 3e
       -0.114565164 -0.04311276 0.141629 0.30462593
000060 3c 4e b9 3d e3 f3 e2 3c c2 88 5a be 34 a7 1b be
       0.09048125 0.027704185 -0.21341231 -0.15200502
000070 fa b1 59 bd da 54 3e bd 86 75 ce bd d4 31 03 3d
       -0.053148247 -0.04646764 -0.100810096 0.03202994
000080 00 28 8f 3d a0 e1 0b be 7c fb 3d 3d 14 0c 18 bd
       0.06990051 -0.13660288 0.046382412 -0.037120894
000090 a4 3a 0f 3d 84 5d cc 3d d2 19 c9 3d 47 2e 18 be
       0.034968033 0.09978774 0.09819378 -0.14861403
0000a0 8b d8 6b bd ad b2 33 be e3 f9 b4 3d ea 17 de 3d
       -0.05757956 -0.17548628 0.088367246 0.10844405
0000b0 b6 4a 6f be f0 c6 74 be 20 0f 49 be fb ca 2f be
       -0.23368344 -0.23904014 -0.19634676 -0.17167275
0000c0 5e 0a 4f 3d 98 74 3d 3e ea 38 53 3e 87 5e 89 bc
       0.050546996 0.18501508 0.2062718 -0.016768707
0000d0 9d 16 29 3e cc 45 e8 3d 89 4d 20 be a1 da f9 3d
       0.16512533 0.11341438 -0.15654577 0.12199903
0000e0 2d 5f cb 3d 40 67 49 be da 99 61 3e 7f 45 37 3e
       0.09930263 -0.19668293 0.22031346 0.17897604
0000f0 7b 4e 1d 3e 36 90 32 be 20 42 f7 3d 97 41 aa bc
       0.15361969 -0.17437825 0.12073159 -0.020783229
000100 1d 73 9c bd f5 68 15 3e 06 de 0d be f8 5a 0d be
       -0.076391436 0.14590819 -0.13854226 -0.13804233
000110 5c 0c 96 3b 48 f5 37 3e 11 99 b4 bd 6d da 07 3d
       0.00457911 0.17964661 -0.088182576 0.03316729
000120 88 ef 04 be f3 83 37 bd 2c a3 67 3d 27 3a 50 bd
       -0.12981999 -0.04480357 0.056552097 -0.05083671
000130 bc f1 5c be bf a1 c6 bc 29 23 72 bd 2f 26 c5 3d
       -0.2157659 -0.024247048 -0.059115563 0.096264236
000140 be ab 78 bd 57 e4 7a bd 04 7e 9c ba 84 e9 b6 bd
       -0.06071066 -0.061252918 -0.0011939411 -0.08931258
000150 dc d2 2f be a1 8f 5b be b1 ef 3b be d5 5c 60 3d
       -0.1717028 -0.21441509 -0.18353154 0.05477603
000160 06 94 e0 bc a0 b1 d7 3d 76 27 c9 bd ca 55 05 be
       -0.027414333 0.10531926 -0.0982198 -0.13021007
000170 d4 c6 7a 3d 60 78 d9 3d cf 1e 39 3e fe 54 29 3c
       0.061224774 0.10618663 0.18078159 0.010335205
000180 43 49 2f 3e 00 31 3d 3d c1 6e c4 bd bf ac fe bb
       0.17117791 0.04618931 -0.09591437 -0.007772058
000190 d9 7a 1a bd ac b2 2f 3e e8 9a 52 be 35 7e 6f 3e
       -0.037714813 0.17158002 -0.20566905 0.23387988
0001a0 46 31 1a 3d 5b 60 4f 3d 8c 4e d3 bd a7 5d 88 3c
       0.037644647 0.050629 -0.10317716 0.01664622
0001b0 70 48 83 3e 8a 7d 0a 3e 82 d8 00 3e 73 cd 78 3d
       0.25641203 0.13524452 0.12582591 0.060742807
0001c0 14 bb 82 bd 45 7c 17 3e 2d e5 93 3d 8f 4b 6d 3c
       -0.063833386 0.14793499 0.07221446 0.014483347
0001d0 98 38 e4 bc b2 1e 03 be 57 69 d9 3d da e3 24 bd
       -0.027859017 -0.12804678 0.10615795 -0.04025636
0001e0 9b 03 9b bd 4e 15 5f 3e 66 6f cf bd 61 d2 1f 3e
       -0.07569047 0.21785471 -0.101286694 0.15607597
0001f0 69 f5 14 3e 36 44 eb bd 75 95 25 be 93 56 43 3e
       0.14546742 -0.114876196 -0.16170295 0.19075994
000200 77 2a 69 3e ea 09 5d 3d f5 c6 03 be ca 0f 03 be
       0.22770105 0.053964533 -0.12868865 -0.12798992
000210 bd c0 a5 bd f3 70 1c bd 7f a2 af 3d 3b 0f 52 3e
       -0.080934025 -0.038193654 0.085759155 0.20513622
000220 62 90 ff bc 29 cb 79 3e a8 fd c7 bd 63 36 27 3e
       -0.031196777 0.24393906 -0.09765178 0.1632934
000230 1b 38 c2 3d d0 f2 b8 bd ab 6d 74 3d 01 45 84 bc
       0.094833575 -0.09030688 0.0596749 -0.016146185
000240 dc 2d 27 3e cf 3c 26 bb 1e b8 04 be ba 60 37 3e
       0.16326088 -0.0025365835 -0.1296086 0.17907992
000250 a7 a2 9a 3d 8c 67 bc bd 49 50 17 3e 28 59 04 3e
       0.07550555 -0.091994375 0.1477672 0.12924635
000260 09 1b a9 bb 8f cc 2d 3e 3e 49 54 be 53 5f 3f 3e
       -0.0051606935 0.16972564 -0.20731065 0.18688707
000270 ca 77 61 3e 9b 06 c7 3c fc 2b be 3c 24 3b 1e be
       0.22018352 0.024295142 0.023214333 -0.15452248
000280 08 6d 97 bd 85 83 28 3e 10 4c 2c 3e fb ff 11 be
       -0.07393843 0.1645642 0.1682589 -0.14257805
000290 ec 92 a6 3d 7d e9 7e 3d 5e 32 33 be de 19 7d 3c
       0.08133492 0.06223439 -0.17499682 0.015448062
0002a0 f0 c1 ba 3d 2b da 47 be 43 58 ee bd db e8 34 be
       0.09119022 -0.19516818 -0.11637928 -0.17666952
0002b0 b2 c6 ac 3d 63 60 34 be a1 23 6a bd 46 4d 30 3e
       0.084363356 -0.17614894 -0.057162885 0.17216977
0002c0 fc 99 e6 3d 98 72 9e bd 7e e5 7f 3c 40 ca ec ba
       0.11259839 -0.07736701 0.01561868 -0.0018065646
0002d0 4d 1c 8a 3d 16 0d 17 be 82 e7 2d 3d 80 7e 5d bd
       0.06743679 -0.14751086 0.04245711 -0.054075718
0002e0 39 9c 77 bd 22 49 d5 bc 3f 42 4b be ad 87 52 be
       -0.06045172 -0.026035849 -0.1984949 -0.20559569
0002f0 fa c8 f5 bd 31 5e 16 3d f6 95 05 3e 65 38 12 3e
       -0.12001224 0.03671092 0.13045487 0.14279325
000300 f5 3e 6b bd 78 60 02 3e ce 80 11 be ac 32 c4 bd
       -0.057433087 0.12732112 -0.14209291 -0.095799774
000310 6b 13 2a 3e c1 2d 5b bd 2b 83 b6 bd ac e7 2e be
       0.1660897 -0.05351043 -0.08911737 -0.17080563
000320 82 06 55 be 7e 42 14 be 9f 35 6d 3d 32 af 73 3d
       -0.20803264 -0.1447849 0.057912465 0.05949325
000330 46 66 8b bd 2a eb bf bd 53 45 af bd d3 99 cd bc
       -0.068066165 -0.09371026 -0.085581444 -0.025097763
000340 03 cd 19 3e 98 bc 03 3d 40 06 23 be 15 7a 3b 3e
       0.15019612 0.03216228 -0.15920353 0.1830829
000350 04 ed 0e 3e 78 a8 3e bd db 50 47 3d 2c df d2 3d
       0.13957602 -0.046547383 0.048661094 0.10296473
000360 ed 13 3a be 89 97 52 3e 45 39 8d 3a a3 4d 51 be
       -0.18171664 0.20565619 0.0010774514 -0.20439772
000370 e3 f7 f7 3c 04 dc 6c 3e 41 9f 0e be f3 8b b5 3d
       0.030269569 0.23130804 -0.13927938 0.08864584
000380 5f 5a 06 3e 6d 4b 63 be 2d 34 3d 3e 87 67 37 3d
       0.13120411 -0.22196741 0.18476935 0.044776466
000390 f2 c4 e9 bc 08 2a 51 be a2 00 b5 bd 96 5c 01 3e
       -0.028536294 -0.2042619 -0.08838011 0.12632975
0003a0 94 82 02 bd 64 c3 58 3e a2 e2 73 3c e1 9f 13 3e
       -0.03186281 0.21168286 0.014885576 0.14416458
0003b0 46 db 1c be ad 9c 4b bd 55 63 37 3e 07 e1 38 be
       -0.15318021 -0.049709965 0.17908986 -0.18054591
0003c0 75 3a 24 bd dd 3b a4 3c 6c 3e 15 be c0 e3 3e 3d
       -0.04009481 0.020048076 -0.14574593 0.046603918
0003d0 dc f5 e1 bd 91 01 e3 3d 23 16 51 3e be 0d 00 3e
       -0.11033222 0.11084283 0.204186 0.12505242
0003e0 0f 3e b4 bd 29 74 83 3d 90 f2 32 3e 5f df 53 3e
       -0.08800899 0.0641864 0.17475343 0.20690678
0003f0 ec de 80 bd 75 cc c0 bd 4e 07 1d 3e dc ee 8d 3d
       -0.06292519 -0.09413997 0.15334818 0.069303244

layers.2.bias f4 [20]
000000 b9 2d 0c 3e 3b 9a 14 bd 6a 40 cb 3d 6c 38 8a bd
       0.13689317 -0.036279898 0.099243954 -0.06749043
000010 5e 49 70 bd a5 f6 35 3e ef be 5f be 3a da 17 be
       -0.05866372 0.17769869 -0.21850179 -0.1482934
000020 0c 72 cc 3d c3 17 97 bd bc a9 aa bd 7a 13 cd bd
       0.0998269 -0.07377579 -0.083331555 -0.100134805
000030 81 cb df bd 4b 8f 7b be df 7a 74 3e 82 e2 11 3d
       -0.10927487 -0.2456638 0.23874997 0.035616405
000040 fd b7 68 3c 73 66 85 bd 56 3c 36 be 76 fc 41 bd
       0.0142040225 -0.06513681 -0.17796454 -0.047359906

layers.4.weight f4 [1, 20]
000000 8b 33 06 3f b6 4f 80 be 4d 94 04 be c9 ec 2a 3d
       0.524224 -0.25060815 -0.12947197 0.041729722
000010 ee 6e 31 3d cc 09 87 be c6 54 40 be b0 65 77 3c
       0.04331868 -0.26374662 -0.18782339 0.015099928
000020 47 46 6f 3c 6f d4 34 3e 38 05 11 be fd 76 89 be
       0.014604158 0.17659162 -0.14162147 -0.26848593
000030 62 c7 fa 38 ac d7 c5 be fd 69 8b 3e 92 d6 27 3e
       0.00011958067 -0.38641107 0.272293 0.16390446
000040 d6 6c 6b 3e 31 2a 1d 3e 84 93 01 3d 2b 94 07 3f
       0.22990736 0.15348126 0.031634822 0.5296046
