model/results/skew-skew/mean-e10000/20-20-SGD-relu-0.001-50-e10000-mean.pt (torch, 4791 bytes, 5 tensors)

layers.0.weight f4 [20, 5]
000000 67 cc 0c 3e f5 9c 03 be 6b 7f 09 3f 18 f6 7a be
       0.13749848 -0.12852843 0.5371005 -0.2450794
000010 44 15 a0 bd 07 94 89 bd 26 14 78 bc 0c a1 d5 bc
       -0.07816556 -0.06717687 -0.0151415225 -0.02607777
000020 04 88 ef be c7 9c 5c be ba a8 5c bd 16 35 ef 3c
       -0.4678346 -0.21544181 -0.053871848 0.029200118
000030 e7 a5 04 3f cf 7b c7 bc 1a 31 02 bd fd 71 a7 be
       0.51815647 -0.024351029 -0.03178511 -0.32704154
000040 ca cf 25 3c 4e fa 72 be 52 54 9c be 32 06 5f 3a
       0.010120342 -0.23728296 -0.3053308 0.0008507698
000050 7a 4b db bc 80 0e 55 be 64 0b c5 be 09 41 9e 3e
       -0.026769388 -0.20806313 -0.38485253 0.30908993
000060 7d 93 97 be 01 d0 9e 3e 28 1f 2e 3d 0b bf cd bd
       -0.29604712 0.3101807 0.04251018 -0.10046204
000070 e7 26 cd 3e 19 1e 3f be 28 3b c6 be 42 53 58 3e
       0.40068743 -0.18663825 -0.38717008 0.2112551
000080 16 52 e6 be 83 b7 c8 be b1 d1 95 be a4 b4 be 3e
       -0.44984502 -0.39202508 -0.29261544 0.37247193
000090 40 13 1b be ea d1 bb 3e 38 b5 72 3e 38 04 87 3d
       -0.15144062 0.3668359 0.23701942 0.065926015
0000a0 a6 ce 8a 3e f1 f3 87 3e d1 7a 83 be 8c cd 68 3e
       0.27110785 0.265533 -0.2567964 0.2273466
0000b0 57 74 99 be e4 e6 a1 3d 75 d1 06 bd ed d8 03 be
       -0.29971573 0.07905367 -0.032914598 -0.1287572
0000c0 03 2a d4 be 78 82 42 be 17 63 0c bc be 6d 99 3d
       -0.41438302 -0.18995082 -0.008568547 0.07491635
0000d0 96 8d 15 3e a2 6a b4 3e b8 93 00 bd 4a 76 d6 3e
       0.14604792 0.35237604 -0.031390876 0.41887122
0000e0 75 f7 2e be 4d 5c 35 be a3 a7 ab 3d 18 34 fc bd
       -0.17086585 -0.17710991 0.083815835 -0.123146236
0000f0 2e f2 2b 3e 11 c4 cc bb f7 43 ed be 1e ea b9 3d
       0.16791603 -0.006248959 -0.46340916 0.090778574
000100 e6 f9 e8 3c 82 ce cc 3a 61 6b c9 3d 88 ce 39 3f
       0.028439473 0.0015625509 0.09834934 0.72580767
000110 ef 96 6a 3e 13 c1 07 bd 57 09 40 be 2a 1b 91 be
       0.22909139 -0.033143114 -0.18753563 -0.28341037
000120 26 aa 82 be 70 71 c3 bb 9d 63 c4 3e 66 97 24 be
       -0.25520438 -0.0059644505 0.3835725 -0.16073379
000130 8d 46 c0 3e 36 45 6e be e0 c8 12 be ce 2b 1f 3d
       0.37553826 -0.2326859 -0.1433444 0.038860135
000140 0e f0 36 3e cf 57 16 3e 0c 39 4c 3e be e8 92 be
       0.17865011 0.14681934 0.19943637 -0.28693193
000150 3e 01 28 3d 2d 9f 36 3e 41 44 82 3c bf dc 98 be
       0.04101681 0.17834158 0.015901687 -0.29855916
000160 96 a3 59 3e 59 8d 55 be 9a ca dc be f4 bf 9f 3e
       0.2125381 -0.20854701 -0.43123323 0.31201136
000170 fb a7 c1 3e bd c1 d7 be 3c e7 8c 3e cb 4b ee 3e
       0.3782347 -0.42139998 0.27520168 0.465422
000180 e0 9e 98 3e 91 7c 7a be ff 62 c0 3d a9 66 27 3e
       0.29808712 -0.24461581 0.09393882 0.16347755

layers.0.bias f4 [20]
000000 3d 09 86 3e af 8d 0e bd bd a4 09 be 11 5b 84 3e
       0.26178923 -0.03480309 -0.13441749 0.25850728
000010 1f 98 15 be d3 34 e1 3d e7 ba c1 bd 61 af b5 3d
       -0.14608811 0.109964035 -0.09459477 0.088713415
000020 15 2f f3 3e ab dc 97 3e 14 e0 72 3e 4e e1 a9 bd
       0.47496858 0.29660544 0.23718292 -0.082949266
000030 cc 0f 52 3e 2d 34 67 3d e0 fc 38 bd 4a ae 42 3e
       0.20513839 0.056446243 -0.045163035 0.19011799
000040 c8 7b 15 be 0d 5b eb 3e 2f 73 32 3c 0e c3 9a bc
       -0.14598 0.45967904 0.01089172 -0.018891837

layers.2.weight f4 [20, 20]
000000 3b 91 26 be 6c f6 d5 bd a8 7f 07 3d 27 db 29 3e
       -0.16266339 -0.10447392 0.033080727 0.16587506
000010 3a 06 39 bd 26 53 98 bd b3 e7 c0 3c 1f bb 0f bd
       -0.045171954 -0.07437734 0.023547983 -0.035090562
000020 6f 1f 20 3e 1f 29 2f be e9 f2 33 3d 40 65 5f 3e
       0.15636991 -0.1710553 0.04393283 0.21815968
000030 9c b9 0b 3e 3c 1b 75 3e 10 63 ac 3d 1d b0 71 3d
       0.13645023 0.2393617 0.08417332 0.059005845
000040 cb ea eb bd a6 ee 30 be 23 94 59 3e 4d 34 e5 3d
       -0.115193926 -0.17278537 0.21247916 0.11191616
000050 39 a4 11 3e 0f 0f 54 be 32 e6 1e 3e 1a 36 3d be
       0.14222802 -0.2070887 0.155175 -0.1847767
000060 79 04 57 bc 93 39 52 3c 81 7b 05 be 93 8f 47 bd
       -0.013123625 0.01283111 -0.13035394 -0.048720907
000070 ab 24 0f be cb d0 07 3e 08 fd 02 be 2f 5e ed bd
       -0.13978831 0.13263242 -0.12791836 -0.1159023
000080 27 3e 1d 3e b2 6b 3a 3e f5 77 0d 3e f5 22 1d be
       0.1535574 0.18205145 0.13815291 -0.15345366
000090 2b 63 e0 bc 8e 12 13 be d6 f9 36 3e c4 92 41 3e
       -0.027391037 -0.14362547 0.17868742 0.18903643
0000a0 b9 4b fc bd 9c 47 22 be 52 36 8e 3d 5c e3 0f bd
       -0.123191305 -0.1584763 0.069439545 -0.035128936
0000b0 5c 2d 0e 3e e2 d6 5d bd 6a 1f f2 bc b3 3c 5c bd
       0.1388449 -0.054160006 -0.029555995 -0.053768825
0000c0 51 ee 54 be 04 97 80 3d 4b 95 48 be d7 70 2e 3e
       -0.20794035 0.06278804 -0.19588201 0.17035232
0000d0 d4 d9 1e 3d f1 87 29 3e 7b 28 de bb 77 78 30 be
       0.038781956 0.16555764 -0.006779728 -0.17233454
0000e0 37 9c 3b be 8b 8c 1e be d2 1c 68 3e 3c 5d 40 3e
       -0.1832131 -0.154833 0.22667244 0.18785566
0000f0 96 19 ed 3d c6 74 e8 bd 64 e5 4a bc 17 0b c0 bd
       0.11577146 -0.11350398 -0.012383793 -0.09377115
000100 da 29 1d be 02 c7 37 be 46 7c e2 3d 8e 87 14 3e
       -0.15347996 -0.17947009 0.110588595 0.14504835
000110 29 87 6a bc 06 58 ea 3d 20 8a b9 bd 13 51 56 be
       -0.014314451 0.114425704 -0.090595484 -0.20929365
000120 10 86 58 3e c5 b9 64 3e bf 13 46 3d 09 08 e7 bd
       0.21144891 0.2233649 0.048358675 -0.112808295
000130 fd 74 5d 3e cc 37 17 3b 42 e2 f5 bc 8f 5d 03 3d
       0.21626659 0.002307403 -0.030015115 0.032071646
000140 db 1e 11 bd bd 2f 21 3e 5f 97 85 3d 89 45 55 be
       -0.035429817 0.15740867 0.06523012 -0.20827307
000150 57 ec 82 bd 8b c7 c4 3d 6a 6b 1b 3e 89 56 0a 3e
       -0.063927345 0.09608372 0.15177694 0.13509573
000160 57 22 e9 3c ee 94 69 bb ee 5e ef bd 5f ca 26 bd
       0.028458757 -0.0035641748 -0.11688028 -0.04072034
000170 68 c3 a9 bd 1a 6b 95 3e 84 52 a0 3d 56 55 38 bc
       -0.08289224 0.29183275 0.078282386 -0.011250814
000180 b4 90 2c be c8 8d 81 bd f6 1c 47 3e 7c 16 b1 bb
       -0.16852075 -0.06325871 0.19444641 -0.0054042917
000190 77 06 d7 bd 07 f6 24 be 1e a9 39 3e 83 33 a6 bd
       -0.1049928 -0.16109477 0.1813092 -0.08115294
0001a0 f9 a0 20 3e ec 0a 1c 3b 22 ea 30 be 9b 93 3e 3d
       0.15686406 0.002381022 -0.17276815 0.046527486
0001b0 1c 08 22 3e 56 9e fe bd 03 ab 10 3e ec 35 e9 3d
       0.15823406 -0.12432544 0.14127736 0.11387238
0001c0 68 87 c3 3d 57 30 6c 3e 38 7c 79 3b 8d 44 21 3e
       0.09547311 0.23065315 0.0038068425 0.15748806
0001d0 05 40 b7 3d 2b 1f e4 3c f6 92 3f bb 93 d1 d2 bc
       0.08947758 0.027846893 -0.0029231883 -0.025734698
0001e0 03 b5 9a 3c 30 d6 2b be af 00 1b be a8 5d 5d 3e
       0.018885141 -0.16780925 -0.1513698 0.21617758
0001f0 01 5b 17 3e 60 fd af 3d 40 43 ee bd de 46 af bd
       0.14780809 0.08593249 -0.11633921 -0.08558439
000200 41 a2 4a 3e ff 20 02 3d 90 3a ca bd 97 44 d5 bd
       0.19788457 0.03176975 -0.09874451 -0.10413473
000210 f5 6d e5 3c 5b fc 5e bd dd e7 42 3e fa b2 a5 bd
       0.028006533 -0.054439884 0.19033761 -0.08090778
000220 05 fb b3 bd 17 5b 20 be 37 48 e8 3d d3 a8 e6 bd
       -0.087881126 -0.15659748 0.11341899 -0.112626694
000230 e8 25 67 be 1a af 98 bd 04 93 0a 3e ed f2 a0 3d
       -0.22573054 -0.07455273 0.13532645 0.078588344
000240 36 a1 3d 3d b3 04 8f bd cb 5d 8e bd 86 e4 38 bd
       0.04629632 -0.06983318 -0.06951483 -0.045139812
000250 b0 bb 6c be 9d 05 2a 3e 31 e2 51 bd 5b a5 4c 3e
       -0.23118472 0.16603704 -0.051241104 0.19984953
000260 b3 34 16 be e8 9e eb 3d de 56 2c be 6e ea d2 3d
       -0.1466854 0.11504918 -0.16830012 0.1029862
000270 38 f8 3c be be 5e db bd b5 36 b6 3d 06 41 ae 3c
       -0.18454063 -0.1071143 0.08897153 0.02127124
000280 4f 1b 7f 3e 87 34 13 be a8 5b bb 3d 26 38 bb 3d
       0.24912761 -0.14375506 0.091483414 0.09141569
000290 9f a9 08 3e 8d 44 b6 3d 9e 97 27 3e 57 3d 80 3d
       0.13345955 0.08899794 0.16366431 0.062617
0002a0 fc 76 46 3e 75 e1 a9 bc ab 41 1c 3e 21 a1 48 bb
       0.19381326 -0.02073739 0.15259425 -0.0030613618
0002b0 5b a6 53 3e 41 b9 9b 3e 02 93 19 3d 14 1c 53 bd
       0.20668928 0.30414775 0.037493713 -0.05154045
0002c0 87 32 f8 bd 41 9a 82 be d0 b5 f5 bd fe 07 77 be
       -0.12119012 -0.2550831 -0.119975686 -0.24124143
0002d0 26 66 5a 3e 07 84 e9 bd 30 d2 ba bd bb 07 31 bd
       0.21328029 -0.11402135 -0.09122121 -0.043220263
0002e0 a7 d9 8a 3c ab e1 e4 3d 21 32 ee bd 7f 1d 82 ba
       0.016949488 0.11175855 -0.11630655 -0.0009927003
0002f0 8c e0 05 bd c0 f9 61 bc a2 70 3e be f0 b2 a9 bd
       -0.032684848 -0.013792455 -0.18597654 -0.08286083
000300 4d 3e 50 3e b9 6d 85 3e 56 a7 61 bc e7 6f 6c be
       0.20336266 0.26060274 -0.013772806 -0.23089562
000310 98 02 2b 3e ca 3e 32 3c 26 d0 4f 3e 68 46 f7 3d
       0.16700208 0.010879228 0.20294246 0.12073976
000320 1d 9b 14 3d b3 33 a3 bc 9d 84 5d be 35 89 4b 3e
       0.03628074 -0.019922113 -0.21632619 0.19876559
000330 35 66 51 3e e2 93 36 be bd 6a bb bd 4d 0b 25 be
       0.20449145 -0.1782985 -0.09151218 -0.16117592
000340 50 2c 0f bd b3 de 38 bd 04 f2 4a be 81 28 80 bd
       -0.03495437 -0.045134258 -0.19818884 -0.062577255
000350 59 b3 2a 3e 81 4a 3c 3e 97 89 14 bd 6a 5a 56 be
       0.16669978 0.18387796 -0.03626403 -0.20932928
000360 19 fb b7 bd 50 d9 1e 3c 4f fa 35 be a0 03 f8 bd
       -0.0898344 0.009695366 -0.17771266 -0.121100664
000370 5d fe cb 3d be c0 96 3c f5 df 3b bd 6d a0 68 bd
       0.09960625 0.018402454 -0.04586788 -0.05679362
000380 28 6e 5d bd 6c ab 9c 3c 51 64 01 bc 4b 08 16 be
       -0.05406013 0.01912471 -0.007897452 -0.14651601
000390 56 04 52 bd 56 4c 93 3b 77 da 68 bd a9 89 65 3e
       -0.051273666 0.004495184 -0.05684897 0.22415794
0003a0 73 31 40 bd 83 93 07 3e 9d f0 4e 3e da dd c0 bd
       -0.04692216 0.13239865 0.20208974 -0.09417315
0003b0 b8 a8 78 bd 03 67 1b 3e 66 07 39 3d fe cf 87 3c
       -0.060707778 0.15176015 0.04517307 0.01657867
0003c0 4a a0 e6 bd 94 a7 10 bb 9c 95 14 be 41 cc 5c 3e
       -0.112610415 -0.002207254 -0.14510196 0.21562292
0003d0 18 9a 26 3e b4 95 46 3e 4a 1f e9 bd 15 97 aa 3d
       0.1626972 0.19393045 -0.11382921 0.08329598
0003e0 7c b8 36 3e 8a 41 d1 3d 1f 5b 54 bc be 0e 37 3d
       0.17843813 0.10217579 -0.012961178 0.044691794
0003f0 24 a4 79 bd 9b f5 73 3c f5 11 15 be 7d ce 46 be
       -0.060947552 0.0148901 -0.14557631 -0.19414707

layers.2.bias f4 [20]
000000 f8 00 64 3e fb 03 c4 bd 3b 35 a2 3d 18 c5 31 3e
       0.22265995 -0.09571072 0.07920309 0.17360342
000010 35 f4 9b 3d 6b c3 11 3e b0 24 03 be 14 e7 39 3d
       0.07614938 0.14234702 -0.12806964 0.04538639
000020 3e 96 24 bd 65 2a 1b 3e 01 84 70 3c 16 8b 3c 3e
       -0.040182345 0.15152891 0.01467991 0.18412432
000030 a7 32 ca 3d 93 b5 c7 3d 9a 90 e9 3c f3 bd b2 3c
       0.098729424 0.097514294 0.028511334 0.02181909
000040 b2 ff 60 3e e4 7d 4d 3e 88 de d6 bd 04 a6 27 bd
       0.2197254 0.20067555 -0.10491663 -0.04092981

layers.4.weight f4 [1, 20]
000000 07 a6 f0 bc 97 51 e8 3d 42 2d 3e 3d c3 b6 7e 3e
       -0.029376043 0.11343687 0.04642988 0.24874406
000010 94 70 a3 3e 53 a9 5e 3e fb 6f 44 3e 6b 5f fd bd
       0.31921828 0.2174428 0.19183342 -0.12371715
000020 a7 86 8d 3e 07 a1 9b 3e 2b e5 01 3e 84 d3 a5 bc
       0.27641794 0.30396292 0.12685077 -0.02024246
000030 03 f9 47 be 28 17 40 3e 14 93 f1 3e a1 47 e9 3d
       -0.19528584 0.18758833 0.47182524 0.11390615
000040 84 75 66 bd 17 57 20 be 85 a8 7a 3e 9f 12 85 3d
       -0.056264415 -0.15658222 0.24478348 0.06497692
