model/results/skew-skew/mean-e10000/200-200-SGD-tanh-0.001-50-e10000-mean.pt (torch, 168903 bytes, 5 tensors)

layers.0.weight f4 [200, 5]
-0.42484936 -0.100533955 0.39902395 -0.4171696 -0.17062706 0.3670711 -0.054943122 0.12132621
0.38360313 -0.17921437 -0.16014463 0.2669609 0.43791437 0.06982557 0.3698969 0.022441024
0.32542613 0.24171309 -0.023056801 0.28822646 -0.27748546 -0.29132986 0.19207577 0.12815617
-0.11798858 0.3934081 -0.37412772 0.0052954466 0.11120786 -0.13372342 0.22448963 0.16673273
0.43339652 0.10432528 0.38520387 0.19455475 -0.1684732 0.3896457 0.27137074 0.17894086
0.3821414 -0.35544354 -0.21189456 -0.23968637 0.40874276 0.25816226 0.10424302 0.12582055
0.25276104 -0.44064465 -0.4115491 0.43534508 0.1482503 0.2847622 0.05286962 -0.0012059754
-0.07649024 0.29857442 -0.3540538 -0.12396647 -0.05856543 0.04332894 0.23593546 0.44300017
-0.34760725 -0.020089421 0.17359407 -0.01983054 -0.10411515 0.3750995 0.103081636 -0.39178762
-0.102088295 -0.41457385 0.28852627 0.31074032 0.16665937 -0.13816704 0.3040145 0.15014371
0.3606163 -0.23407343 -0.26303777 0.25511676 0.06349398 -0.36709374 -0.30862075 -0.049275458
-0.19960229 -0.35304555 -0.07536526 -0.23409036 0.01886309 0.16905038 0.07594725 0.17423545
-0.23479241 0.008102764 -0.29284173 0.22274657 0.17093247 -0.33599257 0.37062714 0.3733848
-0.37766695 -0.04273595 -0.26156318 -0.30161756 -0.2117446 0.31106877 0.00797254 -0.4088763
0.2067125 -0.26283008 -0.08507033 -0.37447265 -0.18947259 0.3503286 -0.44333276 -0.031607047
-0.28337348 0.24212079 -0.2626129 -0.110144325 -0.24441484 -0.07867219 0.20865633 0.0088536525
0.20803897 -0.23509064 0.09446431 0.06430837 -0.24355127 -0.10214711 -0.27792898 -0.035178453
-0.037492283 0.2579761 0.15423475 -0.31190687 -0.028289406 0.17471758 -0.03612672 0.36551964
0.107530475 -0.40100706 -0.063702926 -0.24517407 0.42028594 0.24079996 -0.14189069 -0.22631647
0.053516977 -0.34141463 0.10369554 -0.22128205 -0.19534485 0.2379315 -0.013551724 0.21968517
-0.39975753 -0.2990573 0.08873097 0.3764432 0.013221179 -0.050227292 -0.34305772 -0.2356267
0.18634889 0.35502604 0.13446568 0.21248361 -0.47308508 -0.35309428 0.34252495 0.29271564
-0.17090513 -0.10483222 -0.3620507 -0.14288427 0.35140303 0.4422121 0.18878247 0.29549238
-0.3351755 -0.4254294 0.24196653 -0.24235435 -0.12378787 -0.016908275 0.39247155 -0.06232646
-0.2849195 0.037280537 -0.42352906 -0.30675358 -0.41995627 0.28010413 0.22800446 -0.35948247
0.44033167 0.31730562 0.1407783 0.39316228 0.43047616 0.25027013 0.14744803 0.057509754
0.13862783 0.32357454 -0.020337967 0.317204 0.104108244 0.21779653 -0.35836846 -0.14303328
-0.13925047 0.092316926 -0.18808514 -0.09672272 0.33332166 -0.2683998 0.21862297 -0.25553066
-0.055804558 -0.20048437 -0.28924862 -0.030174484 0.44381303 0.26561782 -0.3870092 -0.4324642
-0.261733 0.16591397 -0.16358335 0.121491246 -0.18965934 -0.31949311 0.032904275 -0.15038456
0.31995922 -0.37922123 0.12141923 0.22047576 -0.07766197 0.117254175 -0.26368812 -0.10337763
0.3054274 0.1630648 0.19466764 -0.12610687 -0.22197157 0.067057565 0.1311052 -0.31603947
00000000: db85 d9be bfe4 cdbd de4c cc3e 4197 d5be
00000010: dcb8 2ebe bef0 bb3e 0a0c 61bd e079 f83d
00000020: a167 c43e f983 37be f4fc 23be 19af 883e
00000030: 5036 e03e b500 8f3d 2063 bd3e 3dd6 b73c
00000040: 419e a63e a383 773e 9ee1 bcbc 6b92 933e
00000050: 9312 8ebe 3029 95be 83af 443e 5f3b 033e
00000060: ffa3 f1bd c96c c93e ab8d bfbe 6d85 ad3b
00000070: f2c0 e33d cbee 08be 9ce0 653e fcbb 2a3e
00000080: 26e6 dd3e 7ea8 d53d 7139 c53e 5c39 473e
00000090: 3d84 2cbe a47f c73e 1bf1 8a3e 463c 373e
000000a0: 0aa8 c33e b2fc b5be e3fa 58be 5870 75be
000000b0: bb46 d13e d82d 843e 5d7d d53d 1ad7 003e
000000c0: e569 813e 2d9c e1be 90b6 d2be 8de5 de3e
000000d0: edce 173e 5acc 913e d18d 583d d211 9eba
000000e0: eaa6 9cbd bfde 983e 8a46 b5be 22e2 fdbd
000000f0: 4ee2 6fbd b079 313d 1199 713e ebd0 e23e
00000100: 94f9 b1be 9292 a4bc a5c2 313e a873 a2bc
00000110: 533a d5bd 0b0d c03e 771c d33d 6398 c8be
00000120: ab13 d1bd 0643 d4be b7b9 933e 5b19 9f3e
00000130: c1a8 2a3e a97b 0dbe caa7 9b3e 46bf 193e
00000140: b3a2 b83e f2b0 6fbe e3ac 86be aa9e 823e
00000150: 2209 823d b6f3 bbbe 8a03 9ebe 10d5 49bd
00000160: 8b64 4cbe 63c2 b4be 1a59 9abd 62b5 6fbe
00000170: c486 9a3c 8b1b 2d3e 3b8a 9b3d c76a 323e
00000180: 6c6d 70be 75c1 043c 5aef 95be ad17 643e
00000190: ec08 2f3e 3807 acbe d7c2 bd3e 4b2c bf3e
000001a0: 905d c1be e40b 2fbd 9ceb 85be 9e6d 9abe
000001b0: 94d3 58be 6844 9f3e 429f 023c 3c58 d1be
000001c0: 71ac 533e aa91 86be 5a39 aebd e1ba bfbe
000001d0: 1a05 42be 455e b33e 83fc e2be 6476 01bd
000001e0: 5416 91be 83ee 773e 3375 86be 5993 e1bd
000001f0: e247 7abe e31e a1bd 01aa 553e e90e 113c
00000200: 2b08 553e 9abb 70be 8176 c13d 1bb4 833d
00000210: 8165 79be 8132 d1bd b54c 8ebe 4817 10bd
00000220: 8291 19bd 7215 843e b7ef 1d3e 42b2 9fbe
00000230: 2fbf e7bc 2ae9 323e 9df9 13bd 6425 bb3e
00000240: f038 dc3d cc50 cdbe ae76 82bd e90e 7bbe
00000250: b82f d73e 4494 763e cb4b 11be 81bf 67be
00000260: 9e34 5b3d e6cd aebe 545e d43d c397 62be
00000270: 7b08 48be 51a4 733e 0d08 5ebc 26f5 603e
00000280: 05ad ccbe 0a1e 99be 95b8 b53d 2abd c03e
00000290: a59d 583c 22bb 4dbd 43a5 afbe 2048 71be
000002a0: 3ed2 3e3e f9c5 b53e 5fb1 093e 4e95 593e
000002b0: 3538 f2be c6c8 b4be 6e5f af3e d3de 953e
000002c0: c101 2fbe 46b2 d6bd b65e b9be 4150 12be
000002d0: 19eb b33e a069 e23e 3150 413e c74a 973e
000002e0: 209c abbe e2d1 d9be 13c6 773e bd2b 78be
000002f0: 7f84 fdbd 3983 8abc 08f2 c83e 084a 7fbd
00000300: f8e0 91be 7ab3 183d cdd8 d8be ce0e 9dbe
00000310: 8204 d7be cf69 8f3e 007a 693e 160e b8be
00000320: 2773 e13e e275 a23e 3028 103e 914c c93e
00000330: 5f67 dc3e 6823 803e 9efc 163e 598f 6b3d
00000340: 74f4 0d3e 90ab a53e cf9b a6bc 9068 a23e
00000350: b436 d53d 0e06 5f3e 127c b7be 5177 12be
00000360: ad97 0ebe a810 bd3d 6499 40be 9016 c6bd
00000370: 23a9 aa3e b36b 89be b3de 5f3e ead4 82be
00000380: 5293 64bd c64b 4dbe 6518 94be 7b30 f7bc
00000390: 763b e33e 0fff 873e 1226 c6be f36b ddbe
000003a0: de01 86be 5ae5 293e 6582 27be 67d0 f83d
000003b0: 0f36 42be 9a94 a3be a2c6 063d 69fe 19be
000003c0: b2d1 a33e 4929 c2be a5aa f83d 66c4 613e
000003d0: 3d0d 9fbd f522 f03d 2102 87be a7b7 d3bd
000003e0: fb60 9c3e 75fa 263e f456 473e 2922 01be
000003f0: 844c 63be 7a55 893d 7140 063e edcf a1be

layers.0.bias f4 [200]
-0.14463076 -0.13568655 -0.07023147 0.004269906 -0.025198957 -0.19243784 -0.2123777 0.07988565
0.09191089 -0.035886757 0.4050603 0.29179686 0.38293692 0.3654086 0.27904275 0.19469097
0.21226266 0.10387469 -0.27308717 0.3917092 0.028324187 -0.3546926 -0.03749164 0.3772037
-0.192459 -0.14301229 -0.16176336 -0.33451405 -0.1563191 0.21293727 -0.22548576 0.27870977
0.03475281 -0.24850915 0.008028508 -0.45408633 0.37094602 -0.26000383 -0.15128022 0.04768533
0.060397007 -0.42530027 -0.4488491 -0.2469395 0.12411716 -0.14814821 0.28235137 -0.38384765
-0.4125889 -0.29193494 0.22433014 -0.17773099 -0.0036337432 0.3656485 -0.2819907 -0.3980762
0.3351767 0.22049339 0.3114022 0.05205225 0.28820756 0.017939193 0.4120969 0.38594106
0.044966258 -0.013061892 0.25905475 -0.19030853 0.19441554 -0.07101841 0.3458749 0.2388414
-0.105047084 -0.104080744 0.382342 -0.26058844 -0.42536494 0.039282687 -0.13036491 -0.33447188
0.07249172 0.28377002 -0.30509067 0.057695884 -0.22690454 0.15666981 0.4214336 0.03752473
-0.06500339 -0.31044623 0.3431672 -0.3122134 0.13485238 -0.20276128 0.19556646 0.047901906
0.4320107 0.1772356 0.39925602 0.24327923 -0.4080704 -0.25414166 -0.03256053 -0.19176036
-0.20706612 0.20792204 0.38210872 0.1701797 -0.0963357 0.053062864 -0.31676108 0.0942134
0.30243662 -0.16789664 0.29842022 -0.13651152 -0.20389496 0.4195309 -0.1610721 -0.2041885
0.002023236 -0.07384667 0.067171186 -0.2657328 0.3480437 0.47081733 0.0917065 0.31829804
-0.30348054 0.039076626 0.32722807 0.24815203 -0.14783286 0.034429356 0.3206307 -0.3828702
-0.023675613 -0.1762644 -0.20659283 -0.08374537 0.37866887 -0.326992 0.2651394 -0.2700822
0.2128381 -0.4264548 0.17619194 -0.43093076 0.29706222 0.031667605 -0.43479216 0.16284059
-0.25641626 -0.16604376 0.32694083 0.2160514 -0.26028594 0.020267045 0.15741016 -0.11381314
0.3607367 -0.4086073 0.13360909 -0.17274806 0.2185574 -0.42644635 0.3715591 0.17461543
0.18888347 -0.19911775 -0.28334123 0.29121473 -0.37639993 -0.4498586 -0.40931767 -0.42424354
0.2525629 -0.36061466 -0.20419376 0.30260542 0.25003988 0.07516784 0.19507895 0.35935342
0.41787001 -0.41030532 0.12387149 0.09449995 -0.20261724 -0.3095641 0.06964045 -0.3877193
0.25436446 0.062333837 0.17605485 0.396707 0.3694002 0.12107539 0.13404146 -0.037970312
00000000: 161a 14be 6af1 0abe 84d5 8fbd 91ea 8b3b
00000010: 0b6e cebc 6d0e 45be 8a79 59be 169b a33d
00000020: c73b bc3d fefd 12bd 1064 cf3e 6666 953e
00000030: 4f10 c43e d616 bb3e b1de 8e3e 125d 473e
00000040: 625b 593e 41bc d43d 15d2 8bbe 1c8e c83e
00000050: 2008 e83c 459a b5be d590 19bd d820 c13e
00000060: f913 45be d071 12be 4ba5 25be 6d45 abbe
00000070: 1d12 20be 3a0c 5a3e bde5 66be 0cb3 8e3e
00000080: f658 0e3d 2f79 7ebe 018a 033c 017e e8be
00000090: a3ec bd3e 391f 85be 34e9 1abe b151 433d
000000a0: da62 773d f5c0 d9be 8dcf e5be b5dd 7cbe
000000b0: 2331 fe3d 2ab4 17be 5c90 903e ae87 c4be
000000c0: da3e d3be 7f78 95be cdb6 653e 1dff 35be
000000d0: 1824 6ebb 4836 bb3e 1661 90be a5d0 cbbe
000000e0: 489c ab3e 05c9 613e 1c70 9f3e bd34 553d
000000f0: f18f 933e 37f5 923c 5dfe d23e 119a c53e
00000100: 8a2e 383d 8c01 56bc d3a2 843e 3de0 42be
00000110: de14 473e 1a72 91bd 8416 b13e d792 743e
00000120: ed22 d7bd 4928 d5bd 55c2 c33e d96b 85be
00000130: 6fc9 d9be e2e6 203d 617e 05be e63f abbe
00000140: 8a76 943d 4e4a 913e d834 9cbe 8552 6c3d
00000150: aa59 68be 0d6e 203e 25c6 d73e 88b3 193d
00000160: 7f20 85bd cff2 9ebe 9cb3 af3e 6fda 9fbe
00000170: be16 0a3e a7a0 4fbe 9342 483e ca34 443d
00000180: 8230 dd3e 407d 353e 496b cc3e 311e 793e
00000190: 9aee d0be db1e 82be 315e 05bd d45c 44be
000001a0: 2409 54be 84e9 543e c1a3 c33e 9643 2e3e
000001b0: a74b c5bd 7258 593d 822e a2be f4f2 c03d
000001c0: f9d8 9a3e 19ed 2bbe 89ca 983e adc9 0bbe
000001d0: d7c9 50be c1cc d63e 16f0 24be ca16 51be
000001e0: 4498 043b ec3c 97bd 0c91 893d 210e 88be
000001f0: c932 b23e f80e f13e 9ed0 bb3d f6f7 a23e
00000200: cd61 9bbe d00e 203d 708a a73e 911b 7e3e
00000210: 7f61 17be cc05 0d3d b529 a43e 9007 c4be
00000220: 5cf3 c1bc a87e 34be 128d 53be b182 abbd
00000230: e3e0 c13e 7f6b a7be 5ac0 873e 3748 8abe
00000240: 3bf2 593e 4958 dabe a96b 343e f5a2 dcbe
00000250: 8a18 983e e4b5 013d 149d debe afbf 263e
00000260: fe48 83be 6007 2abe ca64 a73e 943c 5d3e
00000270: 3344 85be 1307 a63c 2130 213e dd16 e9bd
00000280: 7bb2 b83e fa34 d1be d2d0 083e dee4 30be
00000290: 83cd 5f3e 2d57 dabe ff3c be3e 63ce 323e
000002a0: ab6a 413e 86e5 4bbe 1a12 91be 191a 953e
000002b0: 7eb7 c0be de53 e6be 1692 d1be 7336 d9be
000002c0: ed4f 813e 7ca2 b8be 2b18 51be 19ef 9a3e
000002d0: 3a05 803e 99f1 993d c7c2 473e 2cfd b73e
000002e0: 0ff3 d53e 8a13 d2be 56b0 fd3d 3189 c13d
000002f0: e57a 4fbe 307f 9ebe a79f 8e3d 2583 c6be
00000300: 0f3c 823e c451 7f3d b947 343e 2e1d cb3e
00000310: 0622 bd3e 60f6 f73d 2a42 093e c286 1bbd

layers.2.weight f4 [200, 200]
-0.035701927 0.06745536 0.051997263 0.06542518 -0.0023360106 0.01600595 -0.027957618 -0.04947238
-0.03689729 -0.054689486 0.006825745 0.063868545 -0.01282745 -0.006975336 0.026267262 -0.05172649
0.056320846 0.028979626 -0.054672558 0.06707485 0.037512545 -0.00029012206 0.059830092 0.047247507
0.0069106375 0.046993077 0.07033302 -0.0068166363 0.044047426 0.04190689 0.06449233 0.01867374
-0.06850588 -0.002923644 -0.037092257 -0.02172445 0.053034242 -0.016534133 0.01887601 -0.004051747
0.06252991 -0.03255709 0.027865244 -0.009435796 0.041908707 0.054966763 0.0028342325 0.0032473376
0.03249176 -0.058707867 -0.06370344 0.03879532 -0.032645904 0.07032872 -0.03359844 0.020459179
-0.049106203 -0.004454715 -0.0136797605 0.035423756 -0.0048756585 0.040299013 0.061961487 -0.033384692
0.071530215 0.070371576 -0.0013557926 0.018639207 0.012536658 0.03776982 -0.032856688 -0.018710477
-0.031544436 -0.020606808 -0.060889687 -0.012138789 0.015978076 -0.0069923764 -0.015145495 0.067242764
-0.0055997693 0.011323836 -0.06572622 0.030928869 0.031870384 0.03754467 0.057740085 -0.036041103
0.04802972 -0.053127415 -0.034430716 -0.027112627 -0.036428522 -0.012366136 -0.035772625 0.040758587
0.056152586 -0.015181338 0.010811107 0.009829727 -0.06671475 -0.013450818 -0.04604866 0.04500482
0.015796058 0.05124098 0.06503604 -0.06294839 -0.025412342 0.01584615 0.06489319 -0.033187915
-0.028512744 0.05652561 0.039311357 0.055907052 0.048352163 -0.03683078 0.024422752 -0.052459583
0.019904733 0.023205364 0.011279214 0.05184524 -0.07339724 0.02167339 0.048844893 -0.067901246
0.005690328 -0.05368015 0.054263413 -0.028435832 0.019460011 0.064917274 0.04088625 -0.068815954
-0.05350146 0.052506648 -0.05838022 -0.039452102 0.014294734 0.04563081 -0.0003128408 0.057453237
0.013764806 0.00922895 -0.0628415 -0.046374064 0.044586122 0.00807196 -0.0064428947 0.0049872636
0.056961354 -0.021713022 0.03151209 0.033801083 0.0127410395 -0.048649825 0.054602984 -0.0042910916
0.030115593 0.0029100399 0.03618605 -0.04554082 0.0619179 0.055170074 -0.040323995 0.043242328
0.06472024 0.022104353 -0.0015627913 0.02746228 0.0076337387 0.06565472 0.008411125 -0.069225825
-0.023960877 -0.03597483 -0.062238216 0.015539619 0.05874812 -0.07162593 -0.043329064 -0.059351884
0.023511501 -0.0769828 0.019706044 0.0016515777 0.0049398816 0.058027413 -0.042427287 0.040014833
0.012045985 0.06558208 -0.04333844 0.0073625427 -0.07586107 0.008101297 0.020703286 0.062119283
0.03482227 0.06214627 0.04810546 0.010683298 -0.06803724 0.014141414 0.06238726 0.057261035
0.067700505 -0.01592272 -0.008727511 -0.040147077 0.0671961 0.029875224 -0.029107226 0.057795558
0.06927788 -0.056924954 -0.013811317 -0.003990653 0.019190537 -0.050554227 -0.041895647 0.019272234
0.019893683 0.025695743 0.014525521 0.031783655 0.061366025 -0.05167641 -0.014057046 0.03770641
-0.044345696 -0.05077725 -0.05187558 -0.05614319 0.031551167 0.03925975 0.033572007 -0.03845088
-0.025874762 -0.04596597 -0.019158306 -0.0327796 0.043870367 0.047038343 0.044558033 -0.05412065
0.011818617 0.015289946 0.05180261 0.060752403 0.053263545 0.05021495 0.06891236 0.033583343
00000000: 2f3c 12bd 0926 8a3d 15fb 543d a3fd 853d
00000010: c117 19bb e91e 833c 6007 e5bc 8da3 4abd
00000020: 9d21 17bd 1502 60bd 80aa df3b 83cd 823d
00000030: 3a2a 52bc 5c91 e4bb 712e d73c 28df 53bd
00000040: b0b0 663d ae66 ed3c 55f0 5fbd 8a5e 893d
00000050: c1a6 193d 861b 98b9 6610 753d 9a86 413d
00000060: a172 e23b d07b 403d c20a 903d 175e dfbb
00000070: 136b 343d 8fa6 2b3d 8e14 843d acf9 983c
00000080: d04c 8cbd 9b9a 3fbb 0dee 17bd 79f7 b1bc
00000090: 6f3a 593d 9772 87bc dda1 9a3c 84c4 84bb
000000a0: ae0f 803d 955a 05bd a745 e43c 9998 1abc
000000b0: 77a8 2b3d d424 613d 88be 393b 49d1 543b
000000c0: 1416 053d a977 70bd f376 82bd d7e7 1e3d
000000d0: b6b7 05bd 8108 903d 859e 09bd 029a a73c
000000e0: 9623 49bd dcf8 91bb 1321 60bc 8018 113d
000000f0: fdc3 9fbb 9410 253d 54cb 7d3d 63be 08bd
00000100: 6f7e 923d f91e 903d dab4 b1ba 40b1 983c
00000110: 8e66 4d3c 87b4 1a3d bc94 06bd b746 99bc
00000120: bd34 01bd 9ccf a8bc 7767 79bd c5e1 46bc
00000130: 74e4 823c 4e20 e5bb cf24 78bc 93b6 893d
00000140: 457e b7bb 9c87 393c 789b 86bd 8a5e fd3c
00000150: 858a 023d 71c8 193d de80 6c3d d69f 13bd
00000160: d0ba 443d 229c 59bd 3907 0dbd 4d1b debc
00000170: 1336 15bd 559b 4abc 5186 12bd 7af2 263d
00000180: 4100 663d 26bb 78bc 1221 313c dd0c 213c
00000190: bea1 88bd d260 5cbc 859d 3cbd f956 383d
000001a0: bc66 813c 10e2 513d 9e31 853d 16eb 80bd
000001b0: 8b2d d0bc c9cf 813c b9e6 843d 0df0 07bd
000001c0: 8f93 e9bc 6687 673d f204 213d cbfe 643d
000001d0: eb0c 463d dfdb 16bd 3912 c83c dcdf 56bd
000001e0: 400f a33c 2d19 be3c 74cc 383c ad5b 543d
000001f0: 4b51 96bd 658c b13c 9511 483d cf0f 8bbd
00000200: ee75 ba3b b8df 5bbd 5043 5e3d 43f2 e8bc
00000210: 9a6a 9f3c 59f3 843d 5778 273d 61ef 8cbd
00000220: 5924 5bbd 3611 573d 1920 6fbd 8798 21bd
00000230: 7634 6a3c 5fe7 3a3d c804 a4b9 1654 6b3d
00000240: c885 613c 0635 173c 0bb3 80bd bbf2 3dbd
00000250: f09f 363d 4140 043c eb1e d3bb 336c a33b
00000260: 4f50 693d 82df b1bc d212 013d 0173 0a3d
00000270: cbbf 503c 0a45 47bd 61a7 5f3d 499c 8cbb
00000280: fab4 f63c 5eb6 3e3b d337 143d 0389 3abd
00000290: a09d 7d3d 04fa 613d c62a 25bd de1e 313d
000002a0: 0c8c 843d 3014 b53c 93d6 ccba 93f8 e03c
000002b0: 7124 fa3b fb75 863d d1ce 093c 45c6 8dbd
000002c0: 9a49 c4bc 585a 13bd 80ed 7ebd e399 7e3c
000002d0: dea1 703d 9eb0 92bd d179 31bd f61a 73bd
000002e0: 319b c03c 29a9 9dbd 926e a13c c079 d83a
000002f0: bbde a13b 27ae 6d3d 3cc8 2dbd 98e6 233d
00000300: 865c 453c e64f 863d a683 31bd 7c41 f13b
00000310: 0c5d 9bbd 4dbb 043c f099 a93c ca70 7e3d
00000320: cca1 0e3d 168d 7e3d 3b0a 453d 0009 2f3c
00000330: 1c57 8bbd 64b1 673c c989 7f3d 8c8a 6a3d
00000340: 90a6 8a3d 5d70 82bc d6fd 0ebc 4371 24bd
00000350: 1c9e 893d e3bc f43c 4772 eebc 09bb 6c3d
00000360: 90e1 8d3d 242a 69bd dd48 62bc 06c4 82bb
00000370: 7935 9d3c f311 4fbd c59a 2bbd cee0 9d3c
00000380: 14f8 a23c e17f d23c 73fc 6d3c 942f 023d
00000390: f15a 7b3d a5aa 53bd 864f 66bc 0972 1a3d
000003a0: d5a3 35bd cefb 4fbd 7d7b 54bd 67f6 65bd
000003b0: cc3b 013d d5ce 203d cd82 093d ac7e 1dbd
000003c0: 4ff7 d3bc d046 3cbd e1f1 9cbc e743 06bd
000003d0: 6ab1 333d 47ab 403d 7c82 363d 9dad 5dbd
000003e0: dfa2 413c af82 7a3c f92e 543d 83d7 783d
000003f0: e02a 5a3d 31ae 4d3d ec21 8d3d b08e 093d

layers.2.bias f4 [200]
0.009210762 -0.047144096 -0.0005970307 0.039757248 0.0051957513 -0.057093367 0.013409653 0.03211236
-0.050817613 0.06108308 -0.08424336 -0.05406787 0.0036214006 0.06747744 0.056592446 0.019497639
0.021069305 0.050131917 -0.043036103 0.005494918 -0.057945125 0.084378175 -0.07513328 0.05990603
-0.032030705 -0.027705166 0.03819084 0.044099346 -0.02528369 -0.08136956 -0.0548389 -0.016302848
0.02075426 0.0382198 -0.042008586 0.0744908 0.027712008 -0.05521766 0.057134025 0.067060515
0.043108627 -0.041785438 -0.003381953 -0.010730996 0.06025727 -0.042816706 0.039053034 0.07767855
0.049307052 -0.040134303 0.035522502 -0.06355465 -0.031480204 0.07574095 -0.044498537 -0.06297581
-0.06999259 0.0139093995 -0.033060323 0.059173886 -0.019645136 0.06854506 -0.0022001204 0.018753802
0.021813162 0.052272737 0.0421434 -0.009353078 -0.050114613 0.018694457 -0.011238755 0.027391093
-0.023864063 -0.059473738 -0.023637578 -0.04770296 0.0554869 0.044789188 0.07438563 -0.015619678
-0.061754383 -0.0028557247 0.065801136 0.017273737 0.04735378 -0.01449303 0.018638177 0.00013021922
0.0006470944 0.053152937 0.025190152 -0.056435507 0.009513815 0.050271325 0.057998177 -0.051216006
-0.007358907 -0.06668911 0.050230622 0.025315957 0.02369824 0.0031515257 0.069237284 -0.031561896
0.011425221 0.03480327 -0.024631936 0.035758108 0.022801766 -0.03604999 -0.077889904 0.02060333
0.040763676 -0.0598746 -0.044918694 -0.0362729 0.012129848 -0.03261417 0.072093345 0.056631997
0.05858851 -0.010218664 0.035489395 -0.061395142 0.032345295 0.019482557 -0.05369699 -0.05319573
0.043077 0.047711898 0.0035552771 0.06779719 -0.04778436 0.011424056 -0.007872629 -0.017417675
0.049356636 -0.027397364 0.011250251 -0.020131137 0.055160806 0.042112466 -0.057357095 0.06676597
0.03317264 -0.032292772 -0.047954906 0.040024173 -0.06877183 -0.05167791 -0.05328474 -0.022311134
0.0133996615 -0.05979385 0.057616744 0.043991864 -0.053910818 -0.061279435 -0.023892283 -0.012294142
-0.06670621 0.02294077 -0.050452184 0.006404472 -0.005810941 -0.06795772 0.05232919 -0.061902434
-0.029481346 0.08219481 0.059329722 0.048546303 0.043098886 -0.020797607 -0.012722358 0.029625826
-0.06499536 -0.020287346 -0.04920771 0.060649544 -0.0377551 0.0623609 0.035140853 -0.021430446
-0.049770143 -0.014718208 0.046572883 -0.042071346 -0.029805744 -0.0029254868 -0.027717354 -0.0137264645
0.055288922 -0.010326827 -0.031767335 -0.07375818 0.03440953 0.058119923 -0.058407158 -0.070262395
00000000: bce8 163c 2b1a 41bd 0d82 1cba 7fd8 223d
00000010: 1f41 aa3b bcda 69bd 29b4 5b3c 4088 033d
00000020: 2126 50bd 4032 7a3d c887 acbd 4576 5dbd
00000030: 0555 6d3b 9d31 8a3d 7bcd 673d 83b9 9f3c
00000040: 8999 ac3c 2057 4d3d a046 30bd b70e b43b
00000050: de57 6dbd 77ce ac3d 7adf 99bd 0660 753d
00000060: a132 03bd f2f5 e2bc 006e 1c3d 84a1 343d
00000070: be1f cfbc 15a5 a6bd c19e 60bd 8d8d 85bc
00000080: d604 aa3c 5d8c 1c3d 3211 2cbd a28e 983d
00000090: 4b04 e33c ea2b 62bd 5e05 6a3d 0657 893d
000000a0: ac92 303d 3527 2bbd c2a3 5dbb 0fd1 2fbc
000000b0: 54d0 763d 9260 2fbd 13f6 1f3d ee15 9f3d
000000c0: 31f6 493d de63 24bd 0b80 113d f128 82bd
000000d0: 63f1 00bd 121e 9b3d 1944 36bd 76f9 80bd
000000e0: 4658 8fbd 40e4 633c 436a 07bd 5160 723d
000000f0: d6ee a0bc 5a61 8c3d e52f 10bb 93a1 993c
00000100: 84b1 b23c f01b 563d 8f9e 2c3d a73d 19bc
00000110: fb44 4dbd 1e25 993c c122 38bc 4963 e03c
00000120: 917e c3bc bc9a 73bd 98a3 c1bc 2e64 43bd
00000130: 3b46 633d de74 373d 7e57 983d aee9 7fbc
00000140: 2af2 7cbd 1c27 3bbb bfc2 863d a781 8d3c
00000150: 0af6 413d 2c74 6dbc 17af 983c 758b 0839
00000160: c5a1 293a e5b6 593d 945b ce3c eb28 67bd
00000170: d5df 1b3c 4ee9 4d3d 7f8f 6d3d e0c7 51bd
00000180: fc22 f1bb 4d94 88bd a0be 4d3d 6963 cf3c
00000190: d022 c23c d489 4e3b 47cc 8d3d 0c47 01bd
000001a0: da30 3b3c e08d 0e3d eac8 c9bc 1877 123d
000001b0: c5ca ba3c 28a9 13bd be84 9fbd 51c8 a83c
000001c0: d0f7 263d 123f 75bd aafc 37bd e492 14bd
000001d0: 45bc 463c 7096 05bd ada5 933d f4f6 673d
000001e0: 81fa 6f3d 2f6c 27bc 545d 113d 7979 7bbd
000001f0: 807c 043d e299 9f3c 60f1 5bbd c4e3 59bd
00000200: 8271 303d 8d6d 433d a7ff 683b 41d9 8a3d
00000210: 88b9 43bd f72b 3b3c 33fc 00bc 83af 8ebc
00000220: 2f2a 4a3d 7070 e0bc f952 383c 0eea a4bc
00000230: 4cf0 613d 1f7e 2c3d 46ef 6abd 99bc 883d
00000240: 09e0 073d 6d45 04bd 5d6c 44bd 63f0 233d
00000250: 3fd8 8cbd 37ac 53bd 1941 5abd d7c5 b6bc
00000260: 418a 5b3c 65ea 74bd 89ff 6b3d d030 343d
00000270: 97d1 5cbd 2500 7bbd c0b9 c3bc 5e6d 49bc
00000280: 449d 88bd 48ee bb3c f3a6 4ebd 9bdc d13b
00000290: b569 bebb 6b2d 8bbd 2257 563d 688d 7dbd
000002a0: dd82 f1bc c155 a83d b903 733d 7dd8 463d
000002b0: 7588 303d be5f aabc 7071 50bc dcb1 f23c
000002c0: 4a1c 85bd a631 a6bc 068e 49bd a86b 783d
000002d0: 17a5 1abd 256e 7f3d dbef 0f3d e78e afbc
000002e0: c7db 4bbd a424 71bc 35c3 3e3d 0153 2cbd
000002f0: 2d2b f4bc 86b9 3fbb 810f e3bc f7e4 60bc
00000300: a376 623d da31 29bc 771e 02bd 870e 97bd
00000310: 02f1 0c3d 280f 6e3d 583c 6fbd bbe5 8fbd

layers.4.weight f4 [1, 200]
-0.09584028 -0.028646521 -0.05450701 0.039887253 -0.037607487 -0.06847879 -0.08644503 0.04493817
-0.04875302 0.06990921 -0.1276455 0.018146452 0.015489322 -0.0038316613 0.11023106 0.03388738
-0.015968649 0.013797643 -0.051454812 -0.0021758846 0.07973279 0.08660548 0.10712472 0.019088985
0.041930433 -0.07445421 -0.023730194 -0.08539041 -0.03485305 -0.07114318 -0.0080809 0.115718745
-0.0965469 0.016022712 -0.053243306 0.033215962 -0.075840704 0.01988388 -0.0030167177 0.121505894
-0.017972458 0.061052646 -0.043919124 -0.13009149 -0.057671864 -0.0791446 -0.044438884 0.1146103
0.028832875 0.05666951 -0.034296308 -0.059117746 0.0014648391 0.078646146 -0.032724634 -0.03407492
-0.100424916 -0.08287488 0.0020012362 0.07693232 -0.08513991 0.04897772 0.0150713585 -0.045397643
0.2444691 -0.03335741 0.025174553 0.07289927 -0.031853393 -0.016657855 0.025365932 -0.047775995
0.05779436 0.017946035 0.043300267 -0.14518206 0.055660278 0.0047628563 0.15303874 0.078411736
0.019840341 -0.0006784406 0.023031745 0.20598352 -0.035449225 -0.037729517 -0.09663071 0.049092267
0.25670215 0.052827105 -0.03183249 -0.06456037 -0.06167467 0.026495926 -0.063086115 -0.03474316
-0.05144872 -0.056460183 -0.1498386 -0.07573702 0.14025465 -0.09967087 0.056686644 -0.013067766
-0.048552867 -0.059466798 -0.040176347 -0.10427755 0.041952778 0.01873761 -0.06476942 -0.0823638
0.002810572 -0.081809394 0.001226579 -0.09374198 0.03923762 -0.09923497 0.015485401 -0.01932009
-0.042482246 0.08873874 0.012289714 0.029445212 0.029148964 0.07593612 -0.04665626 0.14286058
0.08814203 -0.033981606 0.03831177 -0.022045173 0.035333723 -0.057546537 -0.030148728 0.034382034
0.15871006 -0.08485296 -0.014357609 0.069413975 0.094149634 0.09894635 0.069979005 0.06810951
0.009761807 -0.046929732 0.041749254 -0.12315643 0.0075407713 -0.06890667 -0.05216473 0.075805895
0.09263124 0.046768352 0.06430122 0.11858492 0.07015553 -0.021031613 -0.027972162 0.01702373
-0.059599325 -0.016625991 0.028113123 -0.0076112724 -0.07365533 -0.05466869 0.07645265 -0.099191226
0.0061261263 0.074654646 0.0045045735 -0.061596066 0.0995042 0.04588645 0.023449697 0.0064057517
-0.041625824 -0.0075938897 -0.036359366 0.08922073 -0.03520042 -0.01669873 -0.014483799 -0.022404034
-0.061355576 -0.04622985 -0.0107141575 -0.0051409793 -0.061984092 0.012656383 -0.0893366 0.028573629
0.11026864 -0.014738165 0.030028114 -0.039113976 0.026179096 0.039274625 -0.07675907 -0.12467652
00000000: e947 c4bd 1cac eabc be42 5fbd d160 233d
00000010: 4f0a 1abd 9c3e 8cbd 180a b1bd 1611 383d
00000020: 3fb1 47bd 8f2c 8f3d 80b5 02be dea7 943c
00000030: edc6 7d3c 9c1c 7bbb d2c0 e13d 7ecd 0a3d
00000040: afd0 82bc 820f 623c 48c2 52bd 4999 0ebb
00000050: f24a a33d 375e b13d 3564 db3d 8160 9c3c
00000060: 3fbf 2b3d 737b 98bd d365 c2bc 2be1 aebd
00000070: 12c2 0ebd 84b3 91bd c065 04bc f3fd ec3d
00000080: 62ba c5bd 1042 833c a715 5abd 760d 083d
00000090: 5f52 9bbd 85e3 a23c 20b4 45bb 15d8 f83d
000000a0: fa3a 93bc 5712 7a3d 8ae4 33bd b436 05be
000000b0: 5539 6cbd 9016 a2bd 8c05 36bd ceb8 ea3d
000000c0: ec32 ec3c 4a1e 683d 497a 0cbd 7325 72bd
000000d0: d8ff bf3a 3b11 a13d 440a 06bd 2592 0bbd
000000e0: 94ab cdbd 4eba a9bd 2c27 033b b18e 9d3d
000000f0: d55d aebd dd9c 483d dced 763c e1f2 39bd
00000100: 1c56 7a3e c8a1 08bd dd3a ce3c 364c 953d
00000110: b478 02bd 0e76 88bc 37cc cf3c c3b0 43bd
00000120: c7b9 6c3d 9003 933c 9f5b 313d 9baa 14be
00000130: 08fc 633d bc11 9c3b 30b6 1c3e 5596 a03d
00000140: 3688 a23c 61d9 31ba 12ad bc3c 58ed 523e
00000150: 3533 11bd 448a 1abd 52e6 c5bd f914 493d
00000160: 776e 833e 3c61 583d c962 02bd 3a38 84bd
00000170: 949e 7cbd fc0d d93c 4b33 81bd d84e 0ebd
00000180: e5bb 52bd cb42 67bd 4a6f 19be 031c 9bbd
00000190: ea9e 0f3e 3e20 ccbd 4130 683d 2f1a 56bc
000001a0: 5fdf 46bd 7593 73bd f48f 24bd 788f d5bd
000001b0: add6 2b3d 9e7f 993c d4a5 84bd 5aae a8bd
000001c0: 9331 383b af8b a7bd 29c5 a03a ccfb bfbd
000001d0: a0b7 203d b43b cbbd 7bb6 7d3c 2a45 9ebc
000001e0: dd01 2ebd a8bc b53d cc5a 493c 1637 f13c
000001f0: cfc9 ee3c 6584 9b3d a21a 3fbd 0b4a 123e
00000200: cf83 b43d 4c30 0bbd cdec 1c3d 1498 b4bc
00000210: 18ba 103d ebb5 6bbd 77fa f6bc 2dd4 0c3d
00000220: e484 223e 64c7 adbd 2d3c 6bbc ea28 8e3d
00000230: 86d1 c03d 62a4 ca3d 2751 8f3d 007d 8b3d
00000240: fcef 1f3c 6439 40bd 4401 2b3d 7039 fcbd
00000250: 9318 f73b f11e 8dbd afaa 55bd 1f40 9b3d
00000260: 73b5 bd3d 2c90 3f3d 5cb0 833d a7dc f23d
00000270: b4ad 8f3d 7d4a acbc e025 e5bc 5975 8b3c
00000280: 6c1e 74bd 3b33 88bc 7e4d e63c fb67 f9bb
00000290: 9bd8 96bd 47ec 5fbd 3593 9c3d c524 cbbd
000002a0: acbd c83b 89e4 983d 1a9b 933b 284c 7cbd
000002b0: dcc8 cb3d 6ef3 3b3d 9419 c03c 57e7 d13b
000002c0: d77f 2abd 2ad6 f8bb 8fed 14bd 5cb9 b63d
000002d0: 512e 10bd c6cb 88bc 754d 6dbc aa88 b7bc
000002e0: fc4f 7bbd 835b 3dbd 6f8a 2fbc a975 a8bb
000002f0: 08e3 7dbd b85c 4f3c 1bf6 b6bd 3e13 ea3c
00000300: 86d4 e13d 5878 71bc 85fd f53c fa35 20bd
00000310: 8b75 d63c 6ede 203d dc33 9dbd 6756 ffbd
