model/results/skew-skew/mean-e10000/200-200-SGD-relu-0.001-50-e10000-mean.pt (torch, 168903 bytes, 5 tensors)

layers.0.weight f4 [200, 5]
000000 40 b7 c8 be 47 d5 65 be a5 e6 97 be 0b f8 8e 3e
       -0.3920231 -0.2244464 -0.29668155 0.27923617
000010 88 98 99 be 5c 36 e5 bd 63 cb d0 3e d3 db d1 3e
       -0.29999185 -0.11192009 0.40780172 0.40988025
000020 4b 85 8e be d2 9d b5 3e 27 c7 cf 3e c0 3f 25 be
       -0.2783607 0.3547197 0.4058163 -0.161376
000030 f1 c9 00 be 48 80 82 3d df 62 e2 bd 4e 90 ab be
       -0.12577035 0.06372124 -0.110540144 -0.33508533
000040 3b d3 6c 3e 86 28 65 3e f6 1a d9 be b5 90 a0 3d
       0.23127453 0.2237874 -0.42403382 0.07840101
000050 24 47 38 3e 74 51 b9 3d 23 a0 12 be b2 1f 22 3e
       0.17995888 0.09048739 -0.143189 0.15832403
000060 71 4e 03 3e 06 8a a0 bc 64 04 1b be 75 aa 80 3e
       0.12822892 -0.019597065 -0.15138394 0.25130048
000070 d1 a6 3d bd 63 6d 1a be 32 07 ea bd 32 ce 15 bc
       -0.046301667 -0.1508079 -0.11427154 -0.009143399
000080 5c 9a c7 be 26 37 ac 3e e7 c5 97 be 5c 42 b1 be
       -0.38984954 0.33635825 -0.29643175 -0.3462094
000090 78 87 60 3b a7 56 c9 be 4e 0f 93 bd b9 2a 6d bd
       0.0034260433 -0.39323923 -0.071806535 -0.05790207
0000a0 6f f8 50 bd ba 29 94 be f4 c0 8f 3e 77 17 9b 3d
       -0.051018175 -0.28938085 0.280769 0.07572835
0000b0 ea 18 43 3d 7f 27 15 be b6 9c 99 be e6 88 a3 be
       0.04763118 -0.14565848 -0.30002373 -0.31940383
0000c0 8a 89 8c 3e 2d 87 f5 3d ab b8 d5 3e 97 42 e1 bd
       0.27448684 0.11988673 0.41742453 -0.10999029
0000d0 fc 08 a1 3e a7 67 c2 3e 70 1a 2e 3e 36 7e 86 3d
       0.31452167 0.37969705 0.17002273 0.065670416
0000e0 62 17 46 be ea 44 43 be 1f 2d 88 3b 11 d9 a9 be
       -0.19344857 -0.19069257 0.0041557695 -0.3317342
0000f0 4e 01 c2 3e 52 f6 58 be 95 8c 31 3e 19 c2 d7 be
       0.3789162 -0.21187714 0.17338784 -0.42140272
000100 63 3a 25 3e 3c bb a1 3e ba a7 88 bd 7a cf 2f bd
       0.16135554 0.3158816 -0.06672616 -0.042922474
000110 a4 55 e3 3e 9e 71 1e 3e 2a c7 b4 3c 5c 8c 74 3d
       0.44401276 0.15473029 0.022067625 0.05970417
000120 2c 2d 69 be 16 7a 88 bd 33 61 66 3e c4 e4 48 be
       -0.22771138 -0.06663911 0.22498016 -0.19618517
000130 2c 5e 91 be c8 ee a2 be 14 7a b4 be 45 0e 38 be
       -0.2839216 -0.318228 -0.35249388 -0.17974193
000140 80 f1 b9 bd 98 c3 8c be d5 28 c1 be 7d 99 48 3e
       -0.090792656 -0.27492976 -0.37726465 0.19589801
000150 4b 86 f2 bd 58 ab e6 3c 57 79 73 3e 41 a8 cd be
       -0.118420206 0.028157875 0.23776756 -0.4016743
000160 b3 4d a8 3e 59 9b 16 be fb 7c 1f bd 01 b6 47 3e
       0.3287178 -0.14707698 -0.03893755 0.19503023
000170 ab 55 73 be 2c 36 b8 bd 3c d5 2f be 0d 9e 24 bd
       -0.23763148 -0.089947075 -0.17171186 -0.04018979
000180 47 30 7f 3e c8 82 5f 3d 61 28 4c 3e 35 a5 8e be
       0.2492076 0.054568082 0.19937278 -0.27860418
000190 d3 73 b2 3e 1e 46 8b 3e 6c 14 75 be 95 14 e9 3e
       0.34853992 0.27201933 -0.23933572 0.45523515
0001a0 a3 fb c4 3e 2a 80 b5 3e bb 24 67 be 0f 4c d8 3e
       0.38473234 0.35449344 -0.22572605 0.42245528
0001b0 aa c5 c9 3e 7f bb 99 be 4c a0 a5 be 8f 41 a7 3d
       0.39408618 -0.3002586 -0.3234886 0.08166801
0001c0 a5 30 79 be 24 3b 8d 3e be aa bb 3e af 65 d3 3e
       -0.24334963 0.27584183 0.36653703 0.41288516
0001d0 7e 07 a9 be bb 52 b7 3e 9e e8 db 3d 1f 17 ae be
       -0.3301353 0.35805306 0.107377276 -0.34002015
0001e0 4a 7c 17 be 19 d9 c6 3e 8e 30 bd be 65 f9 b3 be
       -0.14793506 0.38837507 -0.36951107 -0.3515121
0001f0 11 c2 ba 3e ec df 4e 3d ec 9e e0 3e c2 2f 7c bd
       0.36476186 0.050506517 0.43871248 -0.061568983
000200 67 b4 a1 be 3a 54 2d bc 00 da 8c be c8 84 93 be
       -0.3158295 -0.010579163 -0.2751007 -0.28812242
000210 db d2 82 be 30 1d e0 be c1 29 18 3e 71 42 a2 3e
       -0.25551495 -0.43772268 0.14859678 0.31691316
000220 da 0d 9a 3e f4 06 05 3f 11 ae 30 be 25 45 c2 be
       0.30088693 0.51963735 -0.17253901 -0.37943378
000230 d9 58 41 3d 0c 46 63 be a5 69 47 3e 19 36 df 3e
       0.047203872 -0.2219469 0.19473894 0.4359596
000240 76 6d 89 3e a6 bf 98 3d 73 f0 af be af 2e 3c 3e
       0.26841325 0.07458429 -0.34363136 0.18377183
000250 09 a7 50 3e 9b 06 96 3e 5c 70 5e be 7f 02 b4 3e
       0.20376219 0.29301915 -0.21722549 0.35158154
000260 11 39 dd be 61 1f bf 3e 55 43 5d be a0 82 b8 be
       -0.432076 0.37328628 -0.21607716 -0.3603716
000270 fe 2a b6 3e db 88 b6 be e1 2c 9a bc e8 c3 e5 3d
       0.35579675 -0.35651287 -0.018820228 0.11219007
000280 89 df 65 be ed 8c 62 be d6 aa 3d 3e 7f e9 d8 be
       -0.22448553 -0.22124071 0.185222 -0.42365643
000290 e2 1d db be 33 e8 8a be 60 43 a1 be 66 d7 53 be
       -0.42796236 -0.2713028 -0.31496716 -0.20687637
0002a0 a7 da 3f be 25 99 99 3e c3 0d 63 be 47 17 92 be
       -0.18735753 0.29999653 -0.22173218 -0.28533384
0002b0 33 ac c7 3e 7d 2f e2 be 7f f1 54 3e cb c3 94 be
       0.38998565 -0.44176856 0.20795248 -0.29055628
0002c0 26 0b b0 be 0a 4b dd 3e 12 c1 7f be 65 bf bc be
       -0.34383506 0.43221313 -0.24975994 -0.36864772
0002d0 a6 63 d9 be 63 ac 8a 3e a6 01 cb 3c cd 20 05 be
       -0.42458838 0.27084646 0.02478106 -0.13000794
0002e0 b3 20 b7 3e 0c b1 b1 3d a7 66 a7 be 4d 5d 25 3d
       0.35767135 0.08676347 -0.32695505 0.04037218
0002f0 c3 0c 7f be 13 c5 03 bd 1e a5 d2 be 33 ed 6a be
       -0.24907212 -0.032170366 -0.411416 -0.22942047
000300 84 18 88 3c e1 c9 b5 3e 13 8e 32 be fb 87 53 be
       0.016613252 0.35505584 -0.1743701 -0.20657341
000310 b6 5c b5 3e 73 f2 c1 3e 60 4f 19 be 82 55 cc 3e
       0.35422295 0.37880287 -0.14971685 0.39908987
000320 09 5c 7e be c2 99 69 3e bd bf d1 3e 02 b4 65 bd
       -0.24839796 0.2281256 0.40966597 -0.056079872
000330 93 48 83 be fa 66 ec 3d 3f 7e 83 3e 58 f2 0c be
       -0.25641307 0.11543079 0.25682256 -0.13764322
000340 2d be b6 3e b2 d2 5c 3c cf 27 89 bd 51 20 92 3e
       0.35691968 0.013477968 -0.06697046 0.2854028
000350 e3 70 bb be 37 d1 8c 3e 5d e0 7a 3e f0 00 ba 3e
       -0.36609563 0.27503368 0.2449965 0.3632884
000360 5c 55 80 be 9a 4a 11 be f1 b5 96 be 5b 97 be be
       -0.25065124 -0.14188614 -0.29435685 -0.3722485
000370 90 0e cd 3d 2b 20 7f be d7 db 62 be a3 1e a1 bc
       0.10012543 -0.24914615 -0.22154175 -0.019667929
000380 a5 93 7e 3e b4 ad e1 be f4 b0 af 3e de d2 5e 3d
       0.2486101 -0.44077837 0.34314692 0.054400317
000390 88 dc 32 3e 92 f5 90 be 1d 7e d2 bd 81 f6 81 be
       0.17466938 -0.28312355 -0.102779604 -0.2538338
0003a0 d7 fe c9 be d1 c3 c8 bd 4a 2f d2 be c7 7c 4f 3d
       -0.3945224 -0.09802974 -0.41051704 0.050656106
0003b0 4a dc 1b 3e 1b df 82 be f2 43 79 be c8 ca be be
       0.15220752 -0.2556084 -0.24342325 -0.37264085
0003c0 fe 2f 3d bc 5f e6 83 be 02 cc 3b be 5b ab 1c 3c
       -0.011547087 -0.25761697 -0.18339542 0.009562339
0003d0 c5 8b d7 be f7 b2 17 3e 6f 36 aa 3d 0c d9 46 3e
       -0.42098823 0.14814363 0.08311164 0.19418734
0003e0 07 fe 1e bd df 60 20 be d0 9c b8 3e a4 e8 93 be
       -0.038816478 -0.15661953 0.36057138 -0.28888428
0003f0 e0 9c d8 bd 05 58 92 bb 76 c9 a0 bd 2b 0e fa bd
       -0.105767965 -0.004466059 -0.078509256 -0.122097336

layers.0.bias f4 [200]
000000 59 84 6a 3e 7b f8 7d 3d dc 3a 9e be 48 91 aa 3e
       0.22902049 0.062004548 -0.3090428 0.33313966
000010 89 0b 29 be 5d b6 02 be c8 79 b0 bd 38 a8 8f be
       -0.16508307 -0.12764879 -0.08616978 -0.28058028
000020 54 a6 af bd e4 20 dd 3e 17 91 cc be e7 94 a3 3e
       -0.085766464 0.43189156 -0.39954445 0.3194954
000030 e1 6a 16 be b7 0a 8e 3d fe a5 31 be 7a 5e d3 be
       -0.14689209 0.069356374 -0.17348477 -0.41283017
000040 28 63 21 be 01 17 ce 3e b2 35 da be 61 de 2d 3e
       -0.15760481 0.40251926 -0.4261909 0.16979362
000050 35 d2 dd 3e c5 69 ce be 97 83 14 be 0c bb 83 3e
       0.43324438 -0.4031507 -0.14503323 0.25728643
000060 fc bb cc be 59 17 c5 be a7 be 29 bd f6 01 b1 3e
       -0.3998717 -0.38494375 -0.041441586 0.3457181
000070 72 1a 1f be 21 2c 81 be 14 fc ca 3e b3 ae ab bc
       -0.15537432 -0.2522898 0.39645445 -0.020957327
000080 5c 9e 97 be 77 22 db be c7 a7 dd 3e 67 f8 ee 3d
       -0.29613006 -0.42799732 0.43292066 0.11668473
000090 6f 42 3b 3e 41 ea b5 3d a2 21 15 be 4b 00 95 3e
       0.18287061 0.08882571 -0.14563611 0.29101786
0000a0 af f3 47 3e aa 20 5f 3e 59 12 8e bd 90 71 b9 3d
       0.19526552 0.21789804 -0.06937093 0.090548635
0000b0 19 e2 e0 be 2a 95 82 bd 3b c1 30 be 5b d0 d0 3c
       -0.439225 -0.06376107 -0.17261212 0.025489977
0000c0 9a 4a 91 3e ed ce 8f be 22 f4 28 bb dc 14 d9 3e
       0.2837723 -0.2808756 -0.002578028 0.42398727
0000d0 0d 1c dc 3e 17 d6 30 bc 42 36 2e bd 72 a1 aa 3e
       0.4299015 -0.0107932305 -0.042532213 0.33326298
0000e0 ca 20 c8 be bd 44 72 3e a7 28 36 bc a3 6f ab 3e
       -0.39087516 0.23659034 -0.011118091 0.3348361
0000f0 64 0b c7 3d 33 cf 92 3c 4d 95 d1 3e 10 c0 c8 3e
       0.097189695 0.017921066 0.4093422 0.39209032
000100 be 9b f8 bd 6d 51 90 be 14 84 3a 3d 14 e7 a4 3e
       -0.121390805 -0.28187123 0.045536116 0.3220755
000110 ec c3 a5 bd 9b 80 89 3e de e4 8a be a6 f3 ce 3e
       -0.0809401 0.2685593 -0.27127737 0.40420264
000120 e7 22 b9 3e 67 6b d8 be 79 f5 db be d8 b9 3f bd
       0.3615944 -0.4226944 -0.42960718 -0.046808094
000130 ee fb 13 3e 79 1f 27 be 54 8d c4 bd 5f f0 4e be
       0.14451572 -0.163206 -0.09597269 -0.20208882
000140 c4 33 95 be 30 32 17 3e 3e f3 5f be c3 43 51 3e
       -0.29141057 0.14765239 -0.21870133 0.20436005
000150 95 b7 a9 be 73 a5 8d 3e aa dc 18 3e cf 6b 94 bd
       -0.33147874 0.2766529 0.14927927 -0.07247125
000160 41 05 b9 be 51 e0 5b be 41 36 34 3e 0e 2a 61 3e
       -0.3613682 -0.21472289 0.17598821 0.21988699
000170 5f b0 60 be 68 cd 31 be 2c b9 e5 3d 0a f0 82 bc
       -0.2194228 -0.17363513 0.11216959 -0.0159836
000180 63 07 82 3e e9 b1 e3 3d b3 d4 b0 3e 02 1f d4 be
       0.2539626 0.11117918 0.34537277 -0.41429907
000190 b0 30 d4 be 92 f4 9c be ab db 18 be 7f 84 7b 3e
       -0.41443396 -0.30655342 -0.14927547 0.24562262
0001a0 25 8e 36 3d 25 e4 8e 3e c5 16 ad be 1c b9 7e be
       0.044569153 0.27908435 -0.33806434 -0.24875301
0001b0 b8 d4 a6 bc 9a c8 c0 be e3 ac 46 be 25 f6 82 3d
       -0.020365104 -0.37653047 -0.19401889 0.063946046
0001c0 81 70 21 be eb ef 87 3e 83 1d 1f be 7f ac 92 bd
       -0.15765573 0.2655023 -0.15538602 -0.07161807
0001d0 c1 13 6c bd de f7 28 be 9f 2b 00 be 2a d2 2e bd
       -0.057636026 -0.16500804 -0.1251664 -0.042680897
0001e0 ca c0 65 3e 05 22 a6 3e 85 f6 91 be da ef 2b be
       0.22436824 0.3244783 -0.28508392 -0.16790715
0001f0 50 dc 18 bd 26 94 be be f0 64 6c be 49 c7 03 be
       -0.03731948 -0.37222403 -0.2308538 -0.1286899
000200 8d 61 1f 3e 72 a5 b8 3e c8 c9 c0 bd db 01 ea 3d
       0.15564556 0.36063725 -0.09413487 0.11426135
000210 06 fc 81 be de 27 45 bd e4 d2 d2 be 3d d5 ab 3e
       -0.2538759 -0.048133723 -0.41176522 0.33561125
000220 60 41 a2 3d cf 05 2c 3e 6d 1b 92 3e 3f 10 01 3d
       0.079226255 0.16799091 0.2853655 0.031509634
000230 29 65 5c 3e ef 20 d9 be f2 a4 cc be 31 1e ba 3d
       0.21522965 -0.4240794 -0.39969593 0.0908779
000240 39 06 e8 3d db ab b4 bd ae 50 c2 3e 1a 0b fa bc
       0.11329312 -0.08821841 0.3795218 -0.030522872
000250 23 8f 8e be 87 26 18 be d3 91 f0 bd 18 78 81 be
       -0.2784358 -0.14858447 -0.11746564 -0.25286937
000260 24 43 20 3e 9c 0a af 3e eb 6b 46 be dd 72 a8 3e
       0.15650612 0.34187782 -0.19377105 0.32900134
000270 79 bb d9 3c dd ab 2d be 59 e3 bf be 65 30 91 be
       0.026578652 -0.16960092 -0.3747814 -0.28357235
000280 45 7e 2f bd 11 52 8c 3e 9a dc 8f be fc e2 a2 3e
       -0.04284503 0.27406362 -0.28097993 0.318138
000290 df bd 63 be e4 be 6e 3e 1f 1d 29 3d 78 e8 1e bd
       -0.22240399 0.23315006 0.041287538 -0.03879592
0002a0 7c 87 ab 3e 18 e1 25 be 1e 06 8d 3e 81 84 98 be
       0.33501804 -0.16199148 0.2754373 -0.29788592
0002b0 b0 ab 88 3e 41 1b 0a bd 6f 02 c4 be 1c fb 0c 3e
       0.26693487 -0.033717398 -0.38283107 0.13767666
0002c0 92 7b a8 be c1 db 35 be 85 05 4e be 35 bb 0a 3e
       -0.32906777 -0.1775961 -0.20119293 0.13547976
0002d0 cd 99 9d 3e 9d a3 e4 bd 30 df 26 be cb 34 2c 3e
       0.30781403 -0.11164019 -0.16296077 0.16817014
0002e0 53 88 9c be f7 7e a2 3d fe 94 20 3e 33 8c fe bd
       -0.30572757 0.07934373 0.15681836 -0.12429085
0002f0 24 16 bd 3e 38 24 d2 be 40 a6 bf 3e 19 f1 c1 be
       0.36930954 -0.41043258 0.37431526 -0.37879255
000300 61 e1 f5 bd ff 27 a0 bc 79 3e 7c be 51 e0 b7 be
       -0.12005878 -0.019550322 -0.24633206 -0.35913327
000310 a7 29 e0 be df c2 64 3d 1a cf 37 3e 0b b6 89 3e
       -0.43781778 0.055849906 0.17950097 0.268967

layers.2.weight f4 [200, 200]
000000 be 2d 23 bc 77 95 3f 3d 25 4d 75 bd 33 7f 80 bd
       -0.009959636 0.0467734 -0.059888024 -0.06274261
000010 d5 39 8a 3d d3 45 80 3d 90 9d 78 3d ae f3 a0 bb
       0.06749312 0.06263318 0.06069714 -0.0049118614
000020 55 1d 37 bd fc 10 40 bd a7 81 1d 3d f5 ee a0 3c
       -0.044705708 -0.046891198 0.038453724 0.019645194
000030 0f 67 05 bd 63 e0 e3 3a 0f f9 73 bd db f1 a2 3b
       -0.032568987 0.0017385598 -0.059563693 0.004972679
000040 ca f4 3d bd 5f 04 cd bc e0 1e 17 3c 56 3f 3b bc
       -0.046376027 -0.025026498 0.00922367 -0.011428675
000050 59 5c 9a bd a3 a7 17 3d 1a ff b0 bc a9 0e 46 bd
       -0.07537145 0.037025105 -0.021606017 -0.048353825
000060 a3 9f 57 3d 63 ae 33 bc 6d 30 8e 3c d6 c0 52 3d
       0.052642476 -0.01096687 0.017357076 0.051453434
000070 c2 a4 c9 bb 86 fa 83 3d bc 57 f0 bc c7 02 5f bc
       -0.006153674 0.06444268 -0.02933871 -0.013611502
000080 b2 7a 49 3d f4 dd 0b 3d 29 e8 5e bd 01 9a 89 bd
       0.049189277 0.034147218 -0.054420624 -0.06718827
000090 9f 65 15 bd 62 52 e6 3c 69 e6 d4 3b b1 37 de 3a
       -0.036473867 0.028115455 0.0064971936 0.0016953853
0000a0 01 ad 8b bd d5 0d 37 3d 94 81 5a bb 5b d7 0f 3d
       -0.06820107 0.044690926 -0.0033341395 0.03511749
0000b0 15 3e 1a bc a3 80 48 3d 21 6d 83 3d 4a ea 32 3d
       -0.009414216 0.048950803 0.06417299 0.043680467
0000c0 6e 4f 7c bd 46 02 9b 3c 9d ae e9 3c 33 54 2f 3d
       -0.061599188 0.018921982 0.028525645 0.042804908
0000d0 e3 d6 12 bc c8 6d 4d 3d dd 62 2f bd ef 83 31 3d
       -0.008962366 0.050153524 -0.042818893 0.043338712
0000e0 17 f8 09 bd 39 6f c6 bc fe 34 b8 3c 14 88 57 3d
       -0.033683863 -0.024222957 0.022486206 0.05262001
0000f0 f1 7c 64 3d 3a 7f 83 bd 0a 81 e5 3b 45 11 a6 3c
       0.055783216 -0.06420751 0.007003908 0.020271907
000100 a2 a6 ac bc 52 40 cf bb d4 8a 51 bc cb ed 45 3c
       -0.02107555 -0.0063248063 -0.012789447 0.01208062
000110 ae f4 a3 bb 77 46 79 bd 58 c4 7f 3b 4f cb 52 3d
       -0.0050035333 -0.060858216 0.0039026942 0.05146342
000120 76 2c 8d 3c 9a bb ce 3c 2d 10 66 bd 5a 9f 85 bd
       0.017233115 0.02523594 -0.05616777 -0.065245345
000130 9b 20 c9 bc 41 ef 30 bc 67 39 22 bd 90 b0 49 bd
       -0.02455168 -0.01079923 -0.039605524 -0.04924065
000140 f9 5b d0 3c 7b 58 23 3c 74 96 43 bd f7 0f 80 bd
       0.025434481 0.009969826 -0.047750905 -0.06253045
000150 68 50 fa 3c 6f 8e 86 bd 3a fa 4b 3c 53 c0 8c 3b
       0.030555919 -0.06570136 0.012449795 0.004295388
000160 37 91 6b bd 57 2f a6 bc 1a e5 73 bc 14 29 8a 3b
       -0.057511535 -0.020286245 -0.014886165 0.0042163227
000170 b4 6f 80 3d b1 60 f6 3c 92 80 04 bc 4d ee c4 3c
       0.06271306 0.030075403 -0.008087294 0.024039412
000180 0a ad 4a 3a db c6 93 bc 80 01 90 bd 73 cd 0d 3c
       0.00077314733 -0.018039158 -0.07031536 0.00865494
000190 4c 0a 27 bc ea d5 8b 3d 0a 2e a9 bc 99 63 7c bd
       -0.010195326 0.0682791 -0.020651836 -0.06161842
0001a0 84 d6 50 3b 06 89 77 bc a0 63 c1 3c a4 7b f5 3c
       0.0031866143 -0.0151083525 0.023607075 0.029966183
0001b0 cc 22 90 3d de d9 94 3c 9d 2a 53 bd 3f 5f 23 3d
       0.07037887 0.018170293 -0.05155431 0.039885756
0001c0 f5 ec 0e bd 59 b3 ca bc a0 18 c4 bc 83 86 58 3c
       -0.03489395 -0.024743723 -0.023937523 0.013215664
0001d0 18 e7 af bc 19 9c ee bc 9b d7 24 3d b5 b7 45 bd
       -0.021472499 -0.029127168 0.04024468 -0.0482709
0001e0 73 03 d9 bc e3 f2 44 3d cc 66 fc 3a 3b da 26 3d
       -0.026490903 0.048083197 0.001925671 0.040735465
0001f0 1b 4d ef bb 70 46 4c bd 1d 02 7d bd 58 83 a2 3c
       -0.007302893 -0.049871862 -0.061769594 0.01983802
000200 4d be 59 bd dd 84 37 bd ed 6d b0 bb 5a 2d af 3c
       -0.05316 -0.044804443 -0.005384198 0.02138393
000210 84 a2 71 3c 98 c7 84 bd f0 eb f4 bc da 51 42 bb
       0.014748219 -0.06483382 -0.02989766 -0.0029650838
000220 2d 03 55 bd e9 f2 89 bc 0c 16 d2 bc ec 6e 2d 3c
       -0.05200498 -0.016839461 -0.025645278 0.010585528
000230 21 0e 04 bd 93 b6 e3 bc e3 17 d5 bc bf 45 da ba
       -0.032240037 -0.02779702 -0.026012367 -0.0016652866
000240 02 24 5e bc 4d f6 bc bc 68 8a 7a 3d aa c0 b2 3c
       -0.01355839 -0.023066664 0.06116715 0.021820385
000250 c3 22 63 3d 2f af d6 3c f7 d3 90 3c b4 97 76 bc
       0.055453073 0.02620658 0.017679198 -0.015050817
000260 61 bd 7d 3d df 9f c2 3c 81 68 ab bb 1f 68 8c bb
       0.061948184 0.023757873 -0.0052309637 -0.004284873
000270 b9 7a 92 3c f6 a9 8b bd ee 29 fb bb 07 fc 11 bd
       0.017880784 -0.06819527 -0.0076649105 -0.035640743
000280 ff ac 90 bd b4 e2 10 3c d8 00 bd bc aa b5 b0 bc
       -0.070642464 0.008843113 -0.023071691 -0.021571
000290 27 af 74 3d 87 ab ad bb 07 05 cb 3b 0c 93 67 3d
       0.05973735 -0.0052999887 0.0061956677 0.05653672
0002a0 f3 0e 4c bd eb 2d 89 3c a8 d1 75 3d 96 82 27 3d
       -0.049818944 0.016745528 0.060014397 0.04089602
0002b0 cb 32 bb 3c bc 3d 50 3d 3d c5 5a bd 89 2a 35 bd
       0.022851368 0.050840124 -0.053410757 -0.044230018
0002c0 b6 95 8e bd fc 76 ba 3c 36 4f 1f bc c3 7c c3 bb
       -0.06962149 0.022761814 -0.009723475 -0.0059658005
0002d0 f1 5e 42 3d f5 b5 14 bc 4f 0d 50 3d 45 b2 8b 3d
       0.047453824 -0.009076585 0.050793942 0.068211116
0002e0 9c a7 22 3d e4 20 2e bc ad 0d 72 bd a8 2f 13 3d
       0.039710626 -0.010627959 -0.059095073 0.03593412
0002f0 b1 a0 03 bd a2 e2 85 bd 44 8a 6e bd 62 ec 4d 3c
       -0.03213567 -0.065373674 -0.05823733 0.012568565
000300 e9 f8 82 3c 6f 09 8a 3d 9c 5c c9 bb 36 50 06 3d
       0.01598783 0.067400806 -0.006145073 0.03279134
000310 37 1c 77 3d fc 7e 2f 3d cf d9 53 3b 5d d6 0c 3d
       0.060329642 0.04284571 0.003232587 0.03438412
000320 6e 19 34 bc 3d 97 6a bd f1 c3 28 bd 64 6b ca bc
       -0.010992391 -0.05727314 -0.04120249 -0.024709411
000330 49 4f 46 bd 1b 1e 8c bc 97 1a 86 bc ef e6 38 bd
       -0.048415456 -0.0171042 -0.0163701 -0.04514211
000340 ab cd 37 bd 19 d6 80 3d 4c 23 ec 3c f9 e3 c2 3c
       -0.044873875 0.06290836 0.028825425 0.023790346
000350 4f b4 8e bd a5 92 20 bd 58 cd 70 bd 90 b9 4d 3d
       -0.06967985 -0.03920235 -0.05878958 0.050225794
000360 76 2d 8c 3d c8 63 40 3c 2d 44 6d 3d 60 94 82 bd
       0.068446085 0.01174254 0.057926346 -0.063759565
000370 81 c7 59 bd 6f 07 82 3d 1f 05 14 bd 34 cd 62 3d
       -0.053168777 0.06349074 -0.036137696 0.05537148
000380 61 a2 83 3b 73 e5 76 3b de 4f 24 3d 63 d6 6b bd
       0.00401716 0.0037673383 0.04011523 -0.057577502
000390 b7 f5 6d 3d de ca 8a 3d cd 4c 0d 3d 9a 2b 0d bd
       0.05809566 0.06776975 0.03449707 -0.03446541
0003a0 66 0b 52 bb e6 ff d5 3c 81 03 24 bd 8f 1a 07 bd
       -0.003205025 0.026122998 -0.040042404 -0.032984313
0003b0 f7 d8 fc 3c 58 3f ac 3b 08 e7 4b 3d b3 ce 45 bd
       0.030865176 0.0052565746 0.049780875 -0.048292827
0003c0 b9 67 24 bd b6 f3 38 bd 8e 96 cf bc 6d 21 81 3d
       -0.04013798 -0.045154296 -0.025340345 0.063052036
0003d0 b5 db 4c 3d 58 ea 58 3d 3e b6 70 3d 5c fa 76 bc
       0.050014216 0.052957863 0.05876755 -0.015074339
0003e0 81 ac 40 3d d9 31 f8 3b 5e 64 8c 3d e7 36 f4 3b
       0.047039513 0.0075743017 0.06855081 0.007452834
0003f0 77 cc eb bb bf fd 1e 3d a5 42 5e bc 38 4e 97 3c
       -0.007196005 0.03881621 -0.013565694 0.018469915

layers.2.bias f4 [200]
000000 a9 cc ab 3c 75 d9 82 bd 08 68 85 bc 15 99 92 bd
       0.020971613 -0.06389133 -0.016284958 -0.07158104
000010 db f0 42 bd cf 2e 83 3d e7 98 3d 3d ce a6 0c bd
       -0.04759298 0.064054124 0.046288397 -0.034338765
000020 3b c9 92 bc cd a3 b6 3b de 6d 6a bb 14 2b b1 bc
       -0.01791822 0.005573726 -0.0035771052 -0.021626987
000030 e0 95 e6 3c e4 77 f2 bc 10 b4 f9 3c 1f f5 53 3d
       0.028147638 -0.029598184 0.030481368 0.051747438
000040 93 2c 90 bd 75 5f 22 bc 5e f1 18 bd 48 fd 30 3b
       -0.07039752 -0.009910454 -0.03733956 0.0027006436
000050 4c 44 a4 bc b3 7a 3e 3d d7 93 ec bc f2 d9 5c 3d
       -0.020052098 0.046503734 -0.02887909 0.053918786
000060 a6 31 47 bd b6 52 42 bd 40 bb b3 bc e7 97 75 bc
       -0.048631333 -0.04744216 -0.021939874 -0.01498983
000070 de 10 f6 3c f0 f8 7b bd 4a 96 24 bd 2c b4 29 bd
       0.03003734 -0.061516702 -0.04018239 -0.04143159
000080 e1 e1 ad bd c1 d5 98 bb eb 13 6f 3d 4c 3e e4 3c
       -0.084903486 -0.0046641533 0.058368605 0.027861737
000090 34 b6 3d bd c3 0b 16 bd 49 17 43 3b 7f 8c 16 bd
       -0.04631634 -0.03663231 0.0029768518 -0.03675508
0000a0 62 52 b1 3c f0 4d a6 bd ba ea d4 bc 7d 34 7f bd
       0.021645728 -0.08120334 -0.025990833 -0.062305916
0000b0 ef e9 12 bd 18 ac 5b bd 03 3b 1d bd da ae 49 3d
       -0.035867628 -0.05363092 -0.038386356 0.049239017
0000c0 1d 18 3a bd cd 91 2e 3d ac f1 88 bd f9 29 29 bd
       -0.045433152 0.042619515 -0.0668672 -0.041299794
0000d0 aa ab 18 3c 11 be 73 3d 5d 22 c0 bb b4 e9 2e 3c
       0.009318272 0.059507433 -0.0058634714 0.010675836
0000e0 3b 5d 05 ba 7f 08 2d 3c 6c dd 41 3c 5e 83 37 bd
       -0.000508744 0.010561108 0.011832576 -0.044803016
0000f0 61 a7 f8 bc d2 e7 10 3c d2 25 18 bd f1 93 4f bd
       -0.03035325 0.008844333 -0.037145443 -0.050678197
000100 51 d5 26 bd fc 02 8a 3d db ad 07 3d 92 4c 71 3c
       -0.040730778 0.067388505 0.033124786 0.014727728
000110 9e 01 38 3d 93 cc 90 bc 36 c4 44 3c bb a8 dd 3b
       0.044923417 -0.017675674 0.012009671 0.006764499
000120 0c dd 89 3d a2 c0 0e bd 2c 7b 48 bd 8d 28 6f bc
       0.067316145 -0.034851678 -0.04894559 -0.01459707
000130 11 73 b7 bc 7e 2b e6 bb e1 cb 49 3d e6 02 13 bd
       -0.022393735 -0.0070242276 0.0492667 -0.035891436
000140 a0 2b 68 bd 55 f2 81 bd c6 ff d2 3b 8b 3b 28 bd
       -0.05668223 -0.06345049 0.006439182 -0.04107241
000150 ef b5 aa bb 68 15 59 bd ed 43 5c 3d d3 38 15 3c
       -0.0052096765 -0.05299893 0.053775717 0.009107786
000160 07 56 11 3d e5 eb 56 3c 19 a8 93 bd 69 a2 eb 3c
       0.035482433 0.013117765 -0.072097965 0.028763967
000170 3b 2f 48 3d 0b ae 80 ba 36 c7 40 3d bd 9c 80 3a
       0.048873167 -0.0009817494 0.047064982 0.0009812337
000180 35 f2 ef bb 58 87 f4 bc eb 92 2a 3b 1d a9 d4 bc
       -0.0073225745 -0.029849693 0.0026027511 -0.025959546
000190 07 89 89 bd 79 5c 0a 3c b3 55 01 bc 67 f7 7a 3d
       -0.06715589 0.008444899 -0.007893967 0.061271098
0001a0 67 7b 56 3c c3 71 71 3b aa 52 c1 3c 38 91 f8 3c
       0.013090945 0.003684149 0.023598988 0.030342683
0001b0 8a 7e 2b bb d8 ad b6 bc a4 11 66 bd 7b 0e 07 bd
       -0.0026167952 -0.022299692 -0.056169167 -0.032972794
0001c0 41 6e 83 3d b0 b0 19 3d c1 af a7 bb 99 ee 89 bc
       0.06417514 0.037522018 -0.005117387 -0.016837405
0001d0 e9 64 25 3d ad 49 21 3b 4d 91 81 bd 46 f6 e3 3b
       0.04037944 0.0024610565 -0.06326542 0.0069568483
0001e0 58 ed 54 bd 85 ac a7 3c 5a 94 11 3d 15 af 80 3d
       -0.05198416 0.020468006 0.03554187 0.06283394
0001f0 c0 ca 46 3d eb 35 c5 bc ae 20 31 3d 13 89 38 3d
       0.0485332 -0.024073562 0.043244056 0.0450526
000200 2d e2 2f 39 e1 64 97 3d 8a c3 2d 3d 6e 1f 86 3d
       0.00016773558 0.07392288 0.04242281 0.065489635
000210 73 ee ac bb 7b 34 82 3a 97 03 91 bd b0 53 24 3d
       -0.005277449 0.0009933853 -0.07080763 0.040118873
000220 75 3b 64 bd 8b f8 d6 3c d0 58 a3 3c 79 75 a4 3d
       -0.055720765 0.026241561 0.01993981 0.08030219
000230 f0 72 38 bd cb 6c 79 3d 05 2f 30 bd 0a c0 14 3d
       -0.045031488 0.06089477 -0.04301359 0.036315955
000240 61 94 88 bd 5d dc 1a 3d 02 a0 68 bd 2b 6b c9 3b
       -0.06668926 0.03780781 -0.05679322 0.0061468086
000250 13 19 ad 3c a9 06 b0 3c ca 70 62 3d 46 24 95 bb
       0.02113012 0.02148755 0.055283345 -0.0045514433
000260 70 76 d3 3c 0c 47 92 bc b6 80 b5 bc 86 a0 40 bd
       0.025813311 -0.017856143 -0.0221561 -0.047028087
000270 d6 d7 18 bd c6 58 16 bd 30 f4 de bb 34 0b 3e bd
       -0.037315212 -0.036705755 -0.0068040118 -0.046397403
000280 8e 79 19 3d a2 33 5f bb 38 41 80 bd 7a af 1f 3d
       0.03746944 -0.0034057875 -0.062624395 0.038985707
000290 3b 0e e0 3c ce ed a7 3c 29 60 57 3d c2 d6 57 bd
       0.027350536 0.020499136 0.05258194 -0.052695043
0002a0 94 23 53 bd 2e 43 44 3d d1 a1 bc bd fb 83 12 bd
       -0.0515476 0.04791563 -0.092105515 -0.035770398
0002b0 61 df a4 3c 28 d6 a4 bc a1 6c df bb b7 e2 4f 3d
       0.020126047 -0.020121649 -0.0068183695 0.05075332
0002c0 c7 cc 39 bd 05 1f 40 bd b0 e6 7c 3c 06 9b 9d 3c
       -0.045361307 -0.046904583 0.01543586 0.01923896
0002d0 3d 28 a0 bc f9 84 90 bd 61 26 62 3d 65 fd 65 3c
       -0.019550437 -0.070566125 0.055212382 0.014037465
0002e0 bb 40 a8 bc 51 ed 34 bc 3f a1 2f 3c 9e 25 34 bd
       -0.020538678 -0.011042909 0.010719596 -0.043981187
0002f0 4c bd 89 bd 69 d3 44 bd 9a 89 f4 3c 17 58 b1 3c
       -0.06725559 -0.04805318 0.02985077 0.02164845
000300 66 66 27 3c 28 09 44 bd 6d 44 0f 3d d2 45 fb 3c
       0.010217285 -0.047860295 0.034977365 0.030672941
000310 ba 89 21 bd 97 8d 6a bd f1 6d 8b 3b 6b f9 1f 3d
       -0.039437987 -0.057263937 0.0042550494 0.039056223

layers.4.weight f4 [1, 200]
000000 b0 6d 3f 3d dc 9d d8 bc db 6d 39 3d bd 9b 2f bc
       0.046735466 -0.02644246 0.045270782 -0.010718283
000010 e8 8c 4e bd 8e 95 45 3d 67 a2 80 3c 56 f5 5b bd
       -0.050427347 0.04823833 0.01570244 -0.053700767
000020 ad ac 98 3c 3c 9e 52 3d d8 e1 42 3d d7 28 96 3c
       0.018637026 0.051420435 0.047578663 0.01833002
000030 e6 c8 d4 bc fa 2f d7 bc a2 07 9b 3d 31 9a c4 3d
       -0.025974702 -0.026267994 0.07569815 0.09599722
000040 e4 3b 13 3e c7 20 2d 3d a8 67 6b bd ae d7 1b 3c
       0.14378315 0.042267587 -0.0574719 0.009511871
000050 3d ef 52 bd 36 78 80 3c 50 c4 88 3c 03 30 7e 3d
       -0.051497687 0.015682321 0.016695172 0.062057506
000060 03 c9 3a bd 86 39 65 3d 35 e0 a6 3d 0a 10 a4 bd
       -0.045601856 0.05596306 0.08148233 -0.08010872
000070 a8 93 49 bd a5 8f 32 bd 63 67 00 3c 68 36 1a 3e
       -0.04921308 -0.04359402 0.007837149 0.15059817
000080 bf dd b4 3d 23 fd 16 bd 86 44 af bb 7b d1 9c 3c
       0.08831357 -0.036862504 -0.005348745 0.019142857
000090 d2 e6 56 bd 09 ed 79 3d 97 af 3b 3e 71 6c 5b bd
       -0.05246622 0.06101707 0.18328701 -0.053570215
0000a0 18 18 25 3d e5 ed 69 3d 4e 68 60 bc f9 c3 8f 3d
       0.04030618 0.05711164 -0.013696743 0.07019801
0000b0 87 17 76 bd 77 24 b4 bc aa b1 9d 3b 5d 55 bf 3d
       -0.06008103 -0.021990044 0.004812439 0.09342454
0000c0 24 62 9a bd 16 4c bc 3d 9b a8 23 bd e0 e3 12 bd
       -0.0753825 0.091942 -0.039955717 -0.03586185
0000d0 8e 5b 5f bc eb ee 38 3d b6 8a 9a 3c b4 41 5b bd
       -0.013632668 0.045149725 0.01886497 -0.053529456
0000e0 71 23 28 3e 21 8b 2d bd b9 1b df bc 59 ef 86 3d
       0.1641977 -0.04236901 -0.027234899 0.06588621
0000f0 5b 76 32 bd db a8 70 bd 2e 61 19 3d 19 79 ba bc
       -0.043569904 -0.058754783 0.037446193 -0.022762822
000100 04 85 54 3c f1 9c 09 3b d0 e9 fa bc 7e a2 58 bd
       0.0129711665 0.0020998085 -0.030629069 -0.05288934
000110 fc 2f 02 3d 48 4b 0b 3e e4 fe bf bc 6c 5f 4b bc
       0.031784043 0.13602936 -0.023436971 -0.012412887
000120 65 d1 e4 3a 20 bd fa bc ef e7 20 bd 48 a3 84 ba
       0.0017457424 -0.03060776 -0.03928369 -0.0010119462
000130 5f 92 88 3d 0f a7 74 3d 53 7e 1e 3e ec d9 10 bd
       0.06668543 0.059729632 0.15477876 -0.035364076
000140 2b a2 60 bd 0d 9f 55 3d 6f f9 3e bd 12 e3 91 bd
       -0.054842155 0.052153636 -0.046624597 -0.07123388
000150 73 32 fa 3d 97 f5 89 3d 86 37 26 bb a1 83 1d bc
       0.12216654 0.06736296 -0.0025362684 -0.009613902
000160 24 1b a7 3c dd a0 a3 3b 9e 24 61 3d 94 64 7f 3d
       0.020398684 0.0049935416 0.05496656 0.06235178
000170 19 a0 08 3d 82 68 44 bd 2f 75 54 3d 5a 05 5f bd
       0.033355806 -0.04795123 0.051869567 -0.054448463
000180 ed 3a c0 bc bd af fa 3c 98 29 65 3d 38 ff ba 3c
       -0.023465598 0.030601377 0.05594787 0.022826776
000190 98 9a 1f bd 47 de 53 3d 51 28 00 bd 13 f2 00 bc
       -0.03896579 0.051725652 -0.03128845 -0.007870215
0001a0 15 8a 2b bd f1 0a 82 bb ab eb f2 bd 39 63 6a bd
       -0.041879732 -0.0039685895 -0.11861356 -0.057223532
0001b0 b4 df 5d 3d 10 85 c3 3d 4e 41 6e bc cb d3 9c 3c
       0.054168418 0.09546864 -0.014541937 0.01914396
0001c0 3c 53 99 bc 25 3f 4a 3d d1 e9 32 bb fe 29 2e 3d
       -0.018716447 0.049376626 -0.002730001 0.042520516
0001d0 5f f0 0e 3d e7 41 1b bd 5e d3 87 bc a0 30 2a 3d
       0.034897204 -0.037904646 -0.01658028 0.04155028
0001e0 37 82 0d bd 84 c3 62 3d fd a4 0f 3d 61 f4 07 3d
       -0.03454801 0.05536224 0.035069454 0.033192042
0001f0 0a fd 6c bd a2 9d 7a 3d c7 43 86 bd a0 e9 f1 bc
       -0.057858504 0.061185487 -0.06555896 -0.029530346
000200 7c 0b 0f 3d 1a 11 a9 bd 54 ce 49 bc af d2 47 bd
       0.03492306 -0.08255215 -0.012317259 -0.048784908
000210 9d b2 54 3a e2 22 8d 3d 8e 36 57 bd f8 62 f0 bd
       0.00081137737 0.06891419 -0.05254226 -0.11737627
000220 d7 9b 69 bd a8 47 a2 bd 33 bf fb bc 56 72 3b be
       -0.057033386 -0.079238236 -0.03073082 -0.18305334
000230 13 ac 41 bd 5d 81 78 3c 73 1a 9e 3d d4 23 01 3d
       -0.047283243 0.015167561 0.077198885 0.03152831
000240 18 e3 ec 3c 52 d7 f5 bc c5 a6 ac 3c e0 18 51 bc
       0.02891688 -0.0300099 0.021075616 -0.012762278
000250 da f9 9c 3c c6 18 27 3d 86 ae 9d 3d a8 c7 37 bd
       0.019162107 0.04079511 0.07699303 -0.04486814
000260 04 b9 82 3d f8 81 13 3d f6 a7 55 bc 37 0c 49 3d
       0.06382945 0.03601262 -0.013040533 0.049083915
000270 6e ae 3d bd 9b 40 11 bd 65 bf 3c bd ca 06 2d bd
       -0.046308927 -0.035462003 -0.046080966 -0.042242803
000280 1c da 87 3d b2 9b 27 3d 45 2a 55 bd af 14 9d bd
       0.06633398 0.040919967 -0.052042264 -0.07669961
000290 be ce 91 3d 75 02 3c 3d 0f 8c 28 3d 4a ac 18 bd
       0.07119511 0.04590078 0.041149195 -0.037273683
0002a0 12 36 00 3e d2 18 6a bd 38 69 dd 3d dd 75 8f bc
       0.12520626 -0.057152577 0.108110845 -0.017512256
0002b0 ae 56 83 3c 78 58 cf bd 5f 87 f3 3d a1 d4 9b 3c
       0.016032543 -0.10124296 0.11891054 0.019022288
0002c0 4d 13 37 bd ab 56 2b 3d 4b 94 c4 3d 13 3f 8b 3b
       -0.04469614 0.0418307 0.09598597 0.0042494624
0002d0 f8 87 fd bc 18 cc 8c 3b 74 8d 3d bd e7 c8 f1 3d
       -0.030948624 0.004296791 -0.04627748 0.11805897
0002e0 f8 05 8a bd ad b5 6d 3d 4f e5 91 3c 6c 9f 48 3d
       -0.0673942 0.058034588 0.017809538 0.04898016
0002f0 61 ce 01 bd 02 35 fc bc fc 15 07 bc 66 ce 6a bd
       -0.03169096 -0.030786995 -0.008244988 -0.057325743
000300 0f 6f 40 3d 23 05 05 bd 1c 81 e5 3d c4 5d 58 3d
       0.046980914 -0.032475602 0.11206266 0.052823797
000310 6e 55 0a 3d 91 28 d7 3c a2 a5 e2 3d 70 02 8a bd
       0.03377288 0.02626446 0.11066748 -0.06738746
