model/results/skew-skew/mean-e10000/250-250-SGD-relu-0.001-50-e10000-mean.pt (torch, 260679 bytes, 5 tensors)

layers.0.weight f4 [250, 5]
00000000: 0948 6ebe b54f c73d f07d 823c 842e 973e
00000010: b4fb abbe 3854 37be f173 6abe a362 ec3d
00000020: 3e98 1a3d 036c bd3e a02e 9dbd ed73 e43d
00000030: 185c 36be 29bc d93e 308a a7be 2fba 933d
00000040: 192a 8b3e 78cc 94bd 7aa6 a83e 6c86 c0bd
00000050: 18f0 d6be b589 bbbd 9b2b 7c3c d14f a13e
00000060: aa19 c93e cd6f 2c3d a47e 92bd df9f 76be
00000070: 9060 6c3d 1769 c2bd 330d debd 9a8a 8bbe
00000080: f5d8 00be 1a43 a73d a24c 7cbe a486 743c
00000090: d741 8abe 1920 7dbd b879 153d 8d86 51be
000000a0: a28c bdbd deb4 d13d 4a3d e5be 2dea 973e
000000b0: 9248 9a3e 306b a53e 0f1f 6c3e f125 d0be
000000c0: 3a47 38be 7097 b53d 77c2 6ebd b984 b23e
000000d0: 6f26 a63e 3212 5c3e 51d1 fabd 7640 c2be
000000e0: c4d7 3fbe 9179 cdbe acb9 9cbe 8b31 2fbe
000000f0: 60b9 ef3c 8ea3 4f3e 2309 7abe 372b 1ebe
00000100: c8eb b1be 4c6b c63e cff7 37be 3865 903e
00000110: ac17 963e 15cc c7be 899e d0be d0b1 6cbe
00000120: 8036 9fbe 4995 44bc e552 aabe 5eee 943e
00000130: 464b b53c 4bac 763e dbc5 bcbe 98b9 0a3d
00000140: 8867 583d f9e4 903e 3b34 df3e e106 d13e
00000150: df8e 3c3e 9a0f 68be 16b0 173e 1b75 56be
00000160: 2bf0 b23e a799 7dbe 51d4 bebe fe87 0c3d
00000170: 64c5 72bc 176f 053e c820 87be 88ae 98bd
00000180: 8b7b 893e 2a37 253e 1452 e23d fb53 51be
00000190: 0c0c 9f3e 2ab9 bcbd 038d 543d 493c 8e3e
000001a0: 39cb 903e 93a7 93be 1f50 ad3e ccbb 383e
000001b0: 0418 c1be bdeb 5bbe 2266 2ebc a905 9fbe
000001c0: 7c8d d0bc d50a ca3e b4cd bd3d 7b99 d0be
000001d0: 9b49 e4be 2587 763e ec3e cabe 1c42 ccbe
000001e0: 86c7 94bd 6911 aebe 85bb b9bc f9c3 8d3d
000001f0: 1eb3 55be 33ed df3e 1258 3d3e aa02 a8bd
00000200: 68e9 28be c65f e13e aa79 c13d 2dc6 2c3e
00000210: 8aa5 67be 43bb babe 7433 c7be 8f04 8e3e
00000220: d342 dcbe 5d7e 5cbe 8227 e33e ac68 b6be
00000230: eb92 4cbe ba3c cfba ca76 d73e c211 683d
00000240: 05bb ab3e e5cb 333e d02f 48be 936e da3e
00000250: 24e1 33be 8959 ba3e 26a6 da3e 6900 c1be
00000260: 23a3 ab3e 3b26 853e 5fdd 8a3d c518 c8bb
00000270: 73ae 3fbd ad71 abbe b66c 163e 22d8 95be
00000280: 820f e2be 7eb1 c9be 9340 1cbe bfc5 b53d
00000290: 4ba5 b1bd 50fb 2a3d 0865 9f3e 60cb d93d
000002a0: 856e a93e caad 9f3e 51cb c7bd 3fe0 50be
000002b0: ed26 99be 8d24 d73e 3497 923e fa2d a03d
000002c0: 3f20 ec3d b34e 1e3c 8562 55be 9c66 abbe
000002d0: 7fff b5be 6f37 2cbe f92e d2be ca7b a63d
000002e0: 4a0a 8b3d b8d8 a03e 7ee2 aabe f040 b5be
000002f0: bba3 28be 38db ffbd d9cb 39bd 9352 aabe
00000300: 49cd 023e 8db4 c63c 93ef 9abe 3b4f a4be
00000310: 0b60 273e 24d1 0a3d 1cf4 c23e 87f7 2b3e
00000320: 58ce b93c 0758 32be c145 3f3e 3d47 8abe
00000330: 28e1 f73d 3e55 0dbe 7850 b5be 4764 81be
00000340: c4b6 c33e d366 7ebe 1ab2 273e 02bc 9cbe
00000350: 9f74 903e de56 d2be d2ea 583e 255f 133e
00000360: 1842 5f3d f0f4 87be 596f 673e 2c37 573d
00000370: b988 303e ee67 1bbe 3338 bcbe 2191 6dbe
00000380: 64d7 d5be 18e8 78be cb83 74be b7f2 9a3e
00000390: c350 c53b a34a 833e ecf7 80bc 0868 b0be
000003a0: 9284 35be b3b5 39be d6b8 113e a371 9f3e
000003b0: 92e5 98be 4526 d33e 7d1e d2bd 672b 18be
000003c0: c867 ba3e 5107 273d a4ea a4bd 5a86 98be
000003d0: 1c15 82be 1ba0 5cbe 4de0 2abe b4cc 003e
000003e0: 038e bd3e 0f3c 83be 7626 943d 412b 2bbe
000003f0: c5c5 3cbd 6524 863e ce87 953e 2eea e23e
-0.23269667 0.09732 0.015929192 0.29527676 -0.33590472 -0.1790322 -0.2289579 0.11542251
0.037742846 0.3699647 -0.07674909 0.111549236 -0.17808568 0.42526367 -0.32722616 0.07213246
0.27180555 -0.07265562 0.32939512 -0.09400639 -0.41980052 -0.09157125 0.015391256 0.31506208
0.39277393 0.04209881 -0.07153061 -0.24084423 0.057709277 -0.094927005 -0.10842361 -0.27254182
-0.12582763 0.081670955 -0.24638608 0.014924679 -0.27003357 -0.06179819 0.036493033 -0.20461483
-0.09255339 0.10239576 -0.44773322 0.2967085 0.30133492 0.3230834 0.23058723 -0.40653947
-0.17995921 0.08866775 -0.058290925 0.34866884 0.32451198 0.21491316 -0.12246955 -0.37939805
-0.18734652 -0.4013181 -0.30610406 -0.17108743 0.029263198 0.20277235 -0.24417548 -0.15446173
-0.347502 0.38753736 -0.17965625 0.28202224 0.29314935 -0.3902289 -0.40745953 -0.23114705
-0.31096268 -0.011998483 -0.33266369 0.2908811 0.02213062 0.24089162 -0.36869702 0.033868402
0.05283311 0.28299692 0.43594536 0.4082556 0.18413876 -0.22662202 0.14813265 -0.2094311
0.3494886 -0.24765645 -0.3727136 0.03430938 -0.014817569 0.13030659 -0.26392198 -0.07455164
0.26852068 0.16134325 0.110508114 -0.20442192 0.3106388 -0.09215005 0.05189229 0.2778037
0.28280047 -0.28838786 0.3385019 0.18040389 -0.37713635 -0.21476646 -0.010644468 -0.31059006
-0.02545809 0.3946139 0.092677504 -0.40742096 -0.44587407 0.24074991 -0.3950113 -0.39894187
-0.072646186 -0.33997658 -0.022672424 0.069221444 -0.20869109 0.43735656 0.18490627 -0.08203633
-0.16495287 0.44018382 0.09447034 0.16872473 -0.22621742 -0.36470994 -0.38906443 0.27737853
-0.43019733 -0.21532579 0.4436608 -0.35626733 -0.1997792 -0.0015810945 0.42082816 0.05665756
0.33541122 0.17558248 -0.19549489 0.42662486 -0.17566353 0.36396435 0.42704886 -0.37695625
0.335229 0.2600573 0.067805044 -0.0061064684 -0.046797227 -0.33485165 0.14689907 -0.2926646
-0.44152457 -0.39393228 -0.15259008 0.08875608 -0.08674105 0.041743577 0.31131768 0.10634494
0.33092132 0.31187278 -0.097555764 -0.20398043 -0.2991251 0.42020074 0.28630984 0.07821269
0.11529588 0.009662318 -0.20838363 -0.33476722 -0.3554649 -0.16818021 -0.41051462 0.0812908
0.06789072 0.31415343 -0.33375925 -0.35401106 -0.16468708 -0.124929845 -0.04536042 -0.33266124
0.12773623 0.024256015 -0.30260906 -0.32091698 0.16345231 0.03389086 0.38076866 0.16793643
0.0226814 -0.17416392 0.18678953 -0.27007475 0.12103492 -0.13802049 -0.35412955 -0.25271818
0.38225377 -0.24843912 0.16376534 -0.3061219 0.28213975 -0.410819 0.21183327 0.14391764
0.05450639 -0.2655406 0.2260107 0.05254285 0.17239656 -0.15176365 -0.36761627 -0.23199894
-0.41765893 -0.24307287 -0.238784 0.30263302 0.0060215904 0.2564288 -0.015743218 -0.3445437
-0.17726353 -0.18135719 0.14230666 0.31141385 -0.29862648 0.41240135 -0.102597214 -0.14860307
0.36407304 0.04077846 -0.08052567 -0.29790002 -0.2540673 -0.2154545 -0.16687126 0.12578088
0.3702241 -0.2563176 0.07233898 -0.16715719 -0.046087045 0.26199642 0.29205173 0.4431929

layers.0.bias f4 [250]
00000000: a363 dabe c512 d4be e6c7 d9be 9685 98be
00000010: 3ab1 cf3e 16da ad3e 5ec4 bbbe c415 a2be
00000020: 2c9d cb3e 2891 9b3e 8215 013e 36ee df3e
00000030: 125c d8be b956 2dbe 719e dd3e b2ba c73d
00000040: f651 3c3e 2702 8c3e 02a9 223e 2810 7a3e
00000050: 6ab2 00bb 2620 a6be 790d b9bd 9956 dfbe
00000060: e9bf a03e aa3c c0be 2f08 ea3e b928 93bd
00000070: cd7f 7a3d dc0b 8ebe 526d ef3d bf2a abbe
00000080: b7c8 233e 7ed0 dbbe b161 973e e009 ac3e
00000090: d893 aabe aa1e d1bc 43b3 4ebc 9ab4 193e
000000a0: 238d ed3d fb66 a53e 42a2 9bbc d860 bfbe
000000b0: 152f 913e 8402 ba3d 733c e63d c2f8 783e
000000c0: 6535 ab3e 0727 b63e f9f5 52be b9e1 fcbd
000000d0: 5a5d a3be ed19 dcbe 1ef7 12be d821 133e
000000e0: f8b6 86bd 04e6 a53d f25c c7be 6fb6 da3e
000000f0: dddb c3bd 63bf 463e 3c81 013d bab3 793e
00000100: 0bfa b73e 2e2e e73d cfad dbbe 4161 5ebe
00000110: cf15 843d afdc 03be d3a3 74be c1f8 38bd
00000120: e5a2 933d dd22 2a3e 6931 b2be 8ab1 b0bd
00000130: 6a9e 173e dd47 8e3e c8d1 9e3e 01f8 163e
00000140: c81d bfbe 5baf d4be 1d92 833e 7ee7 8fbe
00000150: bdf4 9bbd 7ddb 6cbe d779 583e 79c4 8bbe
00000160: 1c34 e6be 47ef 73be 3475 93bc 28b7 c23e
00000170: c056 f23c 34e3 533e fdb3 e03d bedd 9c3e
00000180: 0242 c83d b8d7 fb3c 4a1e 98be 9c79 ccbe
00000190: ac6e b13d 9ab2 483e 1cf8 c9be 4a70 b63e
000001a0: c99b d4be bb73 473e e7fe 863e 5b4e 833e
000001b0: ea20 cd3e 30d2 2a3e d42c 0e3d 303a c33e
000001c0: 5726 21be c959 df3d af42 e23e 3083 ccbe
000001d0: ddb2 0f3e 34b1 033d 8c4c cbbc 486c 56bb
000001e0: 7447 a0be 194a 47be 75d8 05be c395 2ebd
000001f0: 2b49 ddbe 742c c7bd 58a5 4f3e 12c2 093e
00000200: eaab d3be fbae 82be 374b 603b c48a ad3e
00000210: 8db7 da3e 4cc0 9d3e d50b 46be a521 b7bc
00000220: 3dc2 f8bd 654a 5dbe 673c a7be d682 dfbe
00000230: 3cb7 39be 8566 14be 5049 b6be 355f 9abe
00000240: f25c b0bd 7e52 9fbc 4a75 3b3d dbd4 65be
00000250: 857d dbbe 8c3a 86bd ad10 393d 5310 bb3d
00000260: a7d4 cdbe f04d f6bb 42ec e53d 6614 fdbd
00000270: 059d 0fba c560 333e b0a8 313e 3cc6 81bd
00000280: c01d 14be b71e 01be a05d 03bd 440a 7ebe
00000290: b8c4 7abd 805c d13e 5762 9fbe c28c 6a3e
000002a0: aa74 9fbe 3a26 3cbe 3009 d6be 84cf 3b3e
000002b0: abfa 99be b7b2 463e 282f ab3e e69b 483e
000002c0: f21e c93d 6ac5 c8bd ba11 48be e8d8 08bb
000002d0: b056 c4bd 4378 c73e 6c46 61be 6b61 bc3e
000002e0: 9d47 09bd be29 933d 2027 95be 3418 c53d
000002f0: 5931 c73e 17ee 833e 2ff3 31be bd9b ce3e
00000300: 9619 9b3e 5103 aabe a4fa dc3e 8aa3 9cbd
00000310: 988d 8cbe 8b3e aabd b8b4 b8bd 86b2 c03e
00000320: 26ef b4bd acd5 2fbe 4227 ce39 f216 84be
00000330: 46e9 8d3e 9faa a03e cd3a 16be 7ab3 8bbe
00000340: 9ce5 e0bd c874 8ebe 348a ecbc 7588 60be
00000350: 2ef2 8e3e 99b7 cebe 626b a9be 3500 113e
00000360: 0c1e a2be bb65 27be 7dc6 ea3d 14f9 4a3e
00000370: 690e dcbe 1ca5 4cbe 3788 203e 5c47 ab3e
00000380: bafd 413e f2f1 c4be 2ce4 d0be 3475 9d3d
00000390: a5fe f5bd c945 96be a1f9 4a3e af0f 9cbe
000003a0: 6ce6 1bbe 56f5 bc3e 3730 203e 3643 61be
000003b0: 212e 1fbe da6d 03be 4cf2 2dbe e85e f23d
000003c0: d00f d1bd c10d b1be 813b 823e 3947 febc
000003d0: 6f1c 9cbe 07a1 493c 4c89 a4be 5733 1ebe
000003e0: e372 93be 5455 083d
-0.42654142 -0.4142057 -0.42535323 -0.29789418 0.405649 0.3395545 -0.36673254 -0.3165723
0.3976835 0.30384183 0.12605861 0.43736428 -0.42257744 -0.16927613 0.43284944 0.09752406
0.1839064 0.27345392 0.15884784 0.24420226 -0.0019637593 -0.32446402 -0.09035773 -0.43620756
0.31396416 -0.37546283 0.4570937 -0.071855016 0.061157037 -0.27743423 0.11690773 -0.3343105
0.15994535 -0.42932504 0.2956672 0.33601284 -0.3331592 -0.025527317 -0.0126159815 0.150103
0.11599185 0.3230513 -0.018998269 -0.37378573 0.28356233 0.09082511 0.112419985 0.24313644
0.33439174 0.3557665 -0.20601644 -0.12347741 -0.3190716 -0.4298853 -0.1435208 0.14368379
-0.06577867 0.081005126 -0.389381 0.4271731 -0.0956342 0.19408946 0.031617388 0.24384966
0.35932955 0.11288105 -0.42906043 -0.21716787 0.06449472 -0.12877153 -0.23890619 -0.045159105
0.07208804 0.16614862 -0.34803322 -0.08627613 0.14806524 0.27789202 0.31019425 0.14743043
-0.3732741 -0.41540036 0.25697413 -0.28106302 -0.076150395 -0.23130603 0.21140228 -0.27298334
-0.4496163 -0.23821746 -0.018000223 0.38030362 0.029582381 0.2069214 0.1097183 0.30637926
0.09778215 0.030742511 -0.2971061 -0.3993653 0.08663687 0.19599381 -0.39447105 0.35632545
-0.41525105 0.19477741 0.2636635 0.25645718 0.40064174 0.16681743 0.03471072 0.3813033
-0.15737282 0.10905797 0.441915 -0.39943838 0.14033075 0.032151416 -0.024816774 -0.003271835
-0.31304514 -0.1946186 -0.13070853 -0.042623293 -0.43219885 -0.09725276 0.20277917 0.13452938
-0.41342098 -0.25524125 0.003422452 0.33894932 0.42718163 0.30810773 -0.19340451 -0.02235491
-0.12146423 -0.2161041 -0.3266327 -0.43654507 -0.18136305 -0.14492233 -0.35602808 -0.30150762
-0.08611478 -0.019448515 0.045766152 -0.22444479 -0.428692 -0.06554136 0.04518192 0.09133973
-0.40201303 -0.007516615 0.11226703 -0.12357406 -0.0005478415 0.17517383 0.17349505 -0.06336638
-0.14464474 -0.12609373 -0.03207171 -0.24808604 -0.061222762 0.40890884 -0.31129715 0.22905257
-0.31143695 -0.18373957 -0.41803885 0.1834088 -0.30074057 0.19404112 0.33434415 0.1959072
0.098203555 -0.09803279 -0.19538012 -0.002088124 -0.09586847 0.3895894 -0.2199952 0.36793074
-0.03351556 0.07185696 -0.29131413 0.09623757 0.38904837 0.25767586 -0.17377923 0.40353194
0.30292958 -0.33205655 0.43159974 -0.0764838 -0.27451777 -0.083127104 -0.09018844 0.37636203
-0.088346764 -0.17171353 0.0003932063 -0.25798756 0.27717036 0.31380174 -0.14670868 -0.27285367
-0.109812945 -0.27823472 -0.028874494 -0.21927054 0.27919143 -0.4037445 -0.3308974 0.14160235
-0.3166355 -0.16347401 0.1146364 0.19821578 -0.42979744 -0.19984859 0.15676962 0.3345288
0.18944445 -0.3846584 -0.4079908 0.0768837 -0.1201146 -0.29350117 0.19821788 -0.30480716
-0.15224618 0.36905926 0.15643393 -0.21998295 -0.1554494 -0.12834874 -0.1698696 0.11834508
-0.10208094 -0.34580806 0.25436023 -0.031039821 -0.30490443 0.012306458 -0.32136 -0.15449272
-0.2879859 0.0332845

layers.2.weight f4 [250, 250]
00000000: 9fee 4b3c ef6a 7ebd de2a 5b3d 8c7c 4c3d
00000010: f6f9 503d 9c49 eebc 5873 7abd c95e 12bd
00000020: 0e7a 1c3d 0d50 5ebb 7710 783d b62a fd39
00000030: 5630 db3b 9d8f 10bd d858 aabc 5ca5 6a3d
00000040: 409a b7bc 4390 3cbd 624f 7b3d 2273 90bc
00000050: ed5c 0f3d e553 6f3c 0490 753d cfd6 883c
00000060: d908 853b 33eb 793c a8e3 3abd 2efe 043d
00000070: 1fae 4bbd ce97 67bd bf31 61bd e356 c1bc
00000080: 1fe1 833c b7be 4fbd 0f8e cd3a a25b 97bc
00000090: f517 293d 8cf6 65bd baab 3c3d 7c3c ff3c
000000a0: f3c5 73bd 56bc 293d 547c 6abd 3f3c 67bd
000000b0: 245c c63b a399 ba3c c38d f6bc ddd5 5cbd
000000c0: 4f46 cabc fc3c f73c 8e76 bcbc e6e8 6abd
000000d0: 7a09 3cbc 63fb 0b3d 008b 7bbd a0a6 843c
000000e0: 3030 1abd ce4a 463c 999f 79bd 23ef 16bd
000000f0: cac3 8e3c 8dc4 42ba 951f 433d 1ede df3b
00000100: 80f7 4abd dc70 20bd 9aa1 5bbb 2684 dfbc
00000110: 2fef 4bbd b992 fe3c ec2d 3a3d 3cea 443d
00000120: 0a87 e53c 967f c83c 8970 d2bb d53e 35bd
00000130: 20b5 303c 4420 a2ba 08fe 7c3d 47dc 093d
00000140: 5b5a 1e39 028b 36bd eff5 d1ba 3ca8 2cbc
00000150: bcad 64bd 3612 a53b 8dc0 62bd 499a 0abd
00000160: 5d72 d23c edcb 6cbd e861 00bd 4fef 57bd
00000170: e741 04bd afde b2bc 4541 a83b 6ad5 2fbd
00000180: a637 103c 447f 39bd f7c5 05bd c995 5fbd
00000190: c7ac 423c 62f7 fc3a ab73 5dbb bf2b e4bc
000001a0: f8b4 023d 6aed 883c de14 3fbb a700 033d
000001b0: c0c6 7bbd 5d2a afbc 3c4c 3e3d b12f a9bc
000001c0: 2634 5e3d 10ba 12bd 69dd ddbc cecc 0a3d
000001d0: 35ba 233b aa8f 653d d8c9 64bd e9b2 3abd
000001e0: cbe8 6cbd 57a4 503d 78bd 1cbc 7ad4 9dbc
000001f0: 472d 08bd 84ed 17bc 688c 3ebd c5ff 8b3c
00000200: 195a c63c 952e f7bc fbcb 7fbd eea4 043d
00000210: 9796 923c ec4d 0fbc 13b7 68bd ede0 03bd
00000220: 43bd 24bd 1b4b afbc 6d7a 103d b60f 80bd
00000230: 83f7 dabc 7073 7bbd 6ed1 02bc bfdf f63c
00000240: 4150 4dbd c3b5 94bc ceb9 463d e498 88bc
00000250: b93f b73c 16ca 3f3d 42c5 9cbb 7528 67bc
00000260: 6e21 fa3c c9fb 84bc 824c 2d3d a851 50bd
00000270: b833 09bd 0240 24bd 5ee6 6d3d b3ab 6bbc
00000280: d9b9 62bd 2db3 6a3d e29c 31bc 11b5 453d
00000290: e5f9 543d cff6 2abc bb86 8ebc c255 563d
000002a0: b934 14bd ba04 d0bc c622 3ebb b248 df3c
000002b0: 6c8d b7bc 1262 2bba 6b64 353d ed26 e53c
000002c0: c758 7c3d 0583 0bbd 80b2 233c 783f 6b3c
000002d0: f22e 92bb 4dfe 2c3d 9e4c 503d 3599 563c
000002e0: bee2 cc3b 92fe 8d3c c8c0 dcb9 a9dc 63bd
000002f0: 4c45 553d 3d98 183c cf8d 8abc 2d2f 133d
00000300: 83f2 2b3d 77a4 3ebd 920b b63b 7477 5d3d
00000310: 7f82 51bc e449 80bd 4f35 edbb ac6e 6a3d
00000320: 72d1 473d 7757 3dbd 8778 b6bc 1e06 433d
00000330: 17c8 78bd 9959 d7bc 7c26 15bd 1f64 19bd
00000340: ab27 73bd 2e7a 0c3d 2d39 303d 55f1 f13c
00000350: 7770 c0ba 7bbb 57bd 0ef7 3f3d 49c3 96bb
00000360: 6cca 14bd cf21 74bd a3aa 523c d955 25bc
00000370: 14df 27bd f268 243c 4685 b8bc e71a 3cbd
00000380: c9de 41bd 6778 ed3c e847 43bc 38fe 713d
00000390: 7525 0c3d 39fe 783d efab e13c 4abc 1f3d
000003a0: d648 1dbd 6b1f 17bd 0b78 68bd 7104 05bd
000003b0: 0c36 5fbd d4b9 b3bb 8e12 15bc 48e6 acbc
000003c0: c6c8 f13b c146 56bd a5eb 083d 7f72 993c
000003d0: e7c4 6e3c ca17 1b3d d259 753d 58bb 323d
000003e0: 2e90 a53c 1d4d 263d 7df8 093d f239 a8bc
000003f0: 87c0 873c 8bf0 d1bc 4c10 14bd 42b1 993b
0.012447028 -0.0621137 0.05350768 0.049923465 0.05101963 -0.029087834 -0.061145157 -0.035734925
0.038202338 -0.0033922226 0.060562577 0.00048287743 0.0066891117 -0.03529321 -0.020794317 0.057286605
-0.02241242 -0.046036016 0.061355002 -0.017633025 0.03500073 0.014607404 0.059951797 0.016703991
0.0040598926 0.01525383 -0.045627266 0.032468967 -0.0497266 -0.056541257 -0.054979082 -0.023601001
0.016098557 -0.05071899 0.0015682596 -0.018476311 0.041282613 -0.05614333 0.04606221 0.03115677
-0.05951495 0.041439377 -0.057247475 -0.05645394 0.0060534645 0.022778338 -0.030096894 -0.053914893
-0.024691729 0.030180447 -0.02300575 -0.057351016 -0.011476869 0.034175288 -0.061411858 0.016192734
-0.03764361 0.012102796 -0.06094322 -0.036849152 0.017427344 -0.0007429801 0.04763754 0.0068318984
-0.04955244 -0.03917013 -0.003351307 -0.027284693 -0.04978865 0.031075822 0.04545395 0.048074946
0.028018493 0.0244749 -0.0064221066 -0.044249374 0.010785371 -0.0012369235 0.0617657 0.03365734
0.00015101714 -0.044566162 -0.0016018728 -0.010538157 -0.05582975 0.0050375713 -0.055359412 -0.033838544
0.025689298 -0.057811666 -0.03134337 -0.052718457 -0.032289412 -0.0218347 0.005134734 -0.042928137
0.00880233 -0.045287386 -0.032659497 -0.054586206 0.011882014 0.00192998 -0.0033790867 -0.027852891
0.031910866 0.01671477 -0.0029156725 0.031983044 -0.06146884 -0.021382505 0.04645942 -0.020652624
0.05424895 -0.035821974 -0.027083116 0.033886723 0.0024982814 0.05604521 -0.055856556 -0.04558078
-0.057839196 0.050937977 -0.009566657 -0.019266356 -0.033246305 -0.009272937 -0.04652062 0.017089734
0.024212884 -0.03017358 -0.06245039 0.03238385 0.017894072 -0.008746605 -0.05681522 -0.032196928
-0.040219557 -0.021398118 0.035273004 -0.062529966 -0.02672935 -0.061389387 -0.007984502 0.030135987
-0.050125364 -0.018153077 0.04851704 -0.016674466 0.022369253 0.046823584 -0.004784257 -0.014108767
0.030533519 -0.016233342 0.04230929 -0.050859123 -0.03349659 -0.040100105 0.058081023 -0.014384198
-0.05535302 0.05729978 -0.010840626 0.04826838 0.05199613 -0.01043482 -0.017398229 0.05232788
-0.036183093 -0.025392879 -0.0029012426 0.027256344 -0.022406302 -0.0006537746 0.04428522 0.027972663
0.061608102 -0.034060497 0.009991288 0.014358394 -0.0044611627 0.042234708 0.050854318 0.013098051
0.0062526157 0.017333303 -0.00042105303 -0.05563036 0.05206804 0.00931364 -0.016913323 0.035933662
0.041979324 -0.046543565 0.0055555785 0.054068998 -0.01278746 -0.062640935 -0.007239021 0.05723445
0.048783727 -0.04622599 -0.022274269 0.047613256 -0.060737696 -0.02628784 -0.036413655 -0.037449
-0.059364002 0.034296207 0.043023277 0.029534021 -0.0014681955 -0.05266903 0.04686647 -0.0046009165
-0.036325857 -0.059602555 0.012858066 -0.010091268 -0.04098423 0.010034787 -0.022524487 -0.045924094
-0.047331605 0.028988076 -0.011918999 0.059080333 0.03421541 0.06078932 0.027547805 0.038997926
-0.03839954 -0.036895197 -0.056755107 -0.03247494 -0.054494902 -0.005484799 -0.009098662 -0.0211059
0.0073786704 -0.05231357 0.033427853 0.018731354 0.014573312 0.037864484 0.059900112 0.043635696
0.020210352 0.040600885 0.033684243 -0.020535443 0.016571296 -0.025627395 -0.036148354 0.00469032

layers.2.bias f4 [250]
00000000: 4c98 48bd 5ffb 003d aed6 493d bd70 5abd
00000010: 6962 2c3d 72b2 04bc bf69 3ebd e5e7 26bd
00000020: c20a 06bd a5dc 17bd e3a4 283d 179a 9cbc
00000030: fb0e 553d c268 51bc 4c1b 16bc fd4f abbc
00000040: 7630 f43a fc50 233c 15c7 4b3c 2f14 303d
00000050: 904f 5f3d 20f6 bebb a17f e1bc 0a7c 943b
00000060: 45de 323d 7dd8 1fbd a1ec 703d eb39 b93c
00000070: 8ecc 80bc bf91 af3b e4cd 3e3d ab66 f13c
00000080: e71a 9fbc f11c babc 293d 47bb 0d86 353c
00000090: f685 623d becc a73c 954f c03c 7c8b 7ebd
000000a0: 3ca7 0c3d 8409 ecbb 781b 723d 1121 4ebd
000000b0: dab0 4abc 252d d4bc befb 15bd ddf8 adbc
000000c0: aff5 8cbb e591 9fbc a02d 733d 739e 6e3d
000000d0: dabb f73c 7dfb 70bd 63dd 28bd 1286 2f3d
000000e0: 97d8 7a3d 0e61 fabc 53db 08bc 91bf ebbc
000000f0: f839 0c3d b54e 353d d3e5 45bd cc3b 783d
00000100: 6906 06bc ea37 423d 49d8 e53c 9fed a23c
00000110: 6d22 30bd 2f3a 6e3d 8d8f 9abb 1afe 453d
00000120: ac08 7ebd fa77 583d f908 22bd 82ea 1c3c
00000130: 5bd9 103c 5903 7cbd 5b9e f0bc 449e f13b
00000140: d60b 423d 7c40 20bd 3721 ac3b 372e 1fbd
00000150: f942 41bd dfc5 45bd a434 c33c 9933 e3bc
00000160: 045f bfba 0593 393b 7aa1 c53b 84f4 423d
00000170: 6c7e 78bc 29b9 ca3a b805 453d 0f69 5c3c
00000180: 0dc1 76bc 5abc 6cbd 9274 cbbc e283 30bd
00000190: cd14 e43c 6de4 7b3d bf6f 81bd bc32 6dbd
000001a0: c85f 87bd 2902 713c e56e 583d d959 363d
000001b0: e6fa 373c 8310 5e3d f90e a23c 2ea1 f6bc
000001c0: 566e 39bd 5cba 43bc 8137 99bc 57dd 2cbd
000001d0: a788 143c 168d 6ebd 7663 87bd d510 233b
000001e0: 77a5 ab3c 4b16 56bd 344c 483d 9bbe 82bc
000001f0: 7148 d13c aa0d 43bd 7b41 2ebc 5b52 5bbd
00000200: 250a e83c cf4c 4d3d 6438 10bd e7d1 933c
00000210: 1e6c 4f3d cd6b 54bc 8937 aebb 063f 95bb
00000220: 9e8a 3bbd 1627 19bd 31e3 3cbd 1cd3 65bd
00000230: 30d1 0fbd bcfe 5c3d 3dc1 17bd ff46 813c
00000240: 3442 5cbd f89f 59bd e68b 24bd dece 3fbd
00000250: 5c69 f9bc cb59 a9bb b964 c0bb 3462 7e3d
00000260: ed47 5bbd 0996 583d 9ea2 583d 905f 053d
00000270: 83e5 08bc 5837 1abd 73f5 8e3d 4e91 e83c
00000280: 9ae0 113c 9bae d33c 8bba 7bbc d33a b9bc
00000290: 2120 ba3c 7a3c 3d3c e4a0 e43c 346d 7fbb
000002a0: 8727 7e3d 00d3 473d 5333 3bbd 4a25 33bd
000002b0: c14c 183d ea69 41bd 4a2a 553d 657b 1bbd
000002c0: 81ac 1fbc 090d 653c 41e6 3abd 7171 a73c
000002d0: eb67 61bd b530 fabc 0382 273d f582 233d
000002e0: 7df3 073d aa57 203d 2611 5d3d 3810 12bd
000002f0: 9d9b 363d d74f 4d3d f56d bcbc bc32 1f3d
00000300: d056 ac3c 9352 e3ba 53a0 21bd a9f1 10bd
00000310: 8e73 5d3d f7bf 4dbd b9eb 66bc 91d7 04bd
00000320: c8c3 79bd 81c4 14bb 64da 70bd baf2 36bd
00000330: 7865 213d c119 fa3c 905e c93c 5b22 31ba
00000340: 660e 793d 0198 92bb 0dd6 5e3d 7929 df3c
00000350: 85d2 6bbd 07d4 ca3c bf34 0a3d f55f 06bd
00000360: 68a8 f33c e0a9 83bc 1974 7ebd 91fa 0abc
00000370: 6af6 f2bc f382 903c 03ad 0b3c c81d e0bc
00000380: 7b6c 9a3b 40e6 35bd 8d1f 0cbd 58bf 6f3d
00000390: fea8 18bc c4b4 153d 9b3c 463d 74b3 283d
000003a0: 6db4 343d 4558 05bd 02f3 773d f0b3 ea3b
000003b0: f980 89bd 4d80 45bd c8c8 7f3c d708 593d
000003c0: 57b2 e03b d5e5 1e3d 19b4 d8bc 9fa4 5b3c
000003d0: 8126 e03c 468c 343d f256 36bc bfc6 58bd
000003e0: 57cd f53c 6d83 8d3c
-0.048973367 0.031489726 0.049277 -0.05333017 0.04208604 -0.008099185 -0.046487566 -0.040748496
-0.032725103 -0.037075657 0.041172873 -0.019116445 0.05201624 -0.012781324 -0.0091617815 -0.020912165
0.0018630165 0.009968039 0.012437602 0.042988 0.054519236 -0.00582768 -0.027526679 0.004531388
0.043669004 -0.03902482 0.058819417 0.022610625 -0.01572254 0.0053579505 0.04658307 0.029467901
-0.019422008 -0.022718878 -0.0030401445 0.0110793235 0.055303536 0.02048337 0.023475448 -0.06214474
0.034339175 -0.007203283 0.059108227 -0.050324503 -0.012371266 -0.025900433 -0.036617033 -0.021236831
-0.0043017487 -0.019478748 0.059369683 0.058256578 0.030240942 -0.058833588 -0.041226756 0.04285247
0.061241712 -0.030563857 -0.008353072 -0.02877787 0.03423497 0.044264514 -0.04831488 0.0606039
-0.008180239 0.047416605 0.028057234 0.019888697 -0.04300158 0.058160957 -0.0047168196 0.048338033
-0.06201999 0.052848794 -0.03955934 0.009577395 0.008840884 -0.06152663 -0.029372385 0.007373603
0.04737457 -0.039123997 0.005252983 -0.038862433 -0.04718301 -0.048284408 0.023828812 -0.027734565
-0.001460046 0.002831639 0.0060312124 0.04759647 -0.01516686 0.0015466559 0.048101157 0.013452782
-0.015060675 -0.057796814 -0.024835858 -0.043094523 0.02784195 0.06149714 -0.06320142 -0.057909712
-0.06610066 0.014709988 0.052840132 0.04451928 0.011229252 0.054214966 0.01978253 -0.030106153
-0.04527124 -0.011946287 -0.018703224 -0.042203274 0.009065784 -0.05824002 -0.066107675 0.002488186
0.020952923 -0.052267354 0.048900798 -0.015960028 0.025547238 -0.047620453 -0.010635729 -0.053545337
0.02832515 0.05012208 -0.03521003 0.018044425 0.050640218 -0.012965155 -0.005316679 -0.004554632
-0.045786493 -0.03739079 -0.046115104 -0.056109533 -0.035111606 0.05395387 -0.03704952 0.015780924
-0.053774074 -0.053131074 -0.04017248 -0.046828143 -0.030445747 -0.005168175 -0.005871382 0.062105373
-0.05353539 0.05287746 0.05288946 0.03256184 -0.008355501 -0.037650436 0.069804095 0.0283896
0.008903647 0.025840094 -0.0153642995 -0.022611057 0.022720398 0.011550063 0.02790875 -0.0038975002
0.062049415 0.04878521 -0.045703243 -0.043736733 0.037182573 -0.04722015 0.052042283 -0.037959475
-0.009745718 0.013980159 -0.045629743 0.020439835 -0.055030745 -0.030540803 0.040895473 0.039919812
0.033191193 0.039146103 0.053971432 -0.03566 0.044582 0.05012497 -0.02300165 0.038866743
0.02103749 -0.0017343335 -0.039459538 -0.035386715 0.05406528 -0.0502319 -0.014094287 -0.032432143
-0.060977727 -0.0022700133 -0.058802024 -0.044665076 0.03940341 0.030529859 0.024581224 -0.00067571335
0.060804747 -0.0044736867 0.054403353 0.027241455 -0.057573814 0.024759306 0.03374171 -0.032806356
0.029743388 -0.016072214 -0.062122438 -0.008482591 -0.029658515 0.017640566 0.008525136 -0.02735795
0.004712639 -0.044409037 -0.034209777 0.05853209 -0.009317635 0.036549345 0.04839764 0.041186765
0.04411738 -0.032554884 0.060534485 0.0071625635 -0.06714053 -0.04821806 0.015611835 0.052986946
0.0068571973 0.038793404 -0.026453065 0.013405948 0.02736211 0.044079088 -0.011129128 -0.052923914
0.03000514 0.017274583

layers.4.weight f4 [1, 250]
00000000: 53db d63b 54f3 f43b 49fd 013e e7be 6cbc
00000010: 2d9e a8bd 25fb 62bb 6d7c 46bd 7f02 41bb
00000020: 7cac 89bc 6121 0d3d f074 b23d 89e2 873c
00000030: 02fd 0b3d e385 1cbd 55b7 053d cf2e 8d3c
00000040: 1e4a 9ebc 427a 163d 78e6 52bc ac03 81bd
00000050: 1901 b8bc f979 903d ee95 74bc 0070 36bd
00000060: 8a43 a83c 9840 5d3d adfa f33c e191 9fbd
00000070: 892e 463d dff2 7e3d 2c04 f3bb 16ac ca3d
00000080: e3db d13d b3d0 223d ea71 743d 0a37 093d
00000090: f537 ac3c afd9 643d 9361 b43d 2d5f 20bb
000000a0: 8d37 533d a6bf ba3d d6d4 3d3c da4c a63c
000000b0: 3bac af3d 7bdf 16bd 7f2f 253d ae30 f03c
000000c0: b89d 84bb 349a 61bd e4cb a63c 6ec9 803d
000000d0: 1da8 79bc 65e5 8d3d 21a4 f63c 41ea 1d3d
000000e0: 5659 54bd bac1 683d 9705 25bd 2fb1 79bc
000000f0: bcde b4bc 3a4e 483d 2ced e4bb f552 45bd
00000100: acf7 573d 3473 ecbb 93ae 1dbd ec84 9a3d
00000110: b152 37bc aa3d 76bd 0434 233d 1c4e 93bd
00000120: 7c9a 823d 034f a53d 1ccd 29bc d35e 0cbd
00000130: b00b 39bd 8dca 9a3d 9efc c8bb 32d0 94bc
00000140: db62 11bd d13d 8a3d e3cd 8ebc 6e41 413b
00000150: 6974 9bbd 8daf f53c 70d1 c6bc bb4c 6e3c
00000160: 3805 53bc 49a3 ea3c c33b 443d c9da bb3d
00000170: b940 92bc e233 9fbd 2539 7a3a 3787 09bd
00000180: cbe0 763d f35a 693c 765b 35bc c711 803c
00000190: a46c 1cbc 4d78 953c 8d90 dc3c 78a8 eebc
000001a0: dc00 4c3d f031 e43c 506f 903c 2e33 1cbd
000001b0: 1f8c 08bc ab09 313d 0e62 9c3c 3ffc 3ebd
000001c0: 1e35 44bc 78e8 193c b4fc 2e3b 47ae 063d
000001d0: c020 163c 907e c0bc 6803 e8bc 6923 3a3d
000001e0: e297 a4bc ac40 7c3c 1dcf 113d cd9a 24bd
000001f0: a3cc e8bb d371 76bd 7575 063d bddb aebc
00000200: e799 e4bc f12f 07bd f9db 9a3d 6f9f a5bd
00000210: 24f2 353a 5877 803d a743 333c b713 acbc
00000220: b242 b23b 9d51 b0bc b5bd 3e3d fed8 eb3a
00000230: c387 cf3c 3410 0dbd 1dda ff3d 733d c4bc
00000240: 53c1 91bc 49ca 9abc 49df 993d e4fa ef3d
00000250: e612 fa3c 02f1 993c 686f 413d 2be2 853a
00000260: c493 25bd fde1 47bd d732 233e f8fa 863d
00000270: d56e ebbc 81f7 443d 7fa4 a6bd dca1 44bd
00000280: 1763 193d fe35 563d 851c 0639 10fc 853d
00000290: 3d2b 15bc 1673 513c 1acc 8e3d 3291 78bd
000002a0: 0c50 87ba bb8d 113d a0c3 70bc 3242 503d
000002b0: f781 eabc f2cc 78bd accc a43d 18f7 0bbd
000002c0: e678 88bd c4a0 8a3c abb0 2d3d 4efc a73c
000002d0: 9e2c e0bc c78e 993d 8c92 a3bb 8aeb 38bd
000002e0: 4540 95bd 6e97 263c 049d 4b3b e5df 593d
000002f0: 4b6f 24bd c807 d23c d7ae 01bd fa41 0e3d
00000300: 7f1e 3dbd 532f d73d d926 a1bd 3008 063d
00000310: 5f57 343d ad61 80ba 5ab5 7c3d 8e96 ec3c
00000320: 65d5 513d 7bc5 80bc 586f a9bd 9788 cd3c
00000330: 8bb5 a9bd 3a0f 313d 584d 34bd 4948 7dbc
00000340: 2374 e13c ee98 dd3d d41d 4bbe 43f2 923c
00000350: e7d6 813c 8bf9 823d 51ad 413d 5939 b0bb
00000360: 59a6 883d eac4 76bd 396e 5e3d 6447 1abb
00000370: e052 193c 6656 843d cb96 d33c d530 ffba
00000380: 54f3 743d cace a63d 50c7 8ebc 47e7 f2bc
00000390: 9e2d cc3d 916e 793d 5a69 203c 9c90 23bd
000003a0: d3d5 d5bb ace7 aebb 963f 63bd ad3d 213d
000003b0: f073 d23d ce65 083e 2845 5d3d 3182 1dbd
000003c0: ad61 68bd 1e7c 3cbd a24d 523d d7c2 0ebd
000003d0: 0ece 583d 6163 c73d 2f37 ea3b b26e 78bd
000003e0: 988e c93b 5beb ab3c
0.006556907 0.007475296 0.12694277 -0.014449812 -0.08233295 -0.0034634557 -0.048458505 -0.002945095
-0.01680588 0.03445566 0.0871371 0.016587513 0.034176834 -0.03821362 0.032645542 0.017234234
-0.019322451 0.036737688 -0.012872331 -0.062995285 -0.02246146 0.070545144 -0.014928324 -0.044540405
0.020540018 0.05401668 0.029782617 -0.07791496 0.048384223 0.06224334 -0.007416269 0.09896104
0.10247018 0.039749812 0.05967895 0.033499755 0.021022776 0.05587166 0.08807673 -0.0024470792
0.05156665 0.09118585 0.011586389 0.020300318 0.08577772 -0.03683422 0.0403285 0.029320087
-0.004047122 -0.0550787 0.020360895 0.0628842 -0.015237835 0.06928519 0.03010756 0.03855348
-0.05184301 0.056825377 -0.040288534 -0.015239998 -0.022078864 0.048902728 -0.006986281 -0.048174817
0.052726433 -0.0072158817 -0.038496565 0.07544884 -0.011189149 -0.0601174 0.039844528 -0.071926326
0.06377122 0.08071711 -0.010363843 -0.03427012 -0.04517716 0.07558165 -0.00613363 -0.018165682
-0.035494667 0.06750072 -0.017432159 0.0029488462 -0.07590563 0.029990936 -0.02426979 0.014544661
-0.012879662 0.028642314 0.047908556 0.09172589 -0.017853128 -0.07773568 0.00095452584 -0.033576217
0.060272973 0.014242875 -0.011069169 0.015633477 -0.009547386 0.01824584 0.026924396 -0.029133067
0.049805507 0.027855843 0.017631203 -0.038134746 -0.008334189 0.04322211 0.019089725 -0.04662728
-0.011975555 0.009393804 0.0026700916 0.032881048 0.009163082 -0.02349785 -0.028321937 0.045443926
-0.020091955 0.015396278 0.03559791 -0.040186692 -0.0071044727 -0.060167145 0.03282686 -0.021345014
-0.027905418 -0.033004705 0.07561488 -0.0808705 0.0006940684 0.06272763 0.010941423 -0.021005495
0.0054400796 -0.021523291 0.046567637 0.0017993746 0.02533329 -0.03443928 0.12492774 -0.023955083
-0.01779238 -0.018895285 0.075132914 0.117177755 0.03052659 0.01879168 0.047225386 0.0010214498
-0.040424123 -0.048799504 0.15937363 0.06590837 -0.028739372 0.0480876 -0.08136844 -0.048005924
0.037448015 0.052297585 0.0001278986 0.06542218 -0.009104547 0.012783786 0.06972523 -0.060685344
-0.0010323538 0.035535555 -0.014695078 0.05084438 -0.028626425 -0.060742326 0.080468506 -0.034171194
-0.066636845 0.016922362 0.04240481 0.02050605 -0.027365025 0.07497936 -0.004991835 -0.045146503
-0.07287649 0.01016794 0.003106893 0.053192038 -0.0401452 0.025638476 -0.03166088 0.03473089
-0.04617166 0.10507073 -0.07868738 0.032722652 0.044028636 -0.0009794735 0.061696388 0.028880384
0.0512289 -0.015719166 -0.0827319 0.025089545 -0.0828658 0.04322741 -0.044019073 -0.015459129
0.027521199 0.10820185 -0.19835597 0.017937785 0.015849544 0.06395253 0.047284428 -0.00537793
0.06672353 -0.060246386 0.054304335 -0.0023541087 0.009358138 0.06461792 0.02582874 -0.0019469509
0.05980237 0.08144911 -0.017429024 -0.029651297 0.09969638 0.06089646 0.009790743 -0.039932832
-0.006525734 -0.005337676 -0.055480562 0.03936546 0.102760196 0.13320085 0.05402103 -0.03845424
-0.056733776 -0.046016805 0.051343568 -0.034853783 0.052930884 0.09735752 0.0071476917 -0.060652442
0.0061510317 0.02098625
