model/results/skew-skew/mean-e10000/50-50-SGD-tanh-0.001-50-e10000-mean.pt (torch, 14199 bytes, 5 tensors)

layers.0.weight f4 [50, 5]
0	0x3e09107b	0.13385193
1	0xbd7c725d	-0.061632503
2	0xbe3a1612	-0.18172482
3	0x3e12eea3	0.14348845
4	0x3ec042c1	0.3755093
5	0x3e8575aa	0.26066333
6	0xbec30114	-0.3808676
7	0x3e042f1c	0.12908596
8	0xbec76325	-0.3894283
9	0x3e94ca0c	0.290604
10	0x3b969a31	0.0045960178
11	0xbe3cf797	-0.18453823
12	0xbe290268	-0.16504824
13	0x3d399cd0	0.045315564
14	0x3e9daa48	0.30793977
15	0xbdda170d	-0.10648928
16	0x3e7e2360	0.24818182
17	0xbe25d17d	-0.16193195
18	0xbe616767	-0.22012101
19	0xbdeb748e	-0.114968404
20	0x3e077adb	0.1323046
21	0x3d9e77c8	0.0773769
22	0x3e72c950	0.23709607
23	0x3e8f7cf7	0.28025028
24	0x3e919928	0.2843716
25	0x3ea6dfcc	0.32592618
26	0x3e25cc10	0.16191125
27	0xbeec9c11	-0.4621282
28	0x3e737296	0.2377418
29	0x3e582809	0.21109022
30	0xbe878538	-0.26468825
31	0x3e5bffa0	0.21484232
32	0xbe681b94	-0.2266677
33	0x3e885a4c	0.2663139
34	0x3e28273e	0.1642122
35	0xbee7b905	-0.45258346
36	0xbd0668ef	-0.032814916
37	0x3ea78399	0.3271759
38	0xbe6fa4c7	-0.23402701
39	0xbeaf7c08	-0.34274316
40	0x3d1bf95f	0.038079616
41	0xbe0a7e90	-0.13524842
42	0xbee68d03	-0.45029458
43	0xbd5f225c	-0.054476127
44	0x3e7cba38	0.24680412
45	0x3d92b4ce	0.07163392
46	0xbe4a8a12	-0.19779232
47	0xbe53c558	-0.2068075
48	0x3e22dbef	0.1590421
49	0xbeb302ec	-0.34963167
50	0xbc75c1d4	-0.0149998255
51	0x3e2842e8	0.16431773
52	0x3eacb828	0.3373425
53	0x3e29ae09	0.16570295
54	0xbd9e0a9d	-0.07716868
55	0x3ef63762	0.4808913
56	0xbe22d2d2	-0.15900734
57	0x3e3a00cc	0.18164366
58	0x3ea065bf	0.31327626
59	0xbe57c81f	-0.21072434
60	0x3e9cbf86	0.3061487
61	0x3e0cc88c	0.13748378
62	0xbe9c54a4	-0.30533326
63	0x3c0273c3	0.00796217
64	0xbe86f22c	-0.26356637
65	0x3e8be236	0.27321023
66	0xbd74bf5a	-0.0597528
67	0xbe71f72d	-0.23629446
68	0xbe89bce9	-0.2690194
69	0xbdf4c6bc	-0.11951968
70	0x3d82d2d7	0.06387871
71	0x3cd4d7ba	0.025981773
72	0xbe760ad9	-0.24027576
73	0x3e9ca6b7	0.30595943
74	0x3ca31d4c	0.01991143
75	0x3d7ee503	0.06223012
76	0x3e0c7966	0.13718185
77	0xbdc43df7	-0.09582131
78	0xbd88dcd0	-0.06682742
79	0x3eb2ea8b	0.34944567
80	0xbea566c0	-0.32304955
81	0x392fa641	0.00016751235
82	0xbe3884cd	-0.1801941
83	0x3e882475	0.26590315
84	0x3e801ff5	0.2502438
85	0xbef9d3f9	-0.48794535
86	0xbeadb67e	-0.33928293
87	0x3d0dc886	0.034615062
88	0xbf035630	-0.51303387
89	0x3ed18a8d	0.40926018
90	0xbe8e2356	-0.27761334
91	0x3e511012	0.20416287
92	0x3eb74794	0.35796797
93	0x3e27f7bc	0.16403097
94	0xbdf6b11c	-0.120455
95	0x3c747911	0.014921443
96	0x3ee84041	0.45361522
97	0x3e4ca9a2	0.19986585
98	0x3dfb47c2	0.12269546
99	0x3e3202a4	0.1738382
100	0x3d0d90f8	0.03456208
101	0xbe08235a	-0.13294736
102	0x3e8f5355	0.27993265
103	0xbc4602b1	-0.012085603
104	0x3dbdbf10	0.09264958
105	0xbdd22510	-0.10260975
106	0xbe897a87	-0.26851293
107	0xbe813088	-0.2523234
108	0xbea4af98	-0.32165217
109	0xbd7e2aab	-0.06205241
110	0x3eb72dd0	0.3577714
111	0xb984675b	-0.00025254008
112	0x3cd2d274	0.025735117
113	0xbde6d330	-0.112707496
114	0x3e57dad8	0.21079576
115	0xbd59a9c9	-0.053140435
116	0x3de1bc7b	0.11022278
117	0xbeeb2a54	-0.4593073
118	0x3e97ee38	0.29673934
119	0xbe98472d	-0.29741803
120	0x3ecec36b	0.40383467
121	0xbe701e77	-0.23449121
122	0xbe86dae3	-0.26338872
123	0x3e9b1bbb	0.30294594
124	0x3ec434da	0.38321573
125	0xbe952f27	-0.29137537
126	0xbe585520	-0.21126223
127	0xbe2f2a89	-0.1710607
128	0x3e697a71	0.22800614
129	0xbe136baf	-0.14396547
130	0xbe930d20	-0.2872095
131	0xbe232438	-0.15931785
132	0xbde1906c	-0.110138744
133	0x3ed13a57	0.40864822
134	0xbe93cd29	-0.28867462
135	0xbea81286	-0.32826632
136	0x3eba248e	0.36356014
137	0xbe10e451	-0.14149596
138	0xbc8b0ecf	-0.016974835
139	0xbec2406a	-0.3793977
140	0xbec6cd6f	-0.38828608
141	0x3e903175	0.28162733
142	0x3ec60ada	0.38680154
143	0x3ea6573d	0.32488433
144	0x3da1733a	0.07883306
145	0xbe4f91aa	-0.2027041
146	0xbe5e9975	-0.21738227
147	0x3e45ef20	0.193295
148	0x3eadebe7	0.33969042
149	0x3ebde492	0.37088448
150	0x3e44deb0	0.19225574
151	0xbe36c7be	-0.17849633
152	0x3ee0cf4b	0.43908152
153	0x3bb54eda	0.0055330815
154	0x3ddda824	0.10823086
155	0xbeb0b02e	-0.34509414
156	0x3e7eb02d	0.24871893
157	0x3ea79beb	0.32736143
158	0x3e82e9ad	0.25568905
159	0x3ed53731	0.4164367
160	0x3ec66ed9	0.38756445
161	0x3e797714	0.24361831
162	0x3cb168f4	0.02165649
163	0xbee9f24f	-0.4569268
164	0x3ea85a36	0.32881325
165	0x3e76aff9	0.24090566
166	0xbe8e2cb1	-0.27768472
167	0xbebea14a	-0.3723243
168	0x3e5b65f1	0.21425606
169	0xbeb80074	-0.35937846
170	0x3eebf009	0.4608157
171	0x3dc6669c	0.0968754
172	0x3e7d119a	0.24713746
173	0x3ec092a6	0.37611884
174	0x3e152a7d	0.14566989
175	0xbec4c079	-0.38428095
176	0x3e74da3d	0.23911376
177	0x3e2d4412	0.16920498
178	0x3dc94903	0.09828379
179	0x3eda10b8	0.4259088
180	0x3e04f17b	0.12982742
181	0xbe531079	-0.20611753
182	0x3e1ccf54	0.15313464
183	0x3bbfb98a	0.0058509754
184	0xbdb8a210	-0.09015286
185	0x3e73693e	0.23770615
186	0x3c543308	0.01295162
187	0x3ed36039	0.4128435
188	0xbe0cbf93	-0.13744955
189	0x3e917134	0.2840668
190	0xbe494025	-0.19653375
191	0x3e1b4c98	0.15165937
192	0xbd448e01	-0.047986988
193	0xbecc108c	-0.39856374
194	0x3e74082f	0.23831247
195	0xbe96759d	-0.29386607
196	0xbde65bd9	-0.11247987
197	0xbe2964aa	-0.16542307
198	0xbe8d0ced	-0.27548924
199	0xbe8e4b1e	-0.27791685
200	0x3e8c3212	0.2738195
201	0xbd8fcb13	-0.07021155
202	0x3d3574c6	0.044300817
203	0xbdf61f69	-0.1201771
204	0x3eaead9a	0.34116822
205	0x3ec4a28e	0.3840527
206	0x3e253462	0.16133264
207	0xbebe99a0	-0.37226582
208	0x3e92194d	0.28534928
209	0xbe58c43a	-0.21168604
210	0x3e8d86d0	0.27641916
211	0xbd7e259b	-0.062047582
212	0xbd142d12	-0.036175795
213	0xbe2c7f36	-0.16845402
214	0xbe4cf875	-0.20016654
215	0xbebc8cde	-0.36826223
216	0xbda72d91	-0.08162988
217	0x3e94de92	0.29076058
218	0xbef51511	-0.47867635
219	0x3eb04cc1	0.3443356
220	0xbddab41b	-0.10678884
221	0xbb97ec7a	-0.0046363445
222	0xbd0efdd4	-0.034910038
223	0x3e9f5afb	0.311241
224	0xbea78fcd	-0.327269
225	0xbdd8b2bf	-0.10580968
226	0x3c1b13ad	0.00946514
227	0x3ee324e9	0.44364098
228	0xbe24ad07	-0.1608163
229	0x3e3ab207	0.18231975
230	0x3e0e4424	0.13893181
231	0x3e18d5e5	0.14925344
232	0x3e226fe9	0.15863003
233	0xbe710ccc	-0.23540038
234	0x3d7abb1b	0.061213594
235	0x3d8ae5ea	0.06782134
236	0x3eb7c897	0.35895225
237	0x3dd788c2	0.10524131
238	0xbe6d51aa	-0.23175684
239	0x3e8e5cab	0.27805075
240	0xbd8fcebd	-0.07021854
241	0x3ebcb104	0.36853802
242	0x3ea62702	0.32451636
243	0x3c8f5308	0.017495647
244	0xbedc1eec	-0.42992342
245	0x3d059b16	0.032618605
246	0x3d4914e4	0.04909219
247	0xbedf1f20	-0.43578434
248	0xbd1a4c54	-0.03767045
249	0x3e650fb1	0.22369267

layers.0.bias f4 [50]
0	0xbed9c976	-0.42536515
1	0x3e06ebbb	0.13175862
2	0xbd585884	-0.05281879
3	0xbeb7a1f4	-0.35865748
4	0xbe686ee2	-0.22698548
5	0x3ea9f7b2	0.3319679
6	0x3e81c816	0.25347966
7	0xbc83e119	-0.016098546
8	0x3ee27f17	0.44237587
9	0x3ef0788f	0.4696698
10	0x3edc04fe	0.4297256
11	0x3e7f29e8	0.2491833
12	0xbe4f542d	-0.20246954
13	0xbe80c103	-0.25147256
14	0xbe3a7a9c	-0.18210834
15	0xbda80558	-0.08204144
16	0x3e4b8084	0.19873244
17	0xbea28256	-0.31740063
18	0x3eb5d17b	0.35511383
19	0x3ea3cbb2	0.31991345
20	0x3e9dfeb6	0.30858392
21	0xbd7b5d22	-0.061368115
22	0x3e1a3d03	0.15062337
23	0x3e88426b	0.26613173
24	0x3ecfe8a7	0.40607187
25	0xbe630157	-0.2216848
26	0x3eb852e7	0.3600075
27	0xbe47fce5	-0.19530065
28	0x3d43cbde	0.047801845
29	0x3c4c30df	0.012462824
30	0xbed2c097	-0.4116256
31	0xbed0dfae	-0.40795654
32	0x3eb2d3a1	0.34927085
33	0xbc5e8daa	-0.01358358
34	0x3c02efc7	0.007991738
35	0x3e8470d2	0.25867325
36	0x3dd6fb77	0.10497182
37	0xbdadf4d6	-0.084939644
38	0x3ebd67ec	0.3699335
39	0x3e5d06c5	0.21584614
40	0xbd074618	-0.03302583
41	0xbe8d0293	-0.27541026
42	0x3dde1ee8	0.10845739
43	0xbe665b73	-0.22495823
44	0x3e9bae54	0.3040644
45	0xbe500a30	-0.20316386
46	0x3e0a228c	0.13489741
47	0xbee2bc3e	-0.44284242
48	0xbd6674d6	-0.056263767
49	0x3e6ea34b	0.23304479

layers.2.weight f4 [50, 50]
0	0xbdec6bec	-0.11544022
1	0xbcf00882	-0.029300932
2	0xbdae0bd8	-0.08498353
3	0x3db6f91b	0.08934232
4	0xbbaf6289	-0.0053523225
5	0xbc588c36	-0.013217023
6	0xbd59d166	-0.053178214
7	0x3df5f362	0.12009312
8	0x3d4e7bee	0.050411157
9	0xbdfc9d1e	-0.12334655
10	0x3da96269	0.082707234
11	0xbe7c912f	-0.24664758
12	0x3da3715f	0.07980608
13	0x3df0534f	0.1173464
14	0xbd4ffd88	-0.050778896
15	0xbda2ef69	-0.0795582
16	0xbc9517cc	-0.018199824
17	0x3dce33bc	0.10068461
18	0x3db238de	0.08702253
19	0xbdc13038	-0.09433025
20	0x3d79c09a	0.060974695
21	0x3e066b52	0.13126877
22	0x3d825aee	0.06365
23	0xbdbb952b	-0.09159311
24	0xbe440e36	-0.19146046
25	0x3d348463	0.044071566
26	0xbd3d82d3	-0.04626734
27	0xbd9040ce	-0.070436105
28	0xbcda41d4	-0.026642717
29	0x3da5498a	0.08070667
30	0x3d4a131a	0.049334623
31	0xbca999a8	-0.020703152
32	0xbd5c0241	-0.053713087
33	0xbc0f56c6	-0.008748716
34	0xbe17c4f4	-0.14821225
35	0x3c203c83	0.009780052
36	0x3d8dbc4f	0.06920683
37	0xbd85bc7b	-0.065300904
38	0x3dc00fe1	0.09378029
39	0x3dcb6e19	0.09933109
40	0xbdcfb367	-0.1014164
41	0x3ce47209	0.027886407
42	0xbe213013	-0.15740995
43	0x3d853a6f	0.06505286
44	0xbdc20148	-0.09472901
45	0x3e1fd287	0.15607654
46	0x3da11502	0.07865335
47	0xbc8c2878	-0.01710914
48	0x3be58b64	0.007005142
49	0x3d68c2d0	0.056826413
50	0xbdce9a9e	-0.10088085
51	0x3bd1e85b	0.0064058728
52	0xbbfc910d	-0.007707721
53	0xbe17bc45	-0.14817913
54	0x3c7901a3	0.015198144
55	0x3d939ae5	0.07207278
56	0xbdbf6fc6	-0.09347491
57	0xbdaa90d8	-0.08328408
58	0xbe037d12	-0.1284068
59	0xbdd5ceb6	-0.104398176
60	0xbdc2bb47	-0.095083766
61	0x3c105bfd	0.008810994
62	0x3daa0724	0.08302143
63	0x3d1840cf	0.03717118
64	0xbd90a800	-0.070632935
65	0xbe0b803b	-0.13623135
66	0xbd6200a9	-0.05517641
67	0x3d548364	0.051883116
68	0xbd65ea35	-0.05613156
69	0x3df96194	0.12176815
70	0x3e0d9eb9	0.13830079
71	0x3da6a5ec	0.08137116
72	0x3dda3b7e	0.106558785
73	0xbca99360	-0.020700157
74	0x3dceae71	0.10091866
75	0x3c8cddfd	0.017195696
76	0x3daceaa1	0.084431894
77	0xbe05dec8	-0.13073266
78	0x3e0b619b	0.13611452
79	0x3cbc31b2	0.022972915
80	0xbd9c62af	-0.0763601
81	0xbbc13e28	-0.005897302
82	0x3dc0e689	0.09418971
83	0x3d8eaf96	0.06967084
84	0x3c08766d	0.008329016
85	0x3ca09dc8	0.019606486
86	0xbd4f6181	-0.050630096
87	0xbdc9d864	-0.09855726
88	0xbd9eace3	-0.07747819
89	0x3d190c8d	0.037365485
90	0x3d39f268	0.045397192
91	0x3d83a068	0.064270794
92	0xbdfd4383	-0.123663925
93	0xbce9807b	-0.028503647
94	0x3c52ce5b	0.012866582
95	0x3dc2ef18	0.0951826
96	0x3e184d54	0.14873248
97	0x3dd7397a	0.1050901
98	0xbba4ba23	-0.005027072
99	0xbd5eb0da	-0.054367878
100	0xbd5a9324	-0.05336298
101	0xbe0444a7	-0.12916814
102	0x3d817881	0.063218124
103	0xbd19bbf4	-0.03753276
104	0x3cb5fa17	0.022213979
105	0x3d11bea0	0.035582185
106	0x3d6be5ef	0.05759233
107	0x3d10c0f2	0.035340257
108	0xbd96c3d0	-0.07361567
109	0x3cdf0d3e	0.027227994
110	0x3d2b7e4f	0.041868504
111	0x3db01cd8	0.085992515
112	0xbdd9daf7	-0.10637467
113	0xbdb540dc	-0.088502616
114	0xbdd5eeaa	-0.10445912
115	0x3caaa36c	0.020829879
116	0xbdaef670	-0.08543098
117	0xbd585d98	-0.052823633
118	0x3d9ddca1	0.07708097
119	0x3dae435a	0.0850894
120	0xbac8f9c9	-0.0015333231
121	0xbcfe0867	-0.031009866
122	0xbdbde97e	-0.09273051
123	0xbe05b96a	-0.13059011
124	0xbd275499	-0.040852163
125	0x3e048a7f	0.12943457
126	0xbd07bdb3	-0.033139896
127	0x3e08bb26	0.13352641
128	0x3d0fd047	0.035110738
129	0x3ca789e5	0.020451495
130	0x3dffc9f4	0.124896914
131	0xbd073834	-0.033012584
132	0xbcb02e03	-0.021506315
133	0xbded243b	-0.11579176
134	0xbddff225	-0.10934857
135	0xbd52eb38	-0.051493853
136	0x3dd703cb	0.1049877
137	0xbda50e70	-0.08059394
138	0xbd570141	-0.05249143
139	0x3ce33e36	0.027739625
140	0x3db301a4	0.08740547
141	0xbdc21c54	-0.094780594
142	0xbd9cafc8	-0.07650715
143	0xbd708009	-0.058715854
144	0xbda7db5f	-0.081961386
145	0x3df42b58	0.1192233
146	0xbcd222c8	-0.02565135
147	0xbd1bd926	-0.038048886
148	0x3d7b7d6d	0.061398912
149	0xbcab24e0	-0.020891607
150	0x3d584bb8	0.052806586
151	0xbcfe4bad	-0.031041944
152	0x3d9e9315	0.077428974
153	0x3d50ec1f	0.051006433
154	0xbd5e11c4	-0.05421616
155	0xbdbd9223	-0.09256389
156	0x3d5aff7c	0.053466305
157	0x3daa55eb	0.08317169
158	0xbd473ed8	-0.048643917
159	0xbdaab1fc	-0.08334729
160	0x3de3b992	0.11119379
161	0x3dbaf98a	0.09129627
162	0x3c900003	0.01757813
163	0x3d23c60b	0.03998379
164	0x3de69c64	0.11260298
165	0x3de5fcf4	0.112298876
166	0x3d34aedf	0.044112083
167	0x3ca404dc	0.020021848
168	0x3db313fa	0.087440446
169	0xbe09d440	-0.13459873
170	0xbd42db90	-0.047572672
171	0x3e032770	0.12808013
172	0x3dde5e61	0.10857845
173	0x3de61922	0.112352625
174	0xbbf56a5e	-0.0074894866
175	0xbde7eec1	-0.113248356
176	0x3d31a33f	0.043368574
177	0xbbf45eab	-0.0074575744
178	0xbdde24ae	-0.1084684
179	0x3dff3c1e	0.12462638
180	0xbdcc704a	-0.09982355
181	0xbb43e058	-0.0029888358
182	0xbd83adfc	-0.06429669
183	0xbd6d83d0	-0.057987034
184	0x3a2cb723	0.0006588569
185	0xbd895f28	-0.06707603
186	0xbbfde681	-0.0077484255
187	0xbcf58175	-0.029968956
188	0xbd882f51	-0.0664965
189	0xbd7e51c9	-0.062089715
190	0xbd042fa9	-0.032272015
191	0xbd110f4f	-0.03541499
192	0xbe06299d	-0.13101812
193	0xbd1b3309	-0.037890468
194	0x3d43999e	0.047753923
195	0x3e0008c7	0.12503348
196	0xbd2925fe	-0.041295998
197	0x3d64b3b8	0.055835456
198	0x3db2e0c9	0.087342806
199	0x3d8c99c2	0.068652645
200	0x3d92ce1f	0.07168221
201	0x3dc48d8c	0.095973104
202	0xbdf0b3a2	-0.11753012
203	0xbd2ae80c	-0.041725203
204	0x3e1fb04a	0.15594593
205	0xbdcce249	-0.10004098
206	0xbe41424c	-0.18872947
207	0x3dff07ab	0.124526344
208	0xbe4c77a0	-0.19967508
209	0xbe241c59	-0.16026439
210	0xbda30035	-0.07959024
211	0x3cf24d33	0.029577827
212	0xbc9dc1bc	-0.019257419
213	0xbd7f172e	-0.062277965
214	0xbe0e3029	-0.13885559
215	0xbdeb77a9	-0.11497433
216	0xbe25be75	-0.16185935
217	0x3d5034c3	0.050831567
218	0x3dc54921	0.09633089
219	0xbe0e68d2	-0.13907173
220	0xbd443636	-0.047903262
221	0xbde930e6	-0.1138628
222	0xbd39a134	-0.04531975
223	0xbdcc1877	-0.09965604
224	0xbe75c6d6	-0.24001631
225	0x3d661800	0.056175232
226	0xbe4068bd	-0.18789954
227	0xbd07f3a4	-0.03319134
228	0x3e3ecd26	0.18632945
229	0x3e142562	0.14467385
230	0x3e15e8f1	0.14639641
231	0xbc709289	-0.014683374
232	0xbdd78c91	-0.10524858
233	0x3c5a5c71	0.013327704
234	0x3e06c69c	0.13161701
235	0x3db3b4e1	0.08774734
236	0xbc174b2e	-0.009234233
237	0x3d91bfe3	0.071166776
238	0xbe069fed	-0.13146944
239	0xbda047ab	-0.078261696
240	0x3dce0a49	0.100605555
241	0x3de18cd6	0.110131904
242	0xbdfbbe6c	-0.122921795
243	0xbd08d0d2	-0.03340227
244	0x3c94364f	0.018092303
245	0x3e646939	0.22305764
246	0x3defb681	0.11704732
247	0x3c748f8d	0.014926803
248	0x3e0ed043	0.13946633
249	0xbe18d0fb	-0.1492347
250	0x3bafae04	0.0053613205
251	0xbd711098	-0.058853716
252	0xbd1f932d	-0.038958717
253	0x3e50f3a8	0.20405447
254	0xbd819125	-0.06326512
255	0xbea7f9a5	-0.3280765

layers.2.bias f4 [50]
0	0xbdbc8c17	-0.092064075
1	0x3cccdab2	0.025006626
2	0x3d7aef61	0.061263446
3	0xbcb0157c	-0.02149462
4	0xbdd7ea04	-0.10542682
5	0xbe409340	-0.18806171
6	0xbdeadc79	-0.11467833
7	0x3e13ff60	0.14452887
8	0x3cdcce81	0.026953937
9	0xbd262e5c	-0.040571555
10	0xbdb3c11e	-0.087770686
11	0xbce6497f	-0.028111218
12	0x3d96b843	0.07359364
13	0xbd9a320e	-0.075290784
14	0x3c25b226	0.010113275
15	0x3bec7ace	0.007216788
16	0x3d1cac30	0.03825015
17	0xbdc907df	-0.098159544
18	0x3def2626	0.11677198
19	0x3dc88e0a	0.09792717
20	0x3c9f52fe	0.019448753
21	0x3d5221ca	0.051301755
22	0x3d5ef846	0.05443599
23	0x3e2129a0	0.15738535
24	0xbdabb20a	-0.08383568
25	0x3dadaa60	0.08479762
26	0xbb535e3f	-0.003225222
27	0x3cb177be	0.021663543
28	0x3df01117	0.1172201
29	0x3de462d3	0.11151662
30	0x3e02e3d0	0.12782216
31	0xbde512dc	-0.11185238
32	0xbe286307	-0.16444026
33	0x3dc9ae25	0.098476686
34	0x3d052456	0.032505356
35	0x3e0d18e9	0.13779034
36	0xbd7f4f91	-0.06233174
37	0xbceb166b	-0.028697213
38	0x3e09d0d2	0.13458565
39	0x3d85bee0	0.06530547
40	0x379bdec4	1.8581173e-05
41	0x3da055bd	0.07828853
42	0x3cfa4561	0.03055066
43	0xbdc57a5e	-0.0964248
44	0xbddbbf5c	-0.10729858
45	0xbc0da85c	-0.008646097
46	0x3e053b6c	0.13010949
47	0x3de6b3b7	0.11264747
48	0x3c76c1b4	0.015060831
49	0xbd7ae1cb	-0.06125049

layers.4.weight f4 [1, 50]
0	0xbe91dd3b	-0.28489098
1	0x3e0f4199	0.13989867
2	0x3d1f728e	0.038927607
3	0xbcabcc66	-0.020971488
4	0x3eb563f3	0.35427818
5	0x3eff5983	0.4987298
6	0xbd0a1682	-0.03371287
7	0x3e37e3f9	0.17958058
8	0x3d8c45cc	0.0684925
9	0x3cc703a6	0.024293732
10	0xbe4ca231	-0.19983746
11	0xbdd62233	-0.10455742
12	0x3de17bfe	0.11009978
13	0xbe5cc99e	-0.21561286
14	0x3e0e1907	0.13876735
15	0xbe607418	-0.21919286
16	0xbda6d76d	-0.08146558
17	0xbd0dd164	-0.03462352
18	0x3c910f95	0.017707625
19	0xbd8de6ec	-0.069288105
20	0x3bd1d58b	0.00640363
21	0x3d8e4568	0.06946832
22	0x3d1f29ab	0.038858097
23	0x3e17bb9a	0.14817658
24	0x3db4cd7a	0.08828254
25	0x3d8172cd	0.06320725
26	0xbe28bcf4	-0.1647833
27	0x3e1c9622	0.15291646
28	0x3d0fe875	0.035133798
29	0x3e1f2359	0.15540828
30	0x3cfd9208	0.030953422
31	0xbda8fcef	-0.08251368
32	0xbe9399aa	-0.28828174
33	0xbd48163b	-0.048849326
34	0x3cf4660a	0.029833812
35	0x3db7f387	0.08981996
36	0xbcbcd757	-0.0230519
37	0x3c86f821	0.016475739
38	0x3e68dbfb	0.22740166
39	0x3e2156b1	0.15755726
40	0x3e02d96a	0.1277825
41	0xbc0ebef5	-0.00871252
42	0x3dc4bb67	0.09606057
43	0x3d9edade	0.07756589
44	0xbca7d6cc	-0.020488165
45	0x3cc263a3	0.023729151
46	0xbe5e0081	-0.2167988
47	0xbdeef215	-0.11667267
48	0xbd1412bd	-0.036150683
49	0xbd4b34c0	-0.049610853
