model.pt (torch, 3259 bytes, 8 tensors)

layers.0.weight f4 [6, 4]
000000 cc 43 a1 be 3e 4a 30 be 71 82 5a 3e 56 8d 68 be
       -0.31497037 -0.17215821 0.21338822 -0.22710165
000010 99 af f7 3a 80 81 78 3e a1 9c e7 3e c6 b6 97 3e
       0.0018896937 0.2426815 0.45236686 0.29631633
000020 53 e0 9f 3c 11 16 7c be 93 75 8b 3d ca 4b f5 be
       0.019516146 -0.24617793 0.06809535 -0.47909385
000030 35 41 d3 be f9 a2 d7 3e 10 f9 c3 bc 20 ac 8c be
       -0.41260687 0.42116526 -0.023922473 -0.2747507
000040 d9 88 8f be 33 07 e1 3e b0 bb a0 3d 79 74 c0 bd
       -0.28034094 0.43950805 0.078482985 -0.093972154
000050 61 9c b0 be 65 28 bc bd d7 46 8a 3e c3 c0 72 3e
       -0.34494308 -0.09187392 0.27007172 0.23706345

layers.0.bias f4 [6]
000000 f9 1d d7 be d7 09 3a 3e a9 43 3c 3e c9 43 c7 3e
       -0.42015055 0.18167816 0.18385185 0.38918903
000010 a7 43 7a be e0 93 9a be
       -0.2443987 -0.30190945

layers.2.weight f4 [8, 6]
000000 03 1a ae 3d 45 d1 b1 bd 2d af 3e 3e 4f 9a c8 3e
       0.08501055 -0.08682493 0.18621512 0.39180228
000010 fa 17 0c be 52 7f a5 3d cd 1c 98 3e 7f d3 83 3c
       -0.13681021 0.08080925 0.29709473 0.01609206
000020 70 85 cf 3b 78 d0 33 bc cc 49 87 3c 69 61 03 3e
       0.0063330457 -0.010974996 0.016514681 0.12830128
000030 ab 74 98 3e 50 72 b1 be a0 6c 8a bd b0 81 a9 be
       0.2977651 -0.34657526 -0.06759 -0.33106756
000040 a1 2e c5 be 2a 36 4d 3e 98 62 77 be 57 bb 11 3e
       -0.38512138 0.20040193 -0.24158704 0.1423162
000050 42 e3 89 be 5b 3e ce 3e ec 0b c8 3e 6f ba f6 3d
       -0.26931196 0.40281948 0.39071596 0.12047278
000060 cf 06 89 3e 55 ca b3 3e 29 a9 26 bd a2 e5 cc bd
       0.26763007 0.35115305 -0.040688667 -0.100047365
000070 83 9c 62 bd 94 c8 b7 3e 99 2d da 3d f4 ea ac 3e
       -0.055325042 0.35895216 0.10653228 0.33773005
000080 a5 3e 08 3e 99 be 15 3e b1 5d ac 3d 63 0b b2 3d
       0.13305147 0.14623488 0.08416308 0.08693578
000090 82 a2 0d 3d 24 47 a5 be a4 d1 88 3e 68 b1 63 3e
       0.034578808 -0.32280838 0.26722443 0.22235644
0000a0 dd 88 82 be 16 f2 b3 3e 2a 4e da bb 8a c8 81 3d
       -0.25495043 0.35145634 -0.00666215 0.06337078
0000b0 73 2f f9 3d 81 14 d4 bd a9 19 7f 3e c1 8e 53 bd
       0.12167253 -0.10355473 0.24912132 -0.051649813

layers.2.bias f4 [8]
000000 42 12 df be 27 c7 bd 3d e5 3a 8b 3e 14 26 79 bd
       -0.43568617 0.09266501 0.2719337 -0.06082733
000010 86 d1 97 3e df 4b 55 3e 5e a9 3b bd 75 5c 65 3e
       0.2965204 0.20829724 -0.045815818 0.22398551

layers.4.weight f4 [8, 8]
000000 59 3e 37 3e f5 c4 cc 3c 36 93 17 bd e8 80 83 be
       0.17894877 0.02499626 -0.037005626 -0.25684285
000010 aa f7 18 be ea 52 44 3e fd ef 9e be 1a 1f ae bc
       -0.14938226 0.19172254 -0.31042472 -0.021255065
000020 3d 35 a6 3e 49 9c 2b be 6d 8a ab 3e 94 76 17 3c
       0.32462493 -0.16758837 0.33504048 0.00924458
000030 c6 69 c6 3d f5 c2 d6 bd ca 2e 6d be 05 4f 71 3d
       0.096881434 -0.10486404 -0.2316238 0.05891325
000040 a4 44 58 bd 5d eb d9 3b d4 d0 be bd ae 9b 9c 3e
       -0.052799836 0.006650372 -0.093171746 0.30587524
000050 5d bc b2 3e 33 ab 0f bd f3 b1 c8 bd e3 b5 de bd
       0.34909335 -0.035075378 -0.09799566 -0.10874536
000060 6f 0d 2b bc 5a 1d de 3d 75 24 ae be c6 81 ab 3e
       -0.010440215 0.10845442 -0.3401219 0.33497447
000070 b8 00 4d 3c 11 6d 94 3d f6 16 0c 3e cf 95 00 3e
       0.012512378 0.07247365 0.13680634 0.12557147
000080 88 40 4b be 3f 31 58 be c4 7a 1d be b6 25 05 3d
       -0.19848835 -0.21112536 -0.15378863 0.032506667
000090 9f 7a 13 3e 0f 9f 5b be ac f8 a3 3d fe 53 6b be
       0.14402245 -0.21447395 0.08006415 -0.22981259
0000a0 40 a3 11 be 6d 85 27 be 42 6d fb 3d d2 95 16 be
       -0.14222431 -0.16359492 0.12276699 -0.1470559
0000b0 68 c2 52 be 47 5b 14 be 12 26 1d be 7b d5 14 be
       -0.20581973 -0.14487945 -0.15346554 -0.14534561
0000c0 a9 54 8d 3d 9b f7 26 be 10 e7 12 3e 98 d1 24 3e
       0.06900913 -0.16305391 0.14345956 0.16095579
0000d0 2f b4 0e 3e 41 1d b7 3e 36 5f ab 3e 27 59 b2 3e
       0.13935922 0.35764506 0.33471078 0.34833643
0000e0 5a b2 ec bd 65 49 64 3e df f7 29 3e 3c 06 86 bd
       -0.11557455 0.22293623 0.16598462 -0.06544158
0000f0 e5 64 7c bc 2b af cc bc 14 5f 95 3d e8 d3 5c be
       -0.0154049145 -0.02498587 0.07293525 -0.21565211

layers.4.bias f4 [8]
000000 e4 f4 34 3e 27 67 a0 3e fa 20 ca bd d7 a1 cf 3d
       0.17671543 0.313287 -0.09869571 0.101382904
000010 ff 4d f6 3e d8 94 1a bb b9 a7 5f 3e 72 78 4c 3d
       0.4810638 -0.0023587253 0.21841325 0.049919553

layers.6.weight f4 [3, 8]
000000 6f 39 65 be 35 24 bf 3e 8c 0d 4a 3e f3 c7 8b 3e
       -0.2238519 0.3733231 0.1973173 0.27300987
000010 3d ac 95 3e f4 ef e1 bd f6 cb b9 3e a3 64 27 3e
       0.2923297 -0.110320956 0.36288422 0.16346984
000020 34 bc eb 3d ad bc 18 be 0c bb 63 be 29 45 63 be
       0.11510506 -0.14915724 -0.22239321 -0.22194351
000030 1f 56 7e 3e 03 dd 45 be 0f 70 79 3d e8 71 5d be
       0.2483754 -0.1932259 0.060897883 -0.21625483
000040 34 68 f7 ba d4 1b 67 be a5 e1 4d be dd c9 42 be
       -0.001887566 -0.2256921 -0.20105608 -0.19022317
000050 e7 fa a1 3e 4e 91 46 3d d6 fd 40 be cf 6a 5f 3e
       0.31636736 0.048478417 -0.1884683 0.21818088

layers.6.bias f4 [3]
000000 fc 09 ac 3e d3 dc 89 3e fb cd 49 3e
       0.33601367 0.26926288 0.19707482
