model.pt (torch, 1875 bytes, 4 tensors)

layers.0.weight f4 [10, 4]
000000 76 af 64 bf d2 7e 16 bf 3e a0 52 3f 1c fe 3a bf
       -0.8933023 -0.5878726 0.8227576 -0.7304399
000010 1c bf 64 40 85 5d eb 40 f2 99 1e c0 44 ee 62 41
       3.5741644 7.355166 -2.478146 14.18317
000020 aa f5 0f c0 c6 5c 0a c0 4c 28 0e 40 b5 4d 08 3e
       -2.2493691 -2.1619124 2.2212095 0.13310893
000030 9a 30 af 3f 67 70 8f c1 6d ba af bf 6c c7 11 3d
       1.3686707 -17.929884 -1.3728768 0.035590574
000040 ae 99 9e bf 40 b2 72 3f b2 76 8c 3f 2a d5 1a bf
       -1.2390649 0.9480324 1.0973723 -0.6048151
000050 4e ec 31 c0 92 2c 1f c1 dc e5 29 40 a8 be 9f 40
       -2.780048 -9.948381 2.6546545 4.9920235
000060 fe 45 f2 3c 76 7c f4 3e 47 c8 78 3f 84 c4 76 be
       0.02957439 0.47751206 0.971806 -0.24098402
000070 4f 1b ff 3f 4f 37 be 40 20 59 09 c0 57 03 8b c1
       1.9930209 5.9442515 -2.1460648 -17.37663
000080 b3 6b 05 40 b8 ef 98 3d 6c 05 00 c0 71 0b e1 41
       2.0846984 0.07467598 -2.000331 28.130587
000090 c4 28 63 c0 4c ea 4d 41 c5 91 61 40 e6 3f df 40
       -3.5493631 12.869701 3.524522 6.97655

layers.0.bias f4 [10]
000000 cf 2d de be 78 a2 b4 3e 85 7c 88 bf fe 09 db bf
       -0.43394324 0.35280204 -1.0663 -1.7112424
000010 30 7c 89 3f e1 21 7b bf fe a8 2d bf 6e 9a 41 be
       1.0741024 -0.9809857 -0.67835987 -0.18906567
000020 49 9f 95 3f e8 fa 1a 3e
       1.1689235 0.15134776

layers.2.weight f4 [3, 10]
000000 12 c7 ec bf d8 e8 8f 3d d9 d3 73 3f 0f 1b 18 be
       -1.8498251 0.07026833 0.9524513 -0.14854072
000010 2a cc e2 bf 9a 17 c8 bd 8f 24 73 40 30 ac 9f 3b
       -1.7718556 -0.09770127 3.7991064 0.0048728213
000020 df df 97 bc 6b 2a 8f bc c9 a3 7b c0 70 a9 4e 3d
       -0.018539367 -0.017476281 -3.9318717 0.050454557
000030 b0 ef c7 3f f8 27 39 be f9 5a a2 3f 17 a1 c1 bd
       1.5620022 -0.18081653 1.2684013 -0.094545536
000040 e0 09 89 bd 58 fe 6e 3d a7 b2 df 3d 62 cf 8c bd
       -0.06691337 0.05834803 0.10922747 -0.06875493
000050 f3 3f 43 3f 82 bf 3b 40 45 a0 c4 bf 40 ac e2 40
       0.76269454 2.9335637 -1.536141 7.0835266
000060 c3 2e f0 3e 34 f7 76 3f aa 75 06 3e b2 fd 0d 3f
       0.46910676 0.9647095 0.13130823 0.55465233
000070 a0 99 94 c0 9d 90 03 40
       -4.643753 2.0557015

layers.2.bias f4 [3]
000000 36 e4 36 3f 06 c8 ef 3d fc bc 22 bf
       0.7144197 0.11708073 -0.6356962
