model.pt (torch, 3259 bytes, 8 tensors)

layers.0.weight f4 [6, 4]
0.056244936 -0.27588803 -0.0694437 0.0883529 -0.4079513 -0.36660963 -0.09018302 0.33653113
0.4665033 0.27127758 0.06493225 -0.2175834 0.029288625 0.3300423 0.073189214 0.13712339
0.28026626 -0.10802366 -0.44221207 0.05763986 0.31502995 -0.16682547 0.17553963 0.09585041
00000000: 1761 663d 3241 8dbe 8038 8ebd 5ef2 b43d
00000010: fede d0be 42b4 bbbe e0b1 b8bd cf4d ac3e
00000020: 85d9 ee3e e5e4 8a3e 33fb 843d 2fce 5ebe
00000030: b3ee ef3c 4efb a83e 3ae4 953d 136a 0c3e
00000040: 0f7f 8f3e 823b ddbd 9f69 e2be c617 6c3d
00000050: 9b4b a13e 4cd4 2abe a9c0 333e 384d c43d

layers.0.bias f4 [6]
-0.08609914 0.14106224 -0.27981964 0.418723 0.3917384 -0.114114076
00000000: bf54 b0bd 9f72 103e 8544 8fbe dc62 d63e
00000010: f091 c83e a4b4 e9bd

layers.2.weight f4 [8, 6]
0.3722111 0.12540305 0.22865231 -0.32753518 0.1743104 -0.101674 0.11890571 -0.09148838
0.22994258 -0.41615015 -0.08274788 0.3973813 0.07885092 0.19291732 0.38438982 0.1217115
-0.21258341 0.1981589 0.061236974 0.34402072 0.03822087 0.07830273 0.28486195 -0.38011616
-0.09650212 -0.3173062 0.10206911 -0.24527209 0.262888 0.39772755 0.3661059 0.0056321593
0.32636055 -0.4086505 0.23896569 -0.30744237 0.1488735 0.33270937 0.06490486 -0.18902361
0.37631476 0.39950365 -0.09584764 -0.39486852 0.1162177 -0.12339064 -0.08094362 0.006893616
00000000: 7492 be3e a869 003e d523 6a3e b1b2 a7be
00000010: 6d7e 323e 753a d0bd d684 f33d 435e bbbd
00000020: 1176 6b3e a211 d5be b877 a9bd 9075 cb3e
00000030: 977c a13d 1e8c 453e bece c43e e143 f93d
00000040: 77af 59be 2bea 4a3e 9fd3 7a3d 7c23 b03e
00000050: 7d8d 1c3d 2f5d a03d 6dd9 913e 969e c2be
00000060: e7a2 c5bd f575 a2be 9c09 d13d 9b28 7bbe
00000070: 4299 863e f2a2 cb3e 3c72 bb3e fa8d b83b
00000080: bb18 a73e a33a d1be 6cb3 743e 1669 9dbe
00000090: 4b72 183e e258 aa3e d7ec 843d 688f 41be
000000a0: 54ac c03e be8b cc3e c44b c4bd 352c cabe
000000b0: 8c03 ee3d 3bb4 fcbd c5c5 a5bd d8e3 e13b

layers.2.bias f4 [8]
-0.20782176 -0.26313886 -0.23298317 0.15816966 -0.028164422 -0.18691589 0.0606142 0.08785665
00000000: 3acf 54be 23ba 86be 2493 6ebe 3af7 213e
00000010: 13b9 e6bc e166 3fbe 9846 783d 30ee b33d

layers.4.weight f4 [8, 8]
-0.121408865 -0.37051764 -0.14158915 0.04512065 0.2889182 -0.00041343117 -0.3109459 0.11259497
0.011309396 -0.24504855 -0.1863921 -0.06146461 -0.20770563 -0.15472677 -0.16007705 -0.29876268
-0.14765416 0.21921803 0.339713 -0.23621613 -0.2491304 -0.24694204 0.069206156 0.12526116
0.33468652 0.34251145 -0.04662529 -0.26223287 -0.2179033 -0.09834709 -0.332423 0.14397526
-0.29194868 0.24176879 -0.20733063 0.27823898 -0.26505274 -0.20776042 0.24462019 -0.043706413
0.17046638 0.31089783 -0.18410857 0.21353771 0.0010605693 -0.056556843 0.094957 0.050695784
-0.23623437 0.30221897 -0.12300956 -0.107130535 -0.27232656 0.053190738 0.045445483 -0.16911493
-0.21076725 -0.3474563 -0.03416592 -0.31203508 -0.28400767 -0.33444867 0.34792015 0.3000599
00000000: 36a5 f8bd 7db4 bdbe bffc 10be 6ed0 383d
00000010: 16ed 933e cbc1 d8b9 4d34 9fbe 3198 e63d
00000020: 0b4b 393c 02ee 7abe 92dd 3ebe 51c2 7bbd
00000030: c9b0 54be b270 1ebe 3deb 23be 6cf7 98be
00000040: a732 17be b17a 603e ddee ad3e a4e2 71be
00000050: 0a1c 7fbe 60de 7cbe f5bb 8d3d 7644 003e
00000060: 085c ab3e a95d af3e 29fa 3ebd 6343 86be
00000070: 0b22 5fbe 336a c9bd 5933 aabe 406e 133e
00000080: 4c7a 95be 3d92 773e 7b4e 54be 5775 8e3e
00000090: feb4 87be 26bf 54be b77d 7a3e 7f05 33bd
000000a0: bd8e 2e3e 002e 9f3e f586 3cbe a1a9 5a3e
000000b0: cd02 8b3a 26a8 67bd d178 c23d 62a6 4f3d
000000c0: 6ce7 71be 72bc 9a3e 70ec fbbd 4167 dbbd
000000d0: 636e 8bbe 88de 593d 0b25 3a3d 772c 2dbe
000000e0: 5fd3 57be cbe5 b1be 90f1 0bbd 10c3 9fbe
000000f0: 7469 91be db3c abbe 9722 b23e 74a1 993e

layers.4.bias f4 [8]
0.10865867 -0.013764376 -0.2719016 -0.29004177 -0.22495766 -0.12594624 -0.40007856 -0.038339753
00000000: 7088 de3d fa83 61bc b036 8bbe 5b80 94be
00000010: 4d5b 66be 0df8 00be 19d7 ccbe 250a 1dbd

layers.6.weight f4 [3, 8]
0.22719866 0.30560225 0.09143981 -0.5202478 0.16842741 0.19817735 -0.32543144 -0.0030448684
0.22411372 -0.20086296 0.17982936 -0.013635171 0.15979533 -0.34344807 0.32641396 0.36115274
0.3673772 -0.33230308 -0.32661754 0.054075047 -0.22531737 -0.15553117 -0.1668962 0.14916128
00000000: c4a6 683e e677 9c3e cc44 bb3d f62e 05bf
00000010: 3c78 2c3e 01ef 4a3e f39e a6be 6a8c 47bb
00000020: 117e 653e 05af 4dbe 3025 383e 0d66 5fbc
00000030: 63a1 233e 6dd8 afbe bb1f a73e 03e9 b83e
00000040: dd18 bc3e a123 aabe 6a3a a7be cc7d 5d3d
00000050: 99b9 66be 9043 1fbe d6e6 2abe bcbd 183e

layers.6.bias f4 [3]
0.16609584 0.2724582 0.06941551
00000000: 0715 2a3e a47f 8b3e b829 8e3d
