model/results/skew-skew/skewness-e10000/10-10-SGD-relu-0.001-50-e10000-skew.pt (torch, 3383 bytes, 5 tensors)

layers.0.weight f4 [10, 5]
00000000: 59e7 3840 7ab4 983c 6b7e d43e 5e90 0ebf
00000010: 5e57 97bc a130 123f d8b2 adbc 2256 65bf
00000020: 392e 00bf 19d5 cc3e 32ab d73f de52 8ebc
00000030: 05cd 4abe 6851 e440 530d b1bc 22d3 00bf
00000040: 4cb0 0a3f 452f 353f 4c9e 8fbe d771 893e
00000050: 2c27 9fbd 1a6b 16be 19f7 91be 7a42 7a3c
00000060: 7e07 e5b9 2ac7 85bf fa11 c6be d07c 1f3f
00000070: 5e8d 633f 4eb4 613e 6187 f5be 62eb 1ebe
00000080: 13fe e33d 07b6 9340 3d3a c73c 9c3e 0d3f
00000090: 9e1c 303e ec33 76be 9fe1 fbbf a1d2 0cbd
000000a0: a32c 313d 5ea2 ecbe abf0 893e 35f4 eb3f
000000b0: 1bfb 95bc 2f67 d93f 6dba 953e c2fd 2fbf
000000c0: b6cf b8bd ce68 743e
2.8891203 0.018640745 0.415027 -0.55689037 -0.018474277 0.5710545 -0.021203443 -0.89584553
-0.5007053 0.4000633 1.684912 -0.017373499 -0.19804771 7.1349373 -0.021612799 -0.50322163
0.5417526 0.7077525 -0.28050458 0.26844665 -0.07771143 -0.14689294 -0.28508833 0.015274638
-0.00043683866 -1.0451405 -0.3868559 0.62299824 0.88887584 0.22041437 -0.47954848 -0.15519479
0.11132445 4.61597 0.024319762 0.5517366 0.17198417 -0.24043244 -1.9678229 -0.03438056
0.04325546 -0.46217626 0.26941428 1.8433901 -0.018308213 1.6984614 0.29243794 -0.6874658
-0.09023993 0.23868105

layers.0.bias f4 [10]
00000000: 2422 e0be 32b7 b63e 873b 6dbe 59b6 e83e
00000010: eff7 34be 63b8 2ebd f091 0bbe 0683 4f3e
00000020: 8c34 3dbe 02c0 733f
-0.43776047 0.35686642 -0.23167239 0.4545162 -0.17672704 -0.042656314 -0.1362989 0.20264825
-0.18477076 0.95214856

layers.2.weight f4 [10, 10]
00000000: c6eb 1d3e 0649 10be 7710 91bd ecb5 93bd
00000010: 477e b83c a93f febc c49c 6cbe 9489 213c
00000020: 0a70 a73a 209a 1bbe 0ea5 e73f ff7d cbbe
00000030: 92eb 89c0 4789 3bbf b636 ffbd acb2 f6be
00000040: 6c58 f2be 05ce 9cbe e67f 04bf 8271 413f
00000050: 84a4 d63e b21b 1dbf 38f8 c4be b6de 133f
00000060: 57d2 acbd 92db f93e 0a50 683f 2273 703e
00000070: ef38 13bf 5ee3 253f b994 adbc f883 42bd
00000080: a402 9dbe 57ef 6b3d 32a8 b83d 560c a23d
00000090: 14b0 903e c85d 93be 3018 3fbd a4d6 24be
000000a0: 18a8 66bd 092f 10bf 2a1f 233f e482 1a3f
000000b0: 06ca 7abe fa98 99bd 4972 95bf 29a6 36bf
000000c0: bd3b 0a3f 9b80 34bf 34d1 7d3e 358b 153d
000000d0: c18f b4be 4647 c43d e957 8e3e 1e38 953e
000000e0: 672d 043f 8ce6 693e c8db f5bd 6a15 103f
000000f0: b04e 0dbe 495d d33e b6c7 443f b863 673d
00000100: ebf8 95be a4db 04bf af9f c0bf 7b04 e6bd
00000110: a95c 623f fa16 133e 5d3d afbe 2976 a43e
00000120: 5d7b 363f 3386 c03e 98dc 5c3e b7a8 b43e
00000130: dc39 29bf 71fa b9bf ad71 69bf 3498 61bf
00000140: 81dc bc3e 124c 52be 5f1c b6be 79ea 933e
00000150: 12c8 1fbe f988 2b3f 09bf 5c3f d526 c93d
00000160: a073 a4be 35a1 b13e b956 7ebe 2962 8b3c
00000170: 3d2e 873e 66fd 8a3d acf2 dcbd b43e 19bf
00000180: f861 39bf 398e 0bbf 1cfe 323f 225e b9be
0.15421972 -0.14090356 -0.070832185 -0.07212433 0.022521151 -0.031036215 -0.23106676 0.009859461
0.0012774479 -0.15195513 1.8097246 -0.39744565 -4.310006 -0.73256344 -0.12461607 -0.4818319
-0.47333086 -0.3062593 -0.5175766 0.75563824 0.4192239 -0.61370385 -0.38470626 0.57761705
-0.08438557 0.4880033 0.9074713 0.2348142 -0.5750875 0.6480006 -0.02118908 -0.047489136
-0.30666077 0.0576013 0.09016456 0.07912509 0.28259337 -0.28782487 -0.046653926 -0.16097504
-0.05631265 -0.5632177 0.6371943 0.60355973 -0.24491128 -0.07499881 -1.1675502 -0.7134729
0.53997403 -0.70508736 0.24786836 0.03650971 -0.35265926 0.09583907 0.27801445 0.29144377
0.5163178 0.22841853 -0.120048106 0.56282675 -0.13799548 0.41282108 0.76867235 0.056491584
-0.29291472 -0.51897645 -1.5048732 -0.11231323 0.8842264 0.14364234 -0.34226504 0.321214
0.7128199 0.37602386 0.21568525 0.3528497 -0.6610391 -1.4529554 -0.9118908 -0.8812287
0.3688698 -0.20536831 -0.3556852 0.28889826 -0.15603665 0.6700588 0.86228997 0.0982186
-0.32119465 0.34693304 -0.2483777 0.01701458 0.26402465 0.06786613 -0.107884735 -0.598613
-0.72415113 -0.5451389 0.6991899 -0.3620463

layers.2.bias f4 [10]
00000000: de1e 7cbe 8e0b 18be 77a5 d23d 4d42 a5bd
00000010: 6dd0 393f 51ed 4b3e 124b be3d 89d3 b83f
00000020: 0304 1e3d 7edd 283f
-0.2462115 -0.14848158 0.10285466 -0.080692865 0.7258366 0.19914748 0.09291662 1.4439555
0.038578045 0.6596297

layers.4.weight f4 [1, 10]
00000000: abb0 4d3c ec6d 9040 98ba 1c3f a525 50be
00000010: 3884 74bf 0f1e a83e 354f 4abf d514 55bf
00000020: 138f e83e 2c82 3cbf
0.012554328 4.513418 0.6122222 -0.2032686 -0.9551425 0.32835433 -0.7902711 -0.8323491
0.45421657 -0.73636127
