model/results/skew-skew/skewness-e10000/15-15-SGD-tanh-0.001-50-e10000-skew.pt (torch, 4023 bytes, 5 tensors)

layers.0.weight f4 [15, 5]
000000 a4 d9 2d c0 e7 18 b1 be f6 36 98 3f 5a c4 b3 40
       -2.7164087 -0.3458931 1.1891773 5.6177187
000010 0b 96 85 3d d5 a4 bb be 87 4c 1c be 2f bb 4b 3e
       0.06522759 -0.36649194 -0.15263568 0.19895624
000020 6a 6c 8b 40 26 25 99 bd 9a fe cd 3f 4c 3b b9 3e
       4.356984 -0.074777886 1.6093323 0.36178052
000030 3d e0 ae 3e 73 db 66 c0 c9 d9 40 3e 2e a1 6f be
       0.34155455 -3.607144 0.18833078 -0.23401329
000040 1e 68 41 3f 85 86 5e bf 07 ab dd bf dd c1 58 be
       0.75549495 -0.8692401 -1.7317818 -0.21167703
000050 72 98 05 bf 82 b1 8b 3d 05 ca 05 3f d5 8c 0b c0
       -0.5218574 0.06820966 0.5226138 -2.1804707
000060 3b 0f f3 bd 6c 72 de bf bd 39 c8 3e c3 4c 22 bf
       -0.11868139 -1.7378669 0.3910655 -0.6339838
000070 6b ad a2 bf 68 42 77 3e ae 19 a4 be cc a4 4f 3e
       -1.2709173 0.24146426 -0.32050842 0.20277709
000080 d8 0d 7f 3f 7c 0b 0f 3f 0a 7f 42 3e 1e 87 4f c0
       0.996305 0.558769 0.18993774 -3.242622
000090 b1 9a 8b be 7a 9b 18 3f 33 41 81 c0 d3 3c 47 be
       -0.27266458 0.5961224 -4.039209 -0.19456796
0000a0 a3 dc c7 3f 32 91 a4 3e 10 6a 6f bf 01 b2 bf be
       1.5614208 0.32142025 -0.93521214 -0.37440494
0000b0 55 51 ad be 39 a9 8c bf 4d be 9f 3e 5a 6e a8 3e
       -0.33851114 -1.0989143 0.31199875 0.32896692
0000c0 df b9 f0 bf a5 9d 67 3f 52 bb 00 bf a9 d4 91 bc
       -1.8806723 0.9047492 -0.5028583 -0.0178016
0000d0 6b 38 76 3f 52 0d ee 3e ff 60 bb be 59 28 12 bf
       0.96179837 0.46494538 -0.3659744 -0.57092816
0000e0 4c 4c 14 3f 64 85 8f bf 30 6c 88 40 b1 56 8c be
       0.5792892 -1.1212583 4.2632065 -0.2740989
0000f0 65 ab c6 bf 35 1f 09 3e b1 f2 7b bf f2 4b b8 3e
       -1.5521055 0.13390811 -0.9841719 0.35995442
000100 4d 54 c9 be 73 04 93 be 7f 23 35 bf 38 62 bd 3f
       -0.3932213 -0.28714332 -0.7075729 1.4795599
000110 d1 6d a9 bf 49 9a d4 be 1b cb a6 bf 75 73 80 be
       -1.3236638 -0.4152396 -1.3030733 -0.25088087
000120 63 bd 83 3e 91 65 b1 be ef e2 31 be
       0.25730428 -0.34647802 -0.17371725

layers.0.bias f4 [15]
000000 1d 47 bc be 2f 20 df 3c f9 c0 2b bf 0d 8c a2 3f
       -0.36773005 0.027237026 -0.6709133 1.269899
000010 fd f3 ed be c6 8d 30 3f bc a4 18 be 81 78 60 3f
       -0.4647521 0.6896633 -0.14906591 0.87683874
000020 5e 17 0c 3f 3b 3f a9 bf 04 6f 70 bf 0d 9b 7b 3f
       0.54723155 -1.3222421 -0.93919396 0.98283464
000030 30 73 07 be e8 af 80 be df da 5f 3f
       -0.13227534 -0.25134206 0.87443346

layers.2.weight f4 [15, 15]
000000 4e bc 96 3e 8d 6e 9c 3e 0f f5 71 be fa 2b fb be
       0.2944054 0.30553094 -0.23628639 -0.4905699
000010 a8 02 83 3e 13 9e 13 3e 4b 97 bb 3e bf 4b bd 3e
       0.25587964 0.1441577 0.36638865 0.36971852
000020 3c 7f 1d 3f 1e 84 6f 3e 9c e1 c1 3e 2f e8 73 3e
       0.6152227 0.23390242 0.3786744 0.2381904
000030 99 37 14 be f9 ed 36 3e 7e 4e 61 3e 97 e1 85 3e
       -0.14474334 0.17864217 0.22002599 0.26148674
000040 1c 36 06 3f 52 d9 29 3f 64 2b 14 3f 06 e5 d9 be
       0.52426314 0.6634723 0.5787871 -0.42557544
000050 2a c2 9a be f4 70 08 3e 33 7a f2 be 2b df 59 be
       -0.3022626 0.13324338 -0.47358856 -0.21276538
000060 1f 6f d1 be 7e 36 bc be d1 d9 0a bf ac d4 c0 3d
       -0.4090509 -0.36760324 -0.5423861 0.09415564
000070 76 8f d4 3d c6 9a c4 bd 4e 91 eb be 15 01 53 bb
       0.103789255 -0.09599833 -0.46009296 -0.003219669
000080 4e cd c5 bd 4c c3 0e 3f de d7 42 3e a9 96 bb be
       -0.096582994 0.5576675 0.1902766 -0.36638382
000090 09 3f 92 be ca 64 dc be 8e ca 8b 3e 60 c4 29 3e
       -0.28563717 -0.43045646 0.27302974 0.16578817
0000a0 cc 00 82 3e 8a ce 3c 3e 5b 32 9d be a6 45 82 3b
       0.25391233 0.18438163 -0.3070248 0.003975588
0000b0 9b 53 91 3e 28 72 1e 3c 92 a0 df bd 1a 11 a9 3d
       0.28384098 0.009670772 -0.10919298 0.08255215
0000c0 b8 9d 12 3d 00 33 91 be 64 c6 81 3d f9 b1 49 be
       0.035794944 -0.28359222 0.06336668 -0.19696797
0000d0 60 d9 85 bc e2 3e 62 3d 3d e5 bb bd 76 10 b7 be
       -0.016339004 0.05523575 -0.09174583 -0.35754746
0000e0 c5 62 99 be ea 90 60 be be a9 39 3e 93 4f 7d bd
       -0.29958168 -0.2193028 0.18131158 -0.061843466
0000f0 3e 89 ff be d8 c5 1a bf 4a 54 f9 3e 8e af 38 bf
       -0.49909395 -0.60458136 0.4869712 -0.72142875
000100 c3 a7 97 3e ef af c6 3e ba 7b 83 be 6c 0a 17 3f
       0.2962018 0.38806102 -0.25680333 0.5900028
000110 ec f8 63 be 7c 1c d2 3e 8f ac 02 3e 6f 09 6f bd
       -0.22262925 0.41037357 0.12761138 -0.058358606
000120 5d a6 61 3e d5 fe fe 3e a1 05 a7 bd ee 78 ce bd
       0.22036119 0.49803796 -0.081553705 -0.10081659
000130 c6 ea b9 3d 35 42 8c 3d 01 af 35 be fe a5 53 3e
       0.090779826 0.068485655 -0.1774254 0.2066879
000140 e3 9a da 3d fe df 88 3d 36 4e 59 be ca 96 2d 3e
       0.106740735 0.06683348 -0.21221241 0.16952053
000150 91 39 2c 3e 3f 42 36 3f ae 26 3c be c3 cd 1c 3f
       0.16818835 0.71194834 -0.1837413 0.6125147
000160 6c 09 9f 3e f5 a1 8f 3e df dc 15 c0 93 73 60 bf
       0.31061876 0.2805325 -2.341606 -0.8767635
000170 61 41 60 3f 59 b3 e9 3e 6c b6 b1 3f 28 7a da 3e
       0.8759976 0.45644644 1.3883796 0.42671323
000180 bb 51 fa bd ff cb 88 3f bf df 4b 3e f2 0f e9 3e
       -0.1222262 1.0687255 0.19909571 0.45519978
000190 1a f7 67 be e0 4b 21 bf a8 9f 13 3f 08 11 c9 3e
       -0.22652856 -0.630064 0.5766549 0.39270806
0001a0 b9 6e 0b 3f 7e c1 81 40 60 2a 18 40 c0 6b 21 c0
       0.54465824 4.0548697 2.3775864 -2.5222015
0001b0 7f 05 7b bf 8a 57 e2 bf dd 01 b2 bf da 1d 96 3f
       -0.9805526 -1.7682965 -1.3906819 1.172786
0001c0 39 c4 79 c0 e1 f2 90 bd 73 64 eb bf 8b 7a bf 3e
       -3.9026015 -0.070775755 -1.839003 0.3739818
0001d0 0d 40 4a 40 97 c8 89 bf 1b dc eb bf 82 8b 5c bf
       3.1601593 -1.076434 -1.8426546 -0.8615037
0001e0 cc 15 1e bf b3 4b d5 be e5 b8 92 3e 22 c5 8a 3f
       -0.6175201 -0.41659316 0.28656688 1.084141
0001f0 01 0d 89 3d 4e 77 7e 3e d4 c6 dd be 8b 69 e7 3d
       0.066919334 0.24850199 -0.43315756 0.112994276
000200 a0 ad 90 3c e6 e4 4a 3e 9b 92 27 3d 58 3d 03 bf
       0.017660916 0.1981388 0.0409113 -0.5126548
000210 fa d2 77 3f d4 72 a9 3e c6 5d 2f 3e 56 a5 33 bf
       0.968063 0.3309542 0.17125615 -0.7017416
000220 db 47 b0 3f b6 46 0a 3e 3e a8 d0 3e 01 36 a4 3d
       1.3771929 0.13503537 0.4075336 0.08018113
000230 7a 08 37 bf d2 d9 14 3f 96 49 f9 3d 7c 66 ee bf
       -0.7149731 0.5814487 0.121722385 -1.8625026
000240 ba ed 68 be 48 1c c5 be c8 15 b0 3e ba 02 1c bf
       -0.22746935 -0.3849814 0.34391618 -0.6094166
000250 f0 b7 5b be a9 3b 1f b9 25 df dd be 43 4f 8b 3d
       -0.21456885 -0.00015185647 -0.43334308 0.06802227
000260 73 54 08 3e 0b af 67 be a3 c0 8c 3e d0 30 38 3e
       0.13313465 -0.22625367 0.2749072 0.1798737
000270 c6 ce 73 bf eb bf 23 be d5 68 31 3e 85 db c0 3e
       -0.95237386 -0.1599118 0.17325146 0.3766748
000280 72 00 3f be e1 0e b9 bd 6c d2 af ba 25 0d dd 3c
       -0.18652514 -0.09036041 -0.0013414151 0.026983807
000290 24 f4 1e 3e b6 92 82 be 62 e1 ec bf 1b b2 f1 bc
       0.1552282 -0.25502557 -1.8506281 -0.029503873
0002a0 8c 5e 09 bf 68 b3 13 3f da c0 5d 3f 43 94 34 3c
       -0.5365989 0.5769563 0.86622393 0.0110216765
0002b0 ce be 7b 3f 3c 2c cb 3d 86 ca f7 3e 5f 4d 8f 3e
       0.9833802 0.099205464 0.483967 0.27988717
0002c0 cf 8a 33 3c d8 65 0c 3f a6 70 51 3e db 8c bc 3d
       0.0109583875 0.548429 0.20453128 0.092065535
0002d0 66 f1 a2 be 48 31 a9 3e 44 89 44 be b1 32 32 be
       -0.31824797 0.3304541 -0.19192988 -0.1740215
0002e0 68 bf 1b be 80 31 f0 3c a7 09 d8 bd 85 17 7b 3d
       -0.15209734 0.029320478 -0.10548716 0.061301727
0002f0 50 50 45 3f 39 3c 8b bb be 66 37 3e ba f9 f5 be
       0.7707567 -0.0042491225 0.17910287 -0.4804209
000300 dd 1a 68 be 81 7f 64 3e 42 1d c1 3e 92 cd 43 3e
       -0.22666498 0.22314264 0.37717634 0.19121388
000310 c1 4d 6c 3e 9a 31 19 3e 5a 16 50 3e 79 c1 2d 3e
       0.23076536 0.14960328 0.20321026 0.16968335
000320 0b 27 f5 3d c5 e7 4a bd 2b 1a bd 3e 9d 33 00 be
       0.119703375 -0.04953744 0.36934027 -0.12519689
000330 fb 86 a4 3e 4f d6 bf bd 9f a5 cd 3b 68 90 0a bf
       0.32134232 -0.09367048 0.006275847 -0.54126596
000340 0a 73 a8 be 93 d9 2b 3d 13 6a 2b bf a4 e6 62 be
       -0.32900268 0.04195554 -0.6695873 -0.22158295
000350 6d f7 94 be d6 4d 8f 3e e0 f7 b5 3c f5 6c 87 bf
       -0.2909502 0.27989072 0.022212923 -1.0580126
000360 24 69 a6 3e 25 7e 39 be 51 2e 0a 3f e3 f0 cd be
       0.3250209 -0.18114527 0.53976923 -0.40222844
000370 62 59 aa 3e 5f 2b 0f 3f 3c 03 c4 bf e8 f5 12 bd
       0.3327132 0.55925554 -1.5313487 -0.035879046
000380 b8 44 59 be
       -0.2121762

layers.2.bias f4 [15]
000000 a1 46 32 3e f1 7d 23 3f 1f 55 f9 bd a3 b6 12 3e
       0.17409755 0.63864046 -0.12174439 0.14327483
000010 4f d6 47 be 17 b2 e1 be 99 c3 54 bf c2 ab c2 3f
       -0.19515346 -0.44081184 -0.8311096 1.5208666
000020 c3 43 18 3e b9 d3 c8 3e 7c ba b9 be 19 ae df be
       0.14869599 0.39224032 -0.3627509 -0.43687513
000030 26 08 22 3d 9f a8 90 bd 16 3f 0c be
       0.039558552 -0.07063412 -0.1369594

layers.4.weight f4 [1, 15]
000000 34 21 6c bf 27 12 c7 3f 4f 4a 42 bf 07 32 b5 3e
       -0.92238164 1.5552415 -0.75894636 0.3538973
000010 7f d5 c6 bf 72 1c 7d bf e1 57 eb 3f 7d 02 ae c0
       -1.5533904 -0.9887153 1.8386194 -5.4378037
000020 e4 b0 94 3f 14 c2 13 40 ea 0d 73 bf e8 54 19 c0
       1.1616483 2.3087206 -0.94943106 -2.3958073
000030 d3 17 2c bf b3 a1 21 bf 75 9e a8 bf
       -0.6722385 -0.6313736 -1.3173357
