model/results/skew-skew/skewness-e10000/15-15-SGD-relu-0.001-50-e10000-skew.pt (torch, 4023 bytes, 5 tensors)

layers.0.weight f4 [15, 5]
00000000: ba03 c7be 0990 c9bd 3b0c 0bbe f22d b7be
00000010: 936f c43d 843b 813e c6ca 12bf 9f50 8ebe
00000020: 31ee 9bbe 68b3 a7bd 75e8 afbe ecb1 09be
00000030: 550d 6d3d a362 e3bd 7d0d 4fbe df96 9abf
00000040: c34a b73b 1639 8ebe 5154 043e 173e b2bc
00000050: f0cf ce3e 2f37 91be 0425 82be d4cb 32be
00000060: 4b3e 38be 5d38 483f 5e77 7d3e d6fc f4be
00000070: 465c 6fbf aa61 57be e8a5 eb3e 0d85 06be
00000080: 05d3 33be 3637 f03f fe84 7bbd a7f3 b53e
00000090: ceb5 1b3c c1ac da3e 5621 c43f 8330 11b9
000000a0: 74bd 4abf 4341 e8bd 996a e8bd 720d 853f
000000b0: 527d 91bd b5a2 c0bd a8a7 ca3c 2336 4f3e
000000c0: e44c e8c0 05c0 a4bc b72b 60bf c336 81bd
000000d0: 0450 653e 1f21 2540 2efa f0bb 1073 d9bf
000000e0: a2de bdbe 6c0e 173f a59a 21be 8e71 713d
000000f0: e67d 973e 21ef 173e 59ca c5be 3e10 d0bf
00000100: 12ee a23c 8579 20bf 546f 24be dbcd 5b3e
00000110: 3cd7 6d40 8905 033d 579f f9be ce33 943c
00000120: 4f8f 563f 76f7 313e 7352 bcbe
-0.3887003 -0.09841926 -0.13578884 -0.3577724 0.095915936 0.2524072 -0.5734066 -0.27795884
-0.30455163 -0.08188516 -0.34357038 -0.13446778 0.057874043 -0.11102798 -0.20219989 -1.2077292
0.005593629 -0.27777928 0.12922789 -0.021758122 0.4039302 -0.28362414 -0.25418866 -0.17460567
-0.17992513 0.78211004 0.24752566 -0.4784915 -0.93500173 -0.2103335 0.46025014 -0.13136692
-0.17560966 1.8766849 -0.061406128 0.35537454 0.009503795 0.42709926 1.5322673 -0.0001384635
-0.7919533 -0.11340573 -0.11348457 1.0394728 -0.07103981 -0.09406034 0.024738148 0.20235495
-7.259386 -0.020111093 -0.87566704 -0.06309273 0.22393805 2.5801466 -0.0073540425 -1.6988239
-0.37083918 0.5900638 -0.15781648 0.058946185 0.2958824 0.14837314 -0.38630942 -1.6254957
0.019888911 -0.62685424 -0.16058093 0.21465246 3.7162619 0.0319877 -0.4875438 0.018091109
0.8381242 0.17379555 -0.36781654

layers.0.bias f4 [15]
00000000: ca9f dabe 7248 ccbe 87dd b2be fad2 233e
00000010: 2be6 2abe 839e b23d 8840 703e 4fb6 f8bd
00000020: 4751 793f c043 833d 64ef 5e3e 918a 10be
00000030: ab4c 973d 0a04 28be 5987 c1bd
-0.42700034 -0.3989902 -0.34934637 0.1599845 -0.16689365 0.0872164 0.23462117 -0.121441476
0.97389644 0.06409407 0.21771008 -0.14115359 0.0738767 -0.16407791 -0.09449644

layers.2.weight f4 [15, 15]
00000000: 2e7c 9e3d c26d 1dbe 0984 e6bd 6683 14bd
00000010: 07d1 6abd 88f9 cb3d b9a4 f4bb 31f8 29be
00000020: 28bd ab3d b1cf 3bbe 085c d7bd a1f3 3d3c
00000030: 9a6a d3bd 75bf 07be fa84 ba3b fc51 463e
00000040: 5fd1 6dbe 3ca0 7e3e 2544 9c3d a287 15bc
00000050: 5523 303e 2410 9dbe 74a0 26be 5f7e 02be
00000060: c9c2 cd3f 798c 27bf d86f 86be 9d8d 81be
00000070: 5bce 473f 4d84 0abe db55 4fbe 9a68 b8bb
00000080: 027a 7c3e 27b9 cf3e c553 c13d e114 cc3e
00000090: 6dbb f0bd 05a7 65bc 5574 eabe 172d 0240
000000a0: 389c 3fbf 61a8 aabe d41c 17bf 8ba1 6b3f
000000b0: 2f32 3bbe 4a62 8dbd 05b2 3bbe a415 1e3d
000000c0: 4149 b13d 8762 0dbe 085a ff3d 82f6 04bf
000000d0: 2a1f 823e 11b1 d0be 6477 213e 2461 173f
000000e0: 44f2 9b3e ea9d d23d 4b08 ccbc 0fc0 d8be
000000f0: ab43 2ebe 5478 dfbc 8c7e 553e 5033 013f
00000100: b1a2 913e 6cde 60be 7b61 c93e 2128 dcbe
00000110: 3078 543e 35e7 89be 1c16 293e f316 95be
00000120: e215 693d 9db9 babd d2ec 4f3e 8a77 563d
00000130: bf82 163e 20dc 7ebe 24f1 75be 226b 5bbe
00000140: 3f3e 3bbe 6b6e 3bbd 3e69 053e bd1a 63be
00000150: 855d 3bbd 10bd 1b3c d28f 06be a7eb 7bbe
00000160: 8f4e 87bd c09f e5bd 32cb 9c3d 7df7 67be
00000170: 19fe ccbb bf53 cdbc 0b75 66be f148 d9be
00000180: b846 a5bf 392f a1bf 2c70 033f 4fd5 913f
00000190: 5bc8 403e 8565 723f b535 adbd 98c6 18c0
000001a0: a97b c03e 38bf 643d 31ff 8cbd e612 dcbd
000001b0: ddec 053f 9397 11be 2a83 febe 4527 05bf
000001c0: e950 10bf caa8 6b3e c141 bcbf 0a04 413f
000001d0: 15d8 813f 5469 3ebe 1d9d 6a3d c08b 833e
000001e0: c287 5abe dffd 8aba 7032 5fbe 1c47 cbbd
000001f0: b836 61be 053a bebd 3a64 bb3c 611c 933d
00000200: 0bcb 60be a6f7 08be 9590 49be e10a d13d
00000210: 9ca0 1dbe cd8b 1ebe 62c6 373e f170 71be
00000220: 4d14 983e a08b 173e 7a6f 91be f46f 923e
00000230: 9c79 25bf f0f2 003f b33f 203f 4c99 813e
00000240: 21c8 47bf c4d9 8cbf f623 23bf 07a9 d8bd
00000250: d59d 573d e540 dabe bcb2 28be 7e07 87bd
00000260: 1cf6 be3d 4b8a 583e 62b6 5f3e 8ef7 ac3d
00000270: e2fc 4cbe 98a9 b93c 5d6b 663e 7f27 b2bc
00000280: e89a c4bd 1939 f93c 8b5a fd3c c35c 173e
00000290: fda6 273e 2a3e 80bd 11cf f93c c779 163d
000002a0: 8c2c 9dbe 58d4 f23d 65cf 7c3e c90b 003f
000002b0: 5bc3 b53e ac59 ff3e 05d4 e1bf 7f4e da3e
000002c0: 0966 833d 71e3 4a3f 1c57 29bf 6146 c63e
000002d0: 374c d3bc c215 24bd 4689 52be 9a4d 99be
000002e0: c5af 8f3d dbfb 203e 6325 c23e a701 da3d
000002f0: 4336 cc3e 4bc7 b4bf 1300 083f 6035 c13e
00000300: 72e7 333f 97ee c5be f621 4f3e 91ce 783e
00000310: ba73 08be c3cf 33be 5cec 5c3e b3b5 3c3d
00000320: 6a23 953e b636 27be 9d75 893d 6afa fabc
00000330: 25bd c03f 234f ffbe 65e7 c5be 270f 70be
00000340: 3429 053f 343f a83d 4fd8 6f3d 6737 553e
00000350: f7f5 3cbe 0d29 85bd 82fa 573e 189e 56be
00000360: d99d 43be 0e13 04bd 2074 213e d01a 3bbe
00000370: e313 c83d e931 893d f90a 76bd fde0 01bd
00000380: 1c3b b3bc
0.07738529 -0.153739 -0.112556525 -0.036258124 -0.05732825 0.09959704 -0.0074659255 -0.16598584
0.08385688 -0.18340947 -0.105156004 0.01159373 -0.10323067 -0.13256629 0.0056921216 0.19367212
-0.232244 0.24865812 0.07630185 -0.009126576 0.17200978 -0.30676377 -0.16272146 -0.12743519
1.6075069 -0.6544872 -0.26257205 -0.25303355 0.7804925 -0.13527031 -0.20247595 -0.005627704
0.24655917 0.40570948 0.09439806 0.3985968 -0.11754499 -0.014016871 -0.4579188 2.034002
-0.74847746 -0.33331588 -0.59028363 0.9204337 -0.18280862 -0.06903513 -0.18329628 0.038594857
0.0865655 -0.13807116 0.12468344 -0.5193864 0.254144 -0.4076009 0.157682 0.591326
0.30458272 0.10284026 -0.024906298 -0.4233403 -0.17018001 -0.027279057 0.20849055 0.5046892
0.28444436 -0.21959847 0.39332184 -0.42999366 0.20748973 -0.2693421 0.1651234 -0.2911907
0.056905635 -0.09117434 0.20305184 0.052360095 0.14698313 -0.24888659 -0.24017769 -0.21427587
-0.18285464 -0.0457596 0.13028428 -0.22178169 -0.045743484 0.009505525 -0.131408 -0.24601613
-0.06606781 -0.112121105 0.07655944 -0.22653003 -0.0062558767 -0.025064347 -0.22505586 -0.42438462
-1.2912207 -1.2592536 0.51343036 1.1393222 0.1882643 0.94686157 -0.084575094 -2.3871212
0.37594345 0.055846423 -0.068846114 -0.10745792 0.5231455 -0.14217977 -0.49709445 -0.52013046
-0.5637346 0.23013607 -1.4707566 0.7539679 1.0144068 -0.18594867 0.05727874 0.25692558
-0.2134085 -0.0010604224 -0.21796584 -0.099256724 -0.2199353 -0.0928841 0.02287494 0.07183147
-0.21952455 -0.1337572 -0.1968406 0.10207153 -0.15393299 -0.15483017 0.17946771 -0.2357824
0.29702988 0.14799356 -0.28405362 0.28601038 -0.64638686 0.50370693 0.625972 0.2531227
-0.7803975 -1.1003957 -0.6372675 -0.105791144 0.052640755 -0.42627636 -0.16474432 -0.06593226
0.093242854 0.21146505 0.21846917 0.08445655 -0.20018342 0.022663876 0.22501893 -0.021747349
-0.095998585 0.030422734 0.030926963 0.1478148 0.16372295 -0.06261857 0.030494245 0.03673723
-0.3069805 0.118569076 0.2468849 0.5001798 0.35500607 0.49873102 -1.7642828 0.42638013
0.06415946 0.792533 -0.66148543 0.3872557 -0.025793178 -0.040059812 -0.20560178 -0.29942018
0.07015947 0.15721075 0.3791915 0.106448464 0.39885148 -1.4123319 0.53125113 0.37736034
0.7027503 -0.38658592 0.20227799 0.24297549 -0.13325396 -0.17559724 0.21574539 0.04607172
0.2912858 -0.16329464 0.06711886 -0.030636985 1.5057722 -0.49865064 -0.38653103 -0.2344328
0.52015996 0.0821518 0.058555897 0.20821916 -0.18453203 -0.065019704 0.21091655 -0.20958745
-0.19103183 -0.032244734 0.15766954 -0.18271947 0.09769418 0.06698973 -0.060069058 -0.031708706
-0.021878771

layers.2.bias f4 [15]
00000000: 9e00 f7bd d504 4b3f ab4d 7e3f aba0 273e
00000010: 7268 1ebf e3c5 82bd 29b3 9ebd 7103 83be
00000020: d901 b4bd 3b88 f13c 76bc a73d aa61 71be
00000030: 9fe0 b1bd ec8b ec3e 7249 3dbe
-0.120606646 0.7930425 0.9933726 0.16369884 -0.6187812 -0.063854 -0.07749016 -0.25588563
-0.08789415 0.029483905 0.08190243 -0.23572412 -0.08685421 0.46200502 -0.18485048

layers.4.weight f4 [1, 15]
00000000: c567 423e def3 bd3f 4b80 f93f 8cba 62bf
00000010: fa7d 80bf 5ab3 f6bc 89a7 56c0 53de fc3f
00000020: b272 04be 5d79 c9bf fb07 3a3d f52a ccbf
00000030: 8ed3 a8bf addb a33f 20c3 3abe
0.18984897 1.4840047 1.9492277 -0.885659 -1.0038445 -0.030114818 -3.3539755 1.9755348
-0.12934378 -1.5740162 0.045417767 -1.595061 -1.3189561 1.2801415 -0.18238497
