model/results/skew-skew/skewness-e10000/150-150-SGD-tanh-0.001-50-e10000-skew.pt (torch, 97351 bytes, 5 tensors)

layers.0.weight f4 [150, 5]
0	0xbe115f3e	-0.14196488
1	0x3e65424f	0.22388576
2	0x3e92879a	0.2861908
3	0xbdff2321	-0.12457872
4	0xbea7e279	-0.32789972
5	0x3ee2b0ac	0.44275415
6	0xbebef858	-0.37298846
7	0xbca857a1	-0.020549597
8	0x3d6cc695	0.05780657
9	0x3eb54c36	0.35409707
10	0x3dd2a7eb	0.10285934
11	0xbe8a7a49	-0.2704642
12	0xbddfd7b5	-0.10929815
13	0x3f43e290	0.7651758
14	0x3d3959be	0.0452516
15	0xbd17002c	-0.0368654
16	0x3b19bb7c	0.0023457697
17	0x3c1f6ab9	0.0097300345
18	0x3f6c397c	0.92275214
19	0xbec448de	-0.38336843
20	0x3ed84d84	0.4224664
21	0xbd9e4450	-0.07727873
22	0xbdbeb8fe	-0.09312628
23	0x3f823906	1.0173652
24	0x3cf963a0	0.030443013
25	0x3db3ec9a	0.087853625
26	0xbeabf20a	-0.335831
27	0xbeef7dd0	-0.46775675
28	0x3b48ceab	0.0030640762
29	0xbebe2368	-0.37136388
30	0x3e01e360	0.12684393
31	0xbeb09dcf	-0.34495398
32	0x3d5a364e	0.053274445
33	0x3edb20b0	0.42798376
34	0xbeab422e	-0.3344893
35	0x3fd4ace5	1.6615263
36	0x3f45ec1b	0.77313393
37	0xbea7e77f	-0.32793805
38	0xbf806200	-1.0029907
39	0xbe034354	-0.12818652
40	0x3e97a8ec	0.29621065
41	0x3ea6e7d9	0.3259876
42	0x3ce7213c	0.02821409
43	0x3db85887	0.0900126
44	0xbe047775	-0.12936194
45	0x3e0836c5	0.13302143
46	0xbe9f4ed0	-0.31114817
47	0xbe6ac3e9	-0.22926296
48	0xbe002e2a	-0.1251761
49	0x3d9ebc07	0.07750707
50	0x3de1b997	0.110217266
51	0x3fa90184	1.3203588
52	0xbf2789f6	-0.65444887
53	0x3f39577c	0.72399116
54	0xbf2551ee	-0.6457814
55	0xbe9c1d5d	-0.30491152
56	0x3e50f9ac	0.20407742
57	0x3e47502d	0.19464178
58	0xbec29a27	-0.38008234
59	0xbea0d62d	-0.31413403
60	0xbdd4b9e7	-0.103870206
61	0xbe5285d9	-0.20558871
62	0xbe79c4ce	-0.24391481
63	0xbee56568	-0.4480393
64	0x3e7d28d6	0.24722609
65	0x3e9c6f27	0.30553553
66	0x3f515f95	0.8178647
67	0xbf4f6505	-0.8101352
68	0x3f5b7b64	0.85735154
69	0xbd81714d	-0.063204385
70	0xbfd82153	-1.688517
71	0x3f0d55f6	0.5520929
72	0x3e000308	0.12501156
73	0xbfd09fd8	-1.629878
74	0x3b356af0	0.0027682148
75	0x3d662798	0.056190103
76	0x3e43ea35	0.19132312
77	0x3e825be3	0.2546073
78	0xbf1e8551	-0.61922175
79	0x3e05ea44	0.13077646
80	0xbf30cbc3	-0.69060916
81	0xbe826e11	-0.254746
82	0x3ee480c2	0.44629484
83	0x3e44badb	0.19211905
84	0x3e92bc28	0.28659177
85	0xbe0b7cbf	-0.13621806
86	0xbe84c320	-0.2593012
87	0x3ef74c8b	0.48300585
88	0x3e879578	0.26481223
89	0xbed3c4d9	-0.4136112
90	0xbf1344c2	-0.5752679
91	0x3f25e606	0.6480411
92	0x3ed610f7	0.41809818
93	0xbee9f7b9	-0.4569681
94	0xbee27250	-0.4422784
95	0xbcf8f8b5	-0.03039203
96	0x3e42897f	0.18997763
97	0x3dacbdc4	0.084346324
98	0x3e339b8d	0.17539807
99	0x3e08e1c2	0.1336737
100	0xbf967a38	-1.1756048
101	0x3f2da0b5	0.67823344
102	0x3e61bd09	0.22044767
103	0xbf71e513	-0.94490165
104	0xbe5a3a4a	-0.21311298
105	0xbebed75e	-0.37273687
106	0xbf7921b8	-0.97317076
107	0x3f0a6bb4	0.5407059
108	0xbf378adb	-0.7169625
109	0x3ec1f70e	0.378838
110	0x3ee110c7	0.43958113
111	0x3f5da027	0.865725
112	0x3ed816cd	0.42204896
113	0xbf61b32e	-0.8816403
114	0xbe992d25	-0.29917255
115	0xbccff185	-0.02538372
116	0x3f467ac1	0.7753106
117	0xbf0cefa3	-0.55053157
118	0x3f159147	0.584248
119	0xbce85462	-0.02836055
120	0x3f80d987	1.0066384
121	0x3eea2323	0.45729932
122	0xbe6ff90b	-0.23434846
123	0xbfbc8ce8	-1.4730501
124	0x3ed1fbc0	0.41012383
125	0xbc75bd94	-0.014998812
126	0xbe118006	-0.14208993
127	0xbe06ebb4	-0.13175851
128	0xbf524a6c	-0.8214481
129	0x3e60cd88	0.21953404
130	0xbabc0046	-0.0014343343
131	0x3cab888e	0.020939138
132	0x3ef294ba	0.47379094
133	0x401703ca	2.3596063
134	0x3e2dccf8	0.1697272
135	0x3f8db7fe	1.1071775
136	0x3ee7110e	0.451302
137	0xbf45faf6	-0.7733606
138	0xbf93a5af	-1.1534938
139	0x3e738841	0.23782445
140	0xbee246ac	-0.44194543
141	0xbe9942e2	-0.2993384
142	0x3eb1fd92	0.3476377
143	0xbe6166d0	-0.22011876
144	0x3df92a3c	0.12166259
145	0x3f927d96	1.1444576
146	0xbe589a93	-0.21152715
147	0xbeeddc92	-0.46457344
148	0x3f692027	0.91064686
149	0x3e409318	0.18806112
150	0x3e7e58f8	0.24838626
151	0x3d5fc471	0.0546307
152	0xbe049cb6	-0.12950405
153	0x3f337b42	0.7010995
154	0xbe0cab55	-0.13737233
155	0x3fa0aed6	1.2553356
156	0x3f05d3d7	0.52276367
157	0xbf1f9d4c	-0.6234939
158	0xbf68f871	-0.9100409
159	0xbe04fb96	-0.12986597
160	0xbf02b273	-0.5105354
161	0x3e5e6cd8	0.21721208
162	0xbbbb2b9f	-0.005711987
163	0x3c0f8272	0.008759128
164	0x3deb4e00	0.11489487
165	0xbed8e3e9	-0.42361382
166	0xbed26f42	-0.41100508
167	0x3e3ff016	0.1874393
168	0x3e7e122d	0.24811621
169	0xbe9cf5dd	-0.3065633
170	0xbe0595c5	-0.13045414
171	0x3badf5c4	0.0053088386
172	0x3de90e49	0.11379678
173	0xbe4e86fb	-0.20168678
174	0xbe725698	-0.23665845
175	0xbd7b53da	-0.061359264
176	0x3ec3df67	0.3825638
177	0x3e31c061	0.17358543
178	0x3f957359	1.1675826
179	0xbf23016d	-0.6367405
180	0x3e7a03d1	0.24415518
181	0xbf1b8cfc	-0.60762
182	0x3e7e6c6c	0.24846047
183	0xbf7faf1f	-0.9987659
184	0xbe506d34	-0.20354158
185	0x3eca54e5	0.39517894
186	0x3ef27336	0.47353524
187	0xbe6757b4	-0.2259205
188	0x3ed3bcc7	0.41354963
189	0xbe80a919	-0.2512901
190	0x3dd00641	0.10157443
191	0xbdcee68a	-0.101025656
192	0xbe2f2f8d	-0.17107983
193	0x3f3affaf	0.7304639
194	0xbe25fbc5	-0.16209324
195	0xbebf6681	-0.37382892
196	0x3dd5769d	0.10423014
197	0x3c90705d	0.017631704
198	0xbf81e7fb	-1.014892
199	0x3e0ba27f	0.13636206
200	0x3e82c3c3	0.2553998
201	0xbeab4131	-0.33448175
202	0xbd830cd4	-0.06398931
203	0xbc8f0119	-0.017456578
204	0xbb8cdae8	-0.0042985566
205	0xbced9b1a	-0.029004622
206	0xbe24069a	-0.16018143
207	0x3db22e71	0.08700264
208	0x3fddb4c7	1.7320794
209	0x3e217f13	0.15771131
210	0xbdd975ec	-0.10618195
211	0x3f04d05b	0.51880425
212	0x3e8027cf	0.25030372
213	0xbe0a218c	-0.1348936
214	0xbe841971	-0.2580066
215	0xbdfd44f2	-0.12366666
216	0x3e97780d	0.2958378
217	0x3ee0b0dd	0.43884936
218	0x3f438579	0.7637554
219	0x3eb72805	0.3577272
220	0xbec51302	-0.38491064
221	0xbe0ca761	-0.13735725
222	0x3ebf26d0	0.373343
223	0x3e4f9378	0.20271099
224	0xbe95e2c8	-0.29274583
225	0x3e76f6a2	0.2411752
226	0xbee24634	-0.44194186
227	0x3e7ced1c	0.24699825
228	0x3ce874c8	0.028375998
229	0xbdca3332	-0.09873046
230	0x3e30feae	0.17284653
231	0x3e1e3ed0	0.15453649
232	0xbccf2ca7	-0.025289847
233	0x3f0fa551	0.5611163
234	0xbe4cca86	-0.19999132
235	0xbcbc35ba	-0.022974838
236	0x3baf7579	0.00535458
237	0xbcffc5d7	-0.031222267
238	0xbf50aeec	-0.8151691
239	0x3e2cc390	0.16871476
240	0x3e7cf412	0.2470248
241	0xbe92f7ff	-0.2870483
242	0xbeeb8318	-0.45998454
243	0x3f514d3c	0.81758475
244	0x3ea5d06d	0.3238558
245	0xbf723497	-0.94611496
246	0xbf314e2e	-0.6925992
247	0x3f4070ba	0.7517201
248	0xbfa6f610	-1.3043842
249	0xbe62add9	-0.2213663
250	0xbf0447c0	-0.5167198
251	0x3d4dd87c	0.050255284
252	0x3ee0ebaa	0.43929797
253	0x3f913904	1.1345525
254	0x3e889522	0.2667628
255	0x3c8736ff	0.016505716

layers.0.bias f4 [150]
0	0xbe9bd9c1	-0.3043957
1	0x3ea76725	0.3269588
2	0x3dd10cac	0.10207495
3	0x3e3c855d	0.18410249
4	0x3be42dfa	0.0069634886
5	0xbe509ade	-0.20371577
6	0x3e873773	0.26409492
7	0x3ed61999	0.41816404
8	0xbeb51012	-0.35363823
9	0xbedab72a	-0.42717868
10	0x3f28b358	0.65898657
11	0x3d227abb	0.039667826
12	0xbed6df73	-0.41967353
13	0x3efc0e92	0.49229866
14	0x3eafee6a	0.34361583
15	0xbef6fa72	-0.4823795
16	0xbe65ad17	-0.2242931
17	0x3e93ab39	0.2884157
18	0x3e927fe9	0.28613213
19	0x3e2a3c68	0.16624606
20	0x3eaddaa0	0.3395586
21	0xbed292cb	-0.4112762
22	0x3dbe604d	0.09295712
23	0x3e499fcc	0.19689864
24	0xbe859d64	-0.26096642
25	0x3d24c152	0.040223427
26	0xbe445415	-0.191727
27	0x3eda434e	0.42629474
28	0xbd4769fb	-0.048685055
29	0xbde34b65	-0.11098365
30	0xbe6b0144	-0.22949702
31	0x3f079d1c	0.52974105
32	0x3cac9a83	0.02106977
33	0xbe9f2a7f	-0.3108711
34	0xbecafcbb	-0.39645943
35	0xbdcf73ef	-0.101295345
36	0x3e8937c4	0.26800358
37	0x3cd72d0b	0.026266595
38	0x3ea6ffc9	0.32617024
39	0xbe4dda4d	-0.20102806
40	0xbe6161a9	-0.2200991
41	0x3d01f5de	0.031728618
42	0x3e23e7f8	0.16006458
43	0xbe3ca009	-0.18420424
44	0xbece3ffe	-0.40283197
45	0x3e36ecc1	0.17863752
46	0x3d5b0b5d	0.053477634
47	0xbec9d82e	-0.39422745
48	0x3e4404b0	0.19142413
49	0x3dc4d0b3	0.09610119
50	0xbe37d7a3	-0.17953353
51	0x3c47ad59	0.012187325
52	0x3d64d048	0.055862695
53	0x3d6ab744	0.057303682
54	0x3d586c30	0.05283755
55	0x3eaa4f3a	0.3326357
56	0xbdeecec9	-0.11660535
57	0x3e86cfa2	0.26330286
58	0x3d90abcd	0.070640184
59	0xbea5edc9	-0.32407978
60	0x3d88b5b9	0.06675286
61	0xbe4d2bf5	-0.200363
62	0xbf0c963a	-0.5491673
63	0xbee21188	-0.44154
64	0x3ebad1d2	0.36488205
65	0x3d42e823	0.047584664
66	0x3ec0b89f	0.37640855
67	0x3d56cf83	0.052443992
68	0x3bf56987	0.0074893865
69	0x3e5ce838	0.2157296
70	0xbded5936	-0.11589281
71	0xbe7e13d2	-0.24812248
72	0x3e59ba56	0.21262488
73	0xbf637e28	-0.88864374
74	0x3e06dde2	0.13170579
75	0x3dad9695	0.08475987
76	0x3d9771a9	0.07394726
77	0x3d93928d	0.07205687
78	0xbeab3fb1	-0.3344703
79	0xbd57e338	-0.052706927
80	0x3eac5681	0.33659747
81	0x3e8c18d6	0.27362698
82	0x3e1e10ed	0.15436144
83	0x3ed84bb5	0.4224526
84	0xbec68089	-0.3876994
85	0x3dec7982	0.11546613
86	0xbc1a78cd	-0.009428215
87	0xbbb95db9	-0.0056569246
88	0x3e09c3aa	0.13453546
89	0x3e8ee173	0.2790638
90	0x3ddb1a70	0.10698402
91	0x3e2f5f03	0.17126088
92	0xbd9c8cda	-0.07644053
93	0xbdab7f45	-0.08373884
94	0xbea6a336	-0.32546395
95	0x3d3a63af	0.045505222
96	0x3ef6de45	0.48216453
97	0xbc92c256	-0.017914932
98	0x3d953187	0.07284837
99	0x3eac0dae	0.33604187
100	0xbe9d3656	-0.30705518
101	0x3e890c7c	0.26767337
102	0x3f4b3496	0.79377115
103	0x3f17b3cf	0.5925874
104	0xbea46bf6	-0.32113618
105	0x3d62cd11	0.055371348
106	0x3d6920f5	0.056916196
107	0xbeae9b0f	-0.34102675
108	0x3cecc2da	0.028901506
109	0xbd432aee	-0.047648363
110	0x3eb40374	0.35158885
111	0xbe94a007	-0.2902834
112	0xbf1c2bd6	-0.6100439
113	0xbdb4a814	-0.08821121
114	0xbe2edac8	-0.17075646
115	0xbe525815	-0.20541413
116	0xbe8e7a3d	-0.27827635
117	0x3eb7c2d4	0.3589083
118	0x3e911dbd	0.28343
119	0xbe0c9b8f	-0.13731216
120	0x3e072998	0.1319946
121	0x3be4dc82	0.0069842944
122	0x3e571df1	0.21007515
123	0xbe8d3c7f	-0.27585217
124	0xbea0c730	-0.31401968
125	0xbefe8bdd	-0.49716082
126	0xbe9c9ed1	-0.30589917
127	0x3dea8c05	0.11452488
128	0x3f03527f	0.51297754
129	0xbebb18d2	-0.36542374
130	0x3cef7eb9	0.02923523
131	0x3e340f10	0.17583871
132	0xbeaf9658	-0.3429439
133	0x3ea4ec0d	0.32211342
134	0xbf52a20e	-0.82278526
135	0x3d8be0f3	0.06830015
136	0x3ea53529	0.3226712
137	0xbee6107a	-0.44934446
138	0x3e8b4c3c	0.272066
139	0xbd76288e	-0.06009727
140	0xbd6e7751	-0.058219258
141	0x3ec549ee	0.38532966
142	0x3e88adbe	0.26695055
143	0x3e6b8341	0.22999288
144	0x3d817c2c	0.06322512
145	0xbdf643d5	-0.12024657
146	0xbe4848bc	-0.19558996
147	0x3e10c2d3	0.1413682
148	0xbca6867e	-0.020327803
149	0x3e96d2aa	0.294576

layers.2.weight f4 [150, 150]
0	0x3d1d7947	0.038445737
1	0x3d923f1b	0.07140943
2	0xbd9a755d	-0.075419165
3	0x3becc6d9	0.007225853
4	0xbcd80e0d	-0.026373887
5	0x3cab2650	0.020892292
6	0x3d67a0d8	0.056549877
7	0x3cb73f58	0.022369072
8	0xbd3e69f4	-0.046487764
9	0xbd8b8aaa	-0.068135574
10	0x3d9139c5	0.07091097
11	0xbd342dfc	-0.043989167
12	0x3d8d2ee1	0.06893707
13	0x3d0748f5	0.03302856
14	0xbd9f7072	-0.07785119
15	0x3bc6d5a5	0.006067949
16	0xbdc3c9f5	-0.095600046
17	0xbd692f51	-0.05692989
18	0x3d0082aa	0.03137461
19	0xbd121b6d	-0.035670687
20	0xbcade3fb	-0.021226874
21	0xbcdac21e	-0.02670389
22	0x3c3ac52e	0.01139955
23	0xba3c89d5	-0.00071921694
24	0x3d4ef518	0.05052671
25	0xbd002520	-0.031285405
26	0x3a97b28a	0.0011573595
27	0x3af6a702	0.0018818083
28	0xbdad7404	-0.08469394
29	0xbd342e2f	-0.043989357
30	0xbd5e90e9	-0.054337416
31	0x3cb57120	0.022148669
32	0x3c0710fb	0.008243795
33	0xbbeb6d1c	-0.0071846377
34	0xbcf01ded	-0.029311145
35	0xbd8ea54c	-0.069651216
36	0x3d68c9c0	0.05683303
37	0x3c358f94	0.011081595
38	0x3d017d70	0.031613767
39	0x3db3a58c	0.0877181
40	0xbd446218	-0.047945112
41	0x3d092a3b	0.03348754
42	0x3d930dfa	0.071804
43	0x3da0b9a7	0.078479104
44	0xbc4103a7	-0.011780656
45	0x3d1d04fc	0.03833483
46	0x3c8f01b8	0.017456874
47	0x3d87df13	0.06634345
48	0xbcd1b716	-0.025599997
49	0xbd9acf86	-0.07559113
50	0xbd69b95b	-0.057061534
51	0x3b74c035	0.003734601
52	0xbd87bc03	-0.06627657
53	0xbdafcb2d	-0.085836746
54	0x3d8d8393	0.069098614
55	0x3d4673e5	0.04845037
56	0x3c518a88	0.012789376
57	0xbd920536	-0.071299
58	0x3cf085af	0.02936062
59	0xbd7bdada	-0.06148801
60	0xbd8b48f5	-0.06801025
61	0x3d846bae	0.06465851
62	0xbd078f4d	-0.033095647
63	0xbd141c17	-0.0361596
64	0xbdbeab58	-0.09310025
65	0x3d8c2a1c	0.06843969
66	0xbcde961b	-0.027171185
67	0xbd404ac8	-0.046946317
68	0xbd9303ce	-0.0717846
69	0xba2e8d48	-0.0006658626
70	0xbd7fbac8	-0.062433988
71	0x3da09704	0.07841304
72	0x3c17b9c6	0.0092606
73	0xbd8c3efe	-0.06847952
74	0xbc4831b9	-0.012218886
75	0xbca62286	-0.020280134
76	0x3d419303	0.047259342
77	0x3cdd91af	0.027047006
78	0x3d60ea1d	0.054910768
79	0x3d1bb866	0.038017653
80	0xbb8ae9c7	-0.004239294
81	0xbd93c4be	-0.0721526
82	0x3a04dc60	0.0005068239
83	0xbd94d589	-0.07267291
84	0x3d798981	0.06092215
85	0xbcfc1189	-0.03077008
86	0x3a9d2e98	0.0011992035
87	0x3d8483ab	0.06470426
88	0xbd0b0d48	-0.033948213
89	0x3c3c3804	0.011487965
90	0xbd334702	-0.04376889
91	0xbb5e5167	-0.0033923031
92	0x3d01a237	0.03164884
93	0x3d822426	0.06354551
94	0x3d149b42	0.036280878
95	0x3c2819bc	0.010260042
96	0x3cc831d9	0.024437832
97	0x3d46dbe5	0.04854955
98	0x3c763744	0.015027825
99	0xbd102632	-0.035192676
100	0x3d40bb41	0.04705358
101	0xbc3acb6c	-0.011401039
102	0xbd4aae29	-0.0494825
103	0xbd9cdd02	-0.076593414
104	0x3d46781c	0.04845439
105	0x3d29bdce	0.041440777
106	0xbd78661a	-0.060644247
107	0x3cc5f3cb	0.024164101
108	0x3d967b08	0.07347685
109	0xbd9e3ec6	-0.07726817
110	0xbd6af3bc	-0.05736135
111	0xbc9f5d45	-0.019453654
112	0xbd77ae8a	-0.060469188
113	0xbd6b69da	-0.057473995
114	0x3da865cb	0.082225405
115	0x3d9852b4	0.07437649
116	0xbceab9f9	-0.028653132
117	0x3c5f46ed	0.01362775
118	0x3d781d42	0.060574777
119	0xbd3f7e08	-0.046751052
120	0xbd87d77a	-0.06632896
121	0x3d2680df	0.040650245
122	0xbbfa860b	-0.0076453737
123	0x3cb61d36	0.022230726
124	0x3cfb1e13	0.030653989
125	0xbce04229	-0.027375298
126	0x3d883c5f	0.0665214
127	0x3b8a0e1e	0.0042131087
128	0x3bf923ca	0.0076031433
129	0xbd42db0b	-0.047572177
130	0x3ceb3c07	0.028715147
131	0x3d9a31af	0.07529008
132	0x3d40fc6b	0.047115725
133	0xbd41e0d5	-0.047333557
134	0x3cb645a6	0.022250008
135	0x3d89c6f5	0.06727401
136	0xbd5d2da7	-0.053998616
137	0x3d59f5cb	0.053212922
138	0x3d4385f2	0.047735162
139	0x3d2659ed	0.040613104
140	0xbc78f114	-0.015194196
141	0xbdbc5434	-0.09195748
142	0x3d1cd47e	0.038288586
143	0xbd15168a	-0.036398448
144	0xbd14a5b0	-0.036290824
145	0x3d89ade6	0.067226216
146	0xbd8b8bad	-0.068137504
147	0xbd6645c2	-0.05621887
148	0x3d4c75ed	0.04991715
149	0xbc4f0ac8	-0.012636848
150	0x3e0bab0a	0.13639465
151	0xbe0740e7	-0.13208352
152	0x3d8bb9b2	0.06822528
153	0xbc882377	-0.016618473
154	0x3d8e3542	0.06943752
155	0x3d8f5d13	0.070001744
156	0xbd0483bf	-0.032352205
157	0xbd182f43	-0.037154447
158	0xb9186d07	-0.00014536465
159	0x3d24c66b	0.04022829
160	0xbc02af78	-0.007976405
161	0xbc3621c3	-0.011116448
162	0x3dc76cad	0.09737525
163	0x3d41e982	0.04734183
164	0xbdc5846b	-0.09644397
165	0xbd13dc4d	-0.036098767
166	0xbd044fd5	-0.032302696
167	0xbddcb2f3	-0.10776319
168	0xbd66432b	-0.0562164
169	0xbce9dbc5	-0.028547177
170	0x3d516581	0.051122192
171	0xbcb5ff2e	-0.022216406
172	0xbd3f251b	-0.046666246
173	0xbc72b553	-0.014813739
174	0x3d27d80c	0.040977523
175	0xbdc1aa33	-0.09456291
176	0x3da95c6a	0.0826958
177	0xbdd154bd	-0.10221241
178	0xbe085e75	-0.13317282
179	0x3c46ed13	0.012141484
180	0x3dbc4754	0.09193292
181	0xbcbe68a8	-0.023243263
182	0xbcc24c6c	-0.023718081
183	0x3dd6ddfc	0.10491559
184	0x3da0c9a4	0.0785096
185	0x3c420da4	0.0118440725
186	0x3ca52fcd	0.020164395
187	0x3cb7b596	0.022425454
188	0x3d72b3ce	0.059253506
189	0x3da93490	0.082619786
190	0x3d5eb5db	0.05437265
191	0x3cd72bd8	0.026266024
192	0xbd85cf34	-0.065336615
193	0xbd184186	-0.037171863
194	0x3df2c602	0.11854173
195	0xbddb68a6	-0.107133195
196	0xbb9e9049	-0.0048389775
197	0x3df93f1d	0.12170241
198	0xbc2255da	-0.009908164
199	0xbd90107e	-0.07034396
200	0xbc716a2d	-0.014734787
201	0xbd3ac01e	-0.045593373
202	0x3b71d67b	0.0036901522
203	0x3c525c94	0.012839455
204	0xbcc478cd	-0.023983384
205	0x3cd19bf8	0.025587067
206	0xbd084565	-0.033269305
207	0x3bbf97c5	0.0058469498
208	0xbdb15e55	-0.086605705
209	0xbcc29251	-0.02375141
210	0xbd6a9bf8	-0.05727765
211	0x3dc18b45	0.09450392
212	0x3e040c67	0.12895356
213	0x3e01d17b	0.12677567
214	0xbce8522f	-0.0283595
215	0xbc9d22b5	-0.019181589
216	0xbd9c4c98	-0.076317966
217	0x3c845bf3	0.016157126
218	0xbc5f665b	-0.013635243
219	0xbcff1093	-0.031135833
220	0xbd04104b	-0.0322421
221	0x3d85d49f	0.06534695
222	0xbd407eba	-0.046995856
223	0x3deb6663	0.11494138
224	0xbde88f0f	-0.11355411
225	0xbda917c0	-0.08256483
226	0xbc85cf23	-0.016334122
227	0x3ce6549f	0.028116522
228	0x3dac3e8f	0.084103696
229	0x3d6ebee7	0.058287527
230	0x3d080fdb	0.033218246
231	0xbdb8d5a9	-0.090251274
232	0xbdda6231	-0.1066326
233	0xbd80fbaa	-0.06298001
234	0x3dc2e5d6	0.09516494
235	0xbdb06d93	-0.086146496
236	0xbc96059c	-0.018313222
237	0x3dba9193	0.09109797
238	0xbdde08be	-0.10841511
239	0xbdda1aa7	-0.10649615
240	0x3ae66f90	0.0017580856
241	0x3dca4321	0.09876085
242	0x3cc53dbe	0.024077293
243	0xbd7a8eaa	-0.06117121
244	0x3d9e41e9	0.07727415
245	0xbd97723c	-0.07394835
246	0xbd72eb76	-0.059306584
247	0xbd83b1da	-0.06430407
248	0xbdb490b6	-0.08816664
249	0xbd88feff	-0.06689262
250	0x3db4a8c2	0.088212505
251	0xbd3c00b8	-0.045899123
252	0xbde29399	-0.11063308
253	0xbe0911ba	-0.13385668
254	0xbd0dfe64	-0.034666434
255	0xbbc50ad0	-0.006013252

layers.2.bias f4 [150]
0	0xbd023dba	-0.03179715
1	0xbe019e12	-0.12657955
2	0xbd659c75	-0.056057412
3	0xbe28cf4c	-0.16485327
4	0xbc8dbdc6	-0.017302405
5	0x3d7186b3	0.05896635
6	0x3d8b70be	0.06808613
7	0xbdaf438c	-0.085578054
8	0x3d5395e2	0.05165661
9	0xbda70f76	-0.08157246
10	0x3da5af1a	0.080900386
11	0x3caf69df	0.021412788
12	0x3df6b2df	0.12045836
13	0xbd1e6adf	-0.03867614
14	0xbcea71c2	-0.028618697
15	0x3dd25f19	0.10272045
16	0xbc2677c0	-0.010160387
17	0x3dd6c088	0.10485941
18	0x3cd3c8ae	0.025852527
19	0x3cd1bc30	0.02560243
20	0x3d672a28	0.056436688
21	0xbda7b67a	-0.081891015
22	0x3ddef135	0.1088585
23	0xbcdc7644	-0.026911862
24	0xbd00b0e7	-0.031418707
25	0x3ce46b3e	0.027883168
26	0x3cb20eb6	0.02173553
27	0x3c6cd5e5	0.014455293
28	0x3e0aee2e	0.13567421
29	0xbda1a993	-0.07893672
30	0x3c1f0e75	0.009708037
31	0xbd083eeb	-0.03326313
32	0x3b073868	0.0020632986
33	0xbccff79c	-0.025386624
34	0x3cdb64ec	0.026781522
35	0x3d9cf5b8	0.07664055
36	0xbd8ec21d	-0.06970618
37	0xbdb08d14	-0.086206585
38	0x3ba33b5c	0.0049814414
39	0xbe01a479	-0.12660398
40	0xbd6fa5a1	-0.058507565
41	0x3d7a0790	0.06104237
42	0xbd33a0de	-0.043854587
43	0xbdb88775	-0.090102114
44	0xbcab257f	-0.020891903
45	0x3c71d39f	0.014759927
46	0x3ca58d3d	0.02020895
47	0x3c15b9e2	0.009138556
48	0xbdcc22a2	-0.09967543
49	0x3d49698e	0.04917293
50	0x3da0fc45	0.078606166
51	0xbc137c71	-0.009001837
52	0xbdc5f48b	-0.096657835
53	0xbda02b95	-0.078208126
54	0xbdb59f14	-0.08868232
55	0xbe21d6bf	-0.15804575
56	0xbc0e0845	-0.008668964
57	0x3d6fe931	0.058571998
58	0xbdf05444	-0.117348224
59	0xbc9d23d7	-0.019182129
60	0xbc3a13f9	-0.011357301
61	0x3d9a7788	0.0754233
62	0x3ba2b715	0.0049656727
63	0x3c53d080	0.012928128
64	0x3cd6f17a	0.026238192
65	0xbde97804	-0.11399844
66	0xbd8835bf	-0.06650876
67	0x3bd7285c	0.0065660905
68	0xbcc93b88	-0.02456452
69	0xba56bec0	-0.0008191876
70	0x3b9f1dd3	0.0048558502
71	0xbd16d28a	-0.03682188
72	0xbc4cb77d	-0.012494919
73	0x3cef81dc	0.029236726
74	0x3d40c312	0.047061034
75	0x3d8656f7	0.06559556
76	0xbdd8e426	-0.10590391
77	0xbcb3b137	-0.021935089
78	0x3e06b400	0.13154602
79	0xbc5c3650	-0.0134406835
80	0xbd1e1e75	-0.038603265
81	0x3f0777db	0.5291726
82	0xbb624112	-0.0034523648
83	0xbc9ba0d4	-0.018997587
84	0x3c85dded	0.016341174
85	0xbd49457e	-0.04913854
86	0xbcc04e52	-0.023474846
87	0x3d974ff7	0.07388299
88	0xbd0a710c	-0.033799216
89	0xbb3ddbf1	-0.0028970207
90	0x3d95a6da	0.07307215
91	0xbd09b2d1	-0.0336178
92	0xbd724296	-0.059145533
93	0x3d710cee	0.05885022
94	0x3dddc49e	0.108285174
95	0x3c844059	0.016143965
96	0x3a0db0b4	0.0005405054
97	0xbcb77549	-0.022394793
98	0xbdd858b4	-0.10563794
99	0xbde699a8	-0.11259776
100	0x3d382e61	0.044966105
101	0xbd015d49	-0.031583104
102	0x3d66614d	0.056245137
103	0x3a792932	0.0009504735
104	0xbcd86d86	-0.026419412
105	0x3c5f3f3d	0.013625917
106	0x3b88c776	0.004174168
107	0x3d7cb21b	0.061693292
108	0xbd28488e	-0.04108482
109	0xbd9d2310	-0.07672703
110	0x3d68e957	0.056863155
111	0x3c8101af	0.015747873
112	0x3d3fdbc8	0.04684046
113	0x3e923400	0.28555298
114	0x3be46a56	0.006970684
115	0xbe280080	-0.1640644
116	0xbd76edfd	-0.060285557
117	0xbd44327f	-0.04789972
118	0x3d82d8fa	0.06389041
119	0xbd172208	-0.03689769
120	0x3d6e8595	0.058232863
121	0xbd2f1aae	-0.042750053
122	0x3c19f320	0.009396344
123	0x3d92743e	0.07151078
124	0xbc37bd7a	-0.011214608
125	0x3dde85a2	0.10865332
126	0x3e210c86	0.15727434
127	0xbd97fa90	-0.07420838
128	0xbd699459	-0.05702624
129	0x3cae4722	0.021274153
130	0xbdcd9c84	-0.100396186
131	0x3e6d1827	0.23153745
132	0xbd075919	-0.033043955
133	0xbd998737	-0.07496493
134	0x3cdbd36a	0.026834209
135	0xbd7619b7	-0.060083117
136	0xbbc815c9	-0.0061061126
137	0xbd818198	-0.06323546
138	0x3d47a0b7	0.048737254
139	0xbdc11fda	-0.09429903
140	0xbc2953cf	-0.010334923
141	0xbde3feff	-0.11132621
142	0x3d809b65	0.06279639
143	0x3dd1c678	0.10242933
144	0x3d32361a	0.043508627
145	0x3d8abc25	0.06774167
146	0xbd0d05d5	-0.03442939
147	0x3b6c87a0	0.003609158
148	0xbde6cc18	-0.112693965
149	0xbdc7a4d2	-0.09748234

layers.4.weight f4 [1, 150]
0	0xbdec68c1	-0.11543418
1	0xbee1ebc7	-0.44125196
2	0xbe2d2250	-0.1690762
3	0x3f578935	0.84193736
4	0x3caa476b	0.020786008
5	0x3cfa1f62	0.030532543
6	0x3e166442	0.14686683
7	0xbd948007	-0.07250982
8	0x3d11e5e5	0.035619635
9	0xbd61a727	-0.05509105
10	0x3d1d6ac1	0.038431887
11	0xbd572fe0	-0.05253589
12	0x3f04b535	0.51839
13	0xbd022eb3	-0.031782817
14	0xbe3c7f48	-0.18407929
15	0x3e0ff217	0.14057194
16	0xbbce35e0	-0.0062930435
17	0x3e3ba082	0.18322948
18	0x3d17e11c	0.037079915
19	0xbd152aad	-0.036417652
20	0xbd90ae07	-0.07064443
21	0xbe5c63eb	-0.2152249
22	0x3e531bc0	0.20616055
23	0x3bd892be	0.00660929
24	0x3d6f0062	0.058349974
25	0x3e0538ea	0.13009992
26	0x3db9f612	0.09080137
27	0xbde719bb	-0.112842046
28	0x3e47b86b	0.19503944
29	0xbd2abaf0	-0.041682184
30	0x3ee21bf6	0.44161958
31	0xb9e86fc1	-0.0004433375
32	0xbcc96513	-0.024584329
33	0x3f145f37	0.57957786
34	0xbd216e0e	-0.039411597
35	0x3d231cae	0.039822273
36	0xbd9beec2	-0.07613899
37	0xbdd799b4	-0.105273634
38	0x3df58988	0.11989123
39	0xbecacdb4	-0.39610064
40	0xbd1b639a	-0.037936784
41	0x3fe1d05c	1.7641711
42	0xbd820f57	-0.06350582
43	0xbd93a673	-0.07209482
44	0x3e035d47	0.12828551
45	0xbde07f7d	-0.109618165
46	0x3d44577f	0.047935005
47	0xbd642065	-0.055694956
48	0xbe47e445	-0.19520672
49	0x3d5f8d8d	0.054578353
50	0x3f17723b	0.59158677
51	0x3dd2c80e	0.10292064
52	0xbd858050	-0.06518614
53	0xbdcfbde6	-0.10143642
54	0x3f36d6f3	0.71421736
55	0xbe81e079	-0.25366572
56	0xbcbbca98	-0.022923753
57	0xbc7e1b4a	-0.015509436
58	0xbe37f8c0	-0.17965984
59	0x3d77e778	0.06052348
60	0x3d78e745	0.06076743
61	0x3d9b9466	0.07596664
62	0xbe233912	-0.1593974
63	0xbcc87559	-0.024470018
64	0x3d830953	0.06398263
65	0xbe6be4c3	-0.23036484
66	0xbe9759a7	-0.29560587
67	0x3ce745a0	0.028231442
68	0xbd126fa0	-0.035750985
69	0x3cc3b267	0.02388878
70	0x3e372642	0.17885688
71	0xbeb83a7c	-0.3598212
72	0x3c653af7	0.013991109
73	0x3c2ff69c	0.010739949
74	0x3f066466	0.52496946
75	0x3ce6ea0a	0.02818777
76	0x3f1afa73	0.60538405
77	0xbb33ade1	-0.0027416872
78	0x3e358454	0.1772626
79	0x3d1bf3d7	0.03807434
80	0x3d1049b1	0.035226528
81	0xc0b29b55	-5.5814614
82	0x3ccab20f	0.024743108
83	0x3dc20cc5	0.09475092
84	0xbdd12fd9	-0.10214204
85	0xbcb8bff8	-0.022552475
86	0xbde42ae6	-0.11140995
87	0x397f4e5b	0.00024347885
88	0xbd8df5ad	-0.069316246
89	0xbd94353d	-0.07236717
90	0x3ecea803	0.40362558
91	0x3e0e51a5	0.13898332
92	0x3bff7656	0.007796089
93	0x3b9310e3	0.004488097
94	0x3e972d9f	0.29526994
95	0x3d639175	0.05555864
96	0x3ca19d29	0.01972826
97	0xbe903ff9	-0.28173807
98	0xbd27cba8	-0.040965706
99	0xbed799ea	-0.42109615
100	0x3d209d37	0.03921243
101	0xbd74fd4d	-0.05981188
102	0x3d3e4f82	0.046462543
103	0x3d7b547a	0.06135986
104	0xbd04fe61	-0.032469157
105	0x3edae7c4	0.42754948
106	0x3d0bf529	0.03416935
107	0x3e9137ae	0.28362793
108	0xbce61786	-0.028087389
109	0xbd9be707	-0.07612424
110	0x3d5e510b	0.054276507
111	0x3d41c90b	0.04731087
112	0xbcd065ec	-0.025439225
113	0x3f19652c	0.5992
114	0xbe0b98d8	-0.13632524
115	0xbecfc522	-0.40580088
116	0xbccc712c	-0.024956308
117	0xbcf60b75	-0.03003476
118	0x3d0924f8	0.03348252
119	0x3ddeb919	0.10875148
120	0x3c0859e9	0.0083222175
121	0x3f5d037f	0.8633346
122	0x3e0971b4	0.1342228
123	0x3dd676dd	0.1047189
124	0x3d591a34	0.053003505
125	0xbf949787	-1.1608742
126	0x3fc8c3f4	1.56848
127	0xbf01e642	-0.5074197
128	0xbd876050	-0.06610167
129	0xbe820173	-0.2539173
130	0xbdbdb9f0	-0.092639804
131	0xbfd2fe48	-1.648385
132	0xbe20e52c	-0.15712422
133	0xbeac131e	-0.33608335
134	0x3d96a857	0.07356327
135	0xbd9d02ff	-0.07666587
136	0xbd1aae8b	-0.037764113
137	0x3cfeca9e	0.031102475
138	0xbd5c475e	-0.053779
139	0xbea1a60f	-0.31572005
140	0x3d851ab0	0.06499231
141	0xbe47f190	-0.19525743
142	0x3dcde375	0.100531496
143	0x3da4a3af	0.08039033
144	0x3f251f71	0.645011
145	0x3e5f097b	0.2178096
146	0xbd3d2710	-0.04617983
147	0xbd4bbdf5	-0.049741704
148	0xbe16d0d6	-0.14728102
149	0xbea9f33d	-0.3319339
