model/results/skew-skew/skewness-e10000/20-20-SGD-relu-0.001-50-e10000-skew.pt (torch, 4791 bytes, 5 tensors)

layers.0.weight f4 [20, 5]
00000000: 3ed1 803f fa62 163d 0d9f 813e 6faf bebd
00000010: 3f6b 073b 414d e63d b8fb a1bc 1b51 023f
00000020: 6f39 c03f 4843 9a3d 3b44 3abd 3741 23be
00000030: 2ee8 08bf b616 ac3f 2e41 b7bd f51b 553f
00000040: 2dda b33d 8b94 a5be d808 cabf be87 e73c
00000050: 0556 61be 47e2 2e3e 62ae 613f f044 d8c0
00000060: 9871 313e d475 e9be 9071 be3c 3de2 523f
00000070: 48f3 dd3e c9e7 4dbe 2a60 d23e a84d f5bd
00000080: 22ce f6be d9d2 1f3f 22fe ffbd 2edf 3cbf
00000090: 0883 133d ca1a 903d 87db 04c0 b12a 633b
000000a0: afc6 ae3e a189 04bf 6932 33be a37f a1be
000000b0: 19a9 c8bd b543 1cbf 88a5 27be f281 cf3e
000000c0: 8fce 353f 5ed3 0c3e c7d9 e0bc 90a7 2fbe
000000d0: e5d2 1b3e 0faa 0d40 4a04 613d c427 9a3d
000000e0: b49f 35be 2d42 403d 9c99 efbe 1dcf 0c3e
000000f0: 9128 5e3e e96f b43d e77d 0fbd 631f a9c0
00000100: 7719 40bc ceb1 70be 6cff 1abe f921 fd3d
00000110: a464 37be 8129 e6be bd73 173f b646 083f
00000120: 2066 a93e d49c 4ebe 9e79 de3e 9b30 303f
00000130: 8c9e 453e e5c0 dfbe 9a0f 00bf 8f2c e6bd
00000140: 37e1 66bf 2df7 0bbc 0872 57be 82f7 49bd
00000150: 1eff 9b3a 085d 7dbe e95c d0bd e8b5 ba3d
00000160: e466 2840 8bae 123d 284c f43e 8784 d4be
00000170: 235b 3c3e d47a c83e 925a 00bb 3ae6 f1bb
00000180: f8a6 b23e c7d6 c43e 9c70 0d3f f7c3 a43d
1.0063856 0.036715485 0.2531666 -0.09310805 0.002066329 0.11245204 -0.01977335 0.5090501
1.5017527 0.07532364 -0.045475226 -0.15942846 -0.5347928 1.3444431 -0.08947979 0.83245784
0.08781848 -0.32339892 -1.5783949 0.02826297 -0.2200547 0.17078505 0.8815671 -6.758415
0.17328489 -0.45597708 0.02324751 0.8237646 0.4334967 -0.2010795 0.41088992 -0.119777024
-0.48204142 0.62431103 -0.12499644 -0.73778045 0.036013633 0.070363596 -2.075899 0.0034662897
0.3413596 -0.51772505 -0.17499699 -0.31542692 -0.09797878 -0.6104081 -0.16371739 0.40528828
0.7101831 0.13752505 -0.027447594 -0.17153764 0.15217169 2.2135046 0.05493573 0.07527116
-0.17736703 0.04693811 -0.46796882 0.13750882 0.21695162 0.08810408 -0.03503218 -5.2850814
-0.011724821 -0.23505327 -0.15136498 0.123599954 -0.17909485 -0.4495354 0.5916098 0.53232896
0.33085728 -0.20177013 0.43452162 0.68824166 0.19298762 -0.43701854 -0.50023806 -0.112389676
-0.901874 -0.008542818 -0.21039593 -0.049308307 0.0011901592 -0.2474252 -0.10173971 0.09116727
2.63128 0.03581099 0.47714353 -0.4150736 0.18394141 0.3915621 -0.0019585234 -0.0073821815
0.34893012 0.38445112 0.55249953 0.0804519

layers.0.bias f4 [20]
00000000: 0dcc 04be f47b 1cbd 5325 203f 628d 98bd
00000010: 2994 51bf 29e3 c5bd f59d 53be 43e0 e53d
00000020: 6f73 02bf 6a9b 5ebc 1997 31be 5d8d 303f
00000030: b94c 843d 7956 a73e de2a 79bf 75a6 fa3d
00000040: 52cc d73d 1733 05be e963 9fbe 7b19 d63d
-0.12968464 -0.03820415 0.6255695 -0.07448842 -0.818667 -0.09662468 -0.20665725 0.11224415
-0.5095739 -0.013586858 -0.17342795 0.68965703 0.06459946 0.3268316 -0.97331035 0.122387804
0.10537018 -0.1300777 -0.31130913 0.10454079

layers.2.weight f4 [20, 20]
00000000: bcf3 de3d 2c58 82be da4d a33d 5771 a8bd
00000010: 57fc a0bc 460c 4b3e afe6 4fbe bea8 adbe
00000020: 0ef5 49be 50a7 abbe c64f 243e fa76 efbe
00000030: ffa8 dfbe 700c ed3e 5cab c0bd adc0 e9bd
00000040: 3243 4f3e c404 8b3c 7d8e 133e b0f0 c7bd
00000050: 387b da3d 83b0 42bd 4b52 25be 0fb4 8abd
00000060: 432a 283e 91ae eebc 6079 053d b64b 59be
00000070: a169 1abe 7151 db3d 0da2 153e 057b 1cbe
00000080: f349 063c 2683 adbd 0703 20be 6438 23be
00000090: 9c61 39be 13b6 c0bd 995f 213e 8df6 623d
000000a0: a07b d5bd 627d 21be d8fd 06bd 0eaf 553d
000000b0: f7b9 0dbd 4543 f13d f14d debd 224c 5a3e
000000c0: f98d 643e 1179 81bc 83f9 063d ff69 e9bd
000000d0: bf87 8abd a39f 3dbe a068 593e c408 0f3e
000000e0: 677b 05be 42ec 00be 0f9a 16bc a45d 67bd
000000f0: ea3d 323e 0518 aabc fe2c 28be bfb1 42be
00000100: 7ecb 97bd 8244 e3bb dc61 d03d 9d7a 06bc
00000110: 9131 293e 728b 08bc 18d1 ae3d 7acb d9bd
00000120: e27e 55be 0ea5 56be ca38 1fbd 64f4 363e
00000130: e62b 82bc fa59 d73a 3667 3bbd 61b2 8cbd
00000140: 46fc 2ebe 0c49 8abe a9ac 253d a68d 92be
00000150: 41d8 4fbe 22a3 9e3e 64e3 1f3f eb2f ba3e
00000160: 1d39 e6be cb4d 64bd 770e eb3e 7add 0bbd
00000170: 9475 e8be cadf 8cbd b139 45be dcac 73be
00000180: 58b5 973c 8fc1 f5be 9f13 353d 2794 473d
00000190: 9d51 083e d0f5 87bd a7d6 2b3d d0f8 45be
000001a0: 54bc e83d 3c62 2bbd a04e 5c3d 34be 8cbd
000001b0: 437f 1cbe 5be4 3e3e f778 f13c c68a 4abe
000001c0: e9a9 c4bd e1a3 2ebe 5210 43bd 6c48 593e
000001d0: 4117 933c d412 00be 8e14 473e b481 2d3d
000001e0: eec9 02be acbe 15be 1216 48be b3d0 23be
000001f0: 3250 003e 9069 f13c 666c 78bd ebb7 c0bd
00000200: 4863 273d a928 433d e30a 063e 717f 59be
00000210: 02f7 68bd 028d 353e 79e7 59be b573 35be
00000220: 55c9 0ebe 4f26 293e e637 50be 1ad8 01be
00000230: 87d1 11bf f8d0 393e cce9 bf3e 178f ff3e
00000240: 39ab 2d3f eda8 713e 4f8e 83be 199b d23e
00000250: 3b9a 14bc 3105 e13e 73cd 603e 8361 b9be
00000260: 4185 f63d 4ac2 9abd 3c96 98bd c471 d9be
00000270: bc39 dd3e 4e7c e83e b1cc 233f e7a5 a83e
00000280: a829 d93d 2cb9 0bbe ccb5 f53d bc5d 903d
00000290: 29f6 afbd 5aed 383c 7d4f 8fbc c34b 43be
000002a0: bceb 273c 7f4e 303e 20c3 b1bd d057 db3b
000002b0: ce79 b5bd 58f6 46be fd90 0c3d 6bf3 56bd
000002c0: e443 abbc 04f8 863d 5df1 14be d0e8 1c3e
000002d0: ea7f 36bd adb3 cebd 7199 32be 81d3 b7bc
000002e0: 1574 3d3e 23dc e4bd b8cf 9e3d a72f e2bc
000002f0: 3e7e febc 7b0d a73c 967e 8e3c 10af 593e
00000300: e14b 1fbe 57dd ec3d b2b5 adbd 5fbb 0abe
00000310: 71d9 013d 49ac c53d cbb3 c6ba d554 fb3d
00000320: 78c7 323e a066 843e 0128 573e 7631 bdbe
00000330: 58fa 16bf 9c03 21be 5c7c 73bd 1966 d43e
00000340: 3623 d93d 70a3 f3be 954f 063e ec48 35be
00000350: 478b 4abf 1584 8d3d 442f e3bd fbff b6be
00000360: 7c3b c0be 8b02 dcbe b0d7 9f3e 9161 c43e
00000370: df2a 99bd d774 e43d a972 c5be ce05 33be
00000380: e81e f53e c141 10be 23b0 8c3d a2d2 97bd
00000390: 42eb d1be 1bcb 90be f177 d13e b11a b93e
000003a0: 5bfa 5d3e 8bfa 22be d05b b33d bd8f 02be
000003b0: 30c8 1cbe 92a0 62be ab14 503e 6283 f03d
000003c0: bdc1 e0be 0b15 933f 2acd c23e 17d9 013e
000003d0: 17c0 0ac0 e53d a33e d505 7cbc 605f ea3e
000003e0: 3465 513e 485b 4b3e 0849 a33e c6c3 a7be
000003f0: cb15 d1bf 6784 dc3d 8036 a5bd d886 a5be
0.108863324 -0.25457895 0.079738334 -0.08224743 -0.019651575 0.198289 -0.20302843 -0.33917803
-0.19722387 -0.33526087 0.16046056 -0.4677046 -0.4368362 0.46298552 -0.09407684 -0.11413703
0.20240477 0.016970046 0.14409824 -0.09762704 0.10668033 -0.047531616 -0.16144674 -0.06772625
0.16422372 -0.029135974 0.032586455 -0.21220288 -0.15079357 0.10708893 0.14612599 -0.15281303
0.008196342 -0.0847228 -0.15626155 -0.1593948 -0.18103641 -0.09409728 0.15759124 0.05541091
-0.1042397 -0.15770486 -0.032956928 0.0521689 -0.034601178 0.11780409 -0.1085471 0.21318105
0.22319783 -0.0158048 0.032952797 -0.1139717 -0.06764173 -0.18517928 0.21231318 0.13968188
-0.13035356 -0.12590125 -0.009192004 -0.056485787 0.17406431 -0.020763407 -0.16423413 -0.19013117
-0.0741186 -0.006935657 0.10174915 -0.008207944 0.16522814 -0.008334028 0.08535975 -0.10634513
-0.20849183 -0.20961401 -0.038872518 0.17866665 -0.015890073 0.0016430013 -0.045752726 -0.068699606
-0.17088422 -0.27008855 0.040447865 -0.28623694 -0.20297338 0.30983835 0.62456346 0.36364684
-0.4496545 -0.05573825 0.45909473 -0.034146763 -0.45402205 -0.06878622 -0.19260289 -0.2379641
0.018519089 -0.47999236 0.044208165 0.048725273 0.13312383 -0.06638682 0.041952755 -0.19333196
0.11364046 -0.04184173 0.05378592 -0.06872216 -0.15282921 0.18641798 0.029476626 -0.197795
-0.0960272 -0.17054702 -0.047622986 0.21219033 0.017955424 -0.12507182 0.19441435 0.042360023
-0.12772343 -0.14623517 -0.19539669 -0.15997581 0.12530592 0.029469281 -0.06065025 -0.094100796
0.040866166 0.0476462 0.1309009 -0.21240021 -0.05687619 0.17729571 -0.21279706 -0.1771992
-0.1394399 0.1651852 -0.20333824 -0.12680092 -0.5696034 0.18146122 0.3748306 0.49913856
0.6783939 0.23599596 -0.2569451 0.41133955 -0.0090699745 0.43949273 0.21953373 -0.36207208
0.12037135 -0.07556589 -0.0745053 -0.4246961 0.4320811 0.45407337 0.6398421 0.32939073
0.106036484 -0.13644856 0.119975656 0.070491284 -0.08591873 0.011287058 -0.017493958 -0.1907187
0.010249075 0.17217444 -0.08679795 0.0066938177 -0.08861123 -0.1942991 0.03431796 -0.052478235
-0.020906396 0.06590274 -0.14545198 0.15323186 -0.044555582 -0.10092864 -0.17441346 -0.02243972
0.18501313 -0.111748 0.07754463 -0.027610613 -0.031066056 0.02039217 0.017394345 0.21258187
-0.1555629 0.11565655 -0.08481921 -0.13548039 0.03170151 0.096520014 -0.0015159784 0.1227204
0.17458904 0.25859547 0.21011354 -0.36951798 -0.58975744 -0.15724033 -0.05944477 0.41484144
0.10602419 -0.4758563 0.13116296 -0.17703599 -0.7911877 0.06909958 -0.110929996 -0.35742173
-0.37545383 -0.4297069 0.31219244 0.38355687 -0.0747888 0.11155098 -0.3856404 -0.17482683
0.47875142 -0.14087583 0.06869533 -0.07413222 -0.409998 -0.28279957 0.4091182 0.36153176
0.21677534 -0.15915887 0.08757746 -0.12750144 -0.1531074 -0.22131565 0.20320384 0.11743809
-0.4389781 1.1490797 0.38047153 0.1268047 -2.1679742 0.3188316 -0.01538225 0.4577589
0.20448762 0.1985904 0.31891656 -0.3276655 -1.6334776 0.10767441 -0.08067036 -0.3232944

layers.2.bias f4 [20]
00000000: 8808 fcbc 5511 42be dd3c 81bd c442 1ebe
00000010: 3d80 1c3e 4069 673e faae 46be e342 1abe
00000020: f74d 6abe dc04 22be bc5f e73d 58b7 7fbd
00000030: ff70 43bc 8a8d 0b3f ad9a aa3e 7c2f a3bd
00000040: c86c b73e d71f 54bc 5ece 7a3d 7e26 a8be
-0.030765787 -0.18951924 -0.06310437 -0.15455157 0.15283294 0.22598743 -0.19402686 -0.15064578
-0.22881304 -0.15822166 0.11297557 -0.06243071 -0.011928796 0.54512846 0.33321133 -0.07968041
0.3582518 -0.012947044 0.061231963 -0.32841867

layers.4.weight f4 [1, 20]
00000000: f735 4abf 299e 323e b7b5 693d f002 3fbe
00000010: f8a6 95bf a3cd 8d3d 73bc 0cbe e873 c53f
00000020: 56a3 cabd 688d f5bd aa8b a8bf bdc3 6e3f
00000030: 43bc 33c0 10ba 1740 3f91 a740 4761 b2bd
00000040: 12f7 533f b322 1bbf 15cd 13bf 0e44 45bf
-0.78988594 0.17443146 0.057058062 -0.18653464 -1.169158 0.06923988 -0.13743763 1.5425997
-0.09894435 -0.11989862 -1.3167622 0.9326742 -2.8083656 2.3707314 5.23648 -0.087099604
0.82798874 -0.6059982 -0.57734805 -0.7705697
