model/results/skew-skew/skewness-e10000/50-50-SGD-relu-0.001-50-e10000-skew.pt (torch, 14199 bytes, 5 tensors)

layers.0.weight f4 [50, 5]
-0.45370123 -0.1407792 0.5342754 0.50224936 -0.33402485 0.51949143 0.23279765 0.5158806
0.35777143 0.43640408 0.024867842 0.025630852 -0.4285637 0.13603604 -0.21410316 -0.21455933
0.3814923 0.3544828 -0.090839125 0.042525936 -1.0019941 -0.13840285 0.65012825 1.1126744
0.14494707 0.74626315 -0.05957644 -0.54524404 0.39754176 0.031843632 0.4284765 0.09386818
-0.14919211 -4.3398547 -0.011542863 0.09471735 -0.088474736 0.22980554 -0.47660503 -0.75765276
0.20513827 -0.39787725 -0.23813078 -0.19617268 -0.057233367 0.2658788 -0.2380336 0.3007764
0.8106757 0.13253477 0.64344066 0.61955905 -0.14336601 0.36178502 0.528095 0.70248955
-0.17511576 -0.57271034 0.6595327 0.23127805 0.4154906 0.38580966 -0.37462547 -0.65530586
-0.057128005 0.31864953 -0.43556958 -0.06584481 -0.029875891 -0.40182877 0.12867999 -0.2834854
0.45436433 0.15596358 -0.030862879 0.38685954 -0.013947647 0.16695225 0.91346955 -0.03159465
-0.2742287 -0.58925706 -0.089467674 0.5489058 -0.027895728 -0.22287002 0.22868331 0.20424552
-0.24914584 -0.014456252 1.2187365 -0.0067707356 -0.16446672 1.1993382 0.0014775828 -1.0742472
-0.011258464 -0.17968191 0.09032229 0.0024134738 -0.078005806 -0.1547176 0.48202443 0.13896258
0.0065170396 -0.05424441 -0.14182782 0.30636588 -0.10606672 0.6315885 0.3832267 -0.5529294
0.41343272 -0.31789073 0.31706652 0.21716093 -0.48323828 -0.020927288 -0.5637073 -0.07618153
-0.21706645 0.0012562743 0.7123817 0.64457846 -0.1564833 -0.25825614 0.0972457 0.27594775
-1.3570771 -0.053411517 -0.32350716 0.33152103 -0.20954138 -0.0185472 0.15244675 0.8491568
0.7686324 -0.6410248 0.9953344 -0.18255852 -0.39581507 0.39180812 0.19282219 0.00963707
0.15358503 -0.055560358 0.29396695 0.19612682 0.43910992 -0.1417045 0.65482056 -0.020701924
-0.716167 -0.507761 -0.13737485 -0.16740295 0.8338716 0.36783558 -0.271942 0.77779144
1.3399383 0.035927992 0.17057106 -0.3505411 0.010512038 -0.07026129 0.3255602 -0.024358964
0.93105406 0.0018863651 0.4568343 0.06285052 -0.1532275 -2.0211143 -0.013476547 -0.33246323
-0.00024055687 -0.40639973 0.20871323 0.55487233 0.16952367 -0.16240934 0.24050578 -1.4394798
-0.061313495 -0.19962035 -0.16098416 0.48979837 -0.3082239 0.061955865 -0.7792818 -0.29516768
0.58465654 0.3707132 0.25052932 0.15505584 0.31958696 0.38330624 0.33239034 -0.13253058
0.53781015 0.43085656 -0.08398118 -0.85726136 -0.10637036 -1.1788095 0.114049524 -0.05327811
0.06692199 0.04425501 0.03915273 0.0074054054 0.15194114 0.47394273 0.30508327 0.42785493
0.42655292 -0.24914508 0.5181583 -0.21781169 0.04620846 0.25660184 -0.35223666 -0.1729874
0.41028973 -0.10203726 -0.020504797 0.044590928 1.4418921 0.007710444 0.09230595 -0.32436562
0.3903242 0.024768127 0.057878084 -0.025853502 -0.095186524 0.055577457 -0.13466476 0.17235939
-0.060077623 -0.061726026 -0.10941886 0.898331 0.0035404242 0.12312536 -0.4434574 -0.29195052
1.8807751 -0.17897278
00000000: 874b e8be 6c28 10be 46c6 083f 6a93 003f
00000010: 4e05 abbe 64fd 043f 8262 6e3e c010 043f
00000020: d12d b73e 5b70 df3e a5b7 cb3c cbf7 d13c
00000030: b46c dbbe 084d 0b3e dc3d 5bbe 71b5 5bbe
00000040: f552 c33e c57e b53e dd09 babd ad2f 2e3d
00000050: 5841 80bf 7ab9 0dbe ce6e 263f 1d6c 8e3f
00000060: 016d 143e 1a0b 3f3f 6d06 74bd 1d95 0bbf
00000070: 988a cb3e 786e 023d 4661 db3e f63d c03d
00000080: d1c5 18be 17e0 8ac0 471e 3dbc 2cfb c13d
00000090: 3e32 b5bd 2552 6b3e 9305 f4be 88f5 41bf
000000a0: c40f 523e 91b6 cbbe 8ed8 73be 7ee1 48be
000000b0: 896d 6abd 4421 883e 14bf 73be 5dff 993e
000000c0: 7188 4f3f 32b7 073e 87b8 243f 6c9b 1e3f
000000d0: 8ace 12be e33b b93e 3c31 073f 5bd6 333f
000000e0: 8c51 33be 259d 12bf 23d7 283f 27d4 6c3e
000000f0: 2fbb d43e d888 c53e e9ce bfbe 20c2 27bf
00000100: 0eff 69bd 0826 a33e fa02 dfbe a5d9 86bd
00000110: 49be f4bc 80bc cdbe b0c4 033e 0025 91be
00000120: 71a2 e83e ebb4 1f3e 26d4 fcbc 7412 c63e
00000130: ac84 64bc 88f5 2a3e 24d9 693f 6469 01bd
00000140: b467 8cbe 8dd9 16bf d43a b7bd 1785 0c3f
00000150: 9585 e4bc 0a38 64be f52b 6a3e bd25 513e
00000160: 1620 7fbe ead9 6cbc 8fff 9b3f 0cdd ddbb
00000170: f769 28be ea83 993f 74ab c13a ef80 89bf
00000180: 6c75 38bc 89fe 37be e5fa b83d 5f2b 1e3b
00000190: 82c1 9fbd 4a6e 1ebe e8cb f63e 354c 0e3e
000001a0: e48c d53b 632f 5ebd 503b 11be fddb 9c3e
000001b0: 8239 d9bd c9af 213f 4a36 c43e c88c 0dbf
000001c0: 74ad d33e 93c2 a2be 8b56 a23e 6f5f 5e3e
000001d0: 026b f7be b46f abbc 1f4f 10bf 1005 9cbd
000001e0: ab46 5ebe 92a9 a43a a65e 363f 1803 253f
000001f0: 283d 20be 263a 84be c128 c73d 0649 8d3e
00000200: b4b4 adbf 09c6 5abd bba2 a5be 20bd a93e
00000210: 0492 56be 4cf0 97bc 001b 1c3e 5762 593f
00000220: 18c5 443f 341a 24bf 3cce 7e3f 9ff0 3abe
00000230: 46a8 cabe 139b c83e 2e73 453e cde4 1d3c
00000240: 6545 1d3e 4293 63bd d682 963e 78d5 483e
00000250: 04d3 e03e fc1a 11be 52a2 273f 1597 a9bc
00000260: b856 37bf a0fc 01bf feab 0cbe ae6b 2bbe
00000270: 9c78 553f f254 bc3e fb3b 8bbe 571d 473f
00000280: 1983 ab3f 3b29 133d 2eaa 2e3e 207a b3be
00000290: af3a 2c3c 27e5 8fbd d4af a63e 738c c7bc
000002a0: 8f59 6e3f e93f f73a 2fe6 e93e c6b7 803d
000002b0: abe7 1cbe f059 01c0 bccc 5cbc 9f38 aabe
000002c0: fe3d 7cb9 a013 d0be ecb8 553e 1d0c 0e3f
000002d0: 9d97 2d3e a24e 26be 2647 763e e040 b8bf
000002e0: dc23 7bbd 4769 4cbe 08d9 24be dac6 fa3e
000002f0: 86cf 9dbe 6fc5 7d3d 037f 47bf 3820 97be
00000300: 0dac 153f 1fce bd3e 6145 803e f5c6 1e3e
00000310: e7a0 a33e b740 c43e 112f aa3e 19b6 07be
00000320: edad 093f 3b99 dc3e 53fe abbd 7b75 5bbf
00000330: b4d8 d9bd 3be3 96bf cc92 e93d 263a 5abd
00000340: 650e 893d be44 353d 9d5e 203d 0ba9 f23b
00000350: 7596 1b3e 9fa8 f23e e033 9c3e cd0f db3e
00000360: 2565 da3e e31f 7fbe 06a6 043f 070a 5fbe
00000370: 1545 3d3d 5161 833e 5d58 b4be 9c23 31be
00000380: 7f11 d23e e9f8 d0bd adf9 a7bc faa4 363d
00000390: ec8f b83f e4a7 fc3b e70a bd3d 4013 a6be
000003a0: 93d8 c73e 87e6 ca3c 9211 6d3d b9ca d3bc
000003b0: 27f1 c2bd 30a5 633d 8fe5 09be fb7e 303e
000003c0: f413 76bd 6ed4 7cbd ff16 e0bd 05f9 653f
000003d0: 7606 683b 2629 fc3d d90c e3be 8a7a 95be
000003e0: 3dbd f03f a444 37be

layers.0.bias f4 [50]
-0.28979498 -0.0050914465 0.3493113 0.29692593 -0.06417816 0.30342188 0.12634751 0.61137164
-0.26759213 -0.08491634 -0.5745964 0.17409876 0.35973808 -0.4624802 -0.35659865 -0.1129081
0.25286797 -0.402301 -0.1712537 0.088546626 0.13717099 0.19453824 -0.37680966 -0.49107656
-0.17886725 0.26094443 -0.2526716 0.46038997 -0.48314264 0.12171975 0.3066192 -0.5902279
-0.12144489 0.28355387 0.09608816 -0.0143622495 0.23204249 -0.35181102 0.2038893 0.12895836
-0.18140936 0.30573708 0.013670676 0.25320572 -0.3260777 -0.027087322 0.31805408 -0.44714466
0.07538346 0.52993804
00000000: 0260 94be 26d6 a6bb eed8 b23e ad06 983e
00000010: d76f 83bd 1d5a 9b3e 3e61 013e da82 1c3f
00000020: d601 89be 9ee8 adbd c018 13bf f246 323e
00000030: 972f b83e 34ca ecbe 1994 b6be 5d3c e7bd
00000040: e977 813e 66fa cdbe 215d 2fbe ef57 b53d
00000050: 8d76 0c3e 0835 473e 32ed c0be 636e fbbe
00000060: fa28 37be 829a 853e 2c5e 81be 3cb8 eb3e
00000070: 795e f7be 3448 f93d 31fd 9c3e 2d19 17bf
00000080: 19b8 f8bd f92d 913e dfc9 c43d a44f 6bbc
00000090: 8c9c 6d3e 9320 b4be 5bc8 503e a90d 043e
000000a0: 60c3 39be 9289 9c3e f9fa 5f3c 2ea4 813e
000000b0: a8f3 a6be 3be6 ddbc fcd7 a23e 25f0 e4be
000000c0: a562 9a3d 05aa 073f

layers.2.weight f4 [50, 50]
-0.0018563771 -0.13880149 -0.0702433 0.015374826 0.15008539 -0.05724176 0.036528986 -0.089179866
0.053727012 0.11190628 0.012028259 -0.0497526 0.013040804 0.079199955 0.1283889 0.014878577
0.11483234 0.13770097 0.1354555 0.019160971 -0.0724842 0.07897916 -0.07865066 -0.06335077
0.029190825 -0.041194733 -0.121817954 0.036376595 -0.037961118 0.061760247 -0.019569628 0.080764174
0.10475317 -0.13591754 0.029579531 -0.0460224 -0.00045890626 -0.101961374 -0.10790891 0.07373159
0.11744127 -0.11886961 -0.02331412 0.15019529 -0.10175715 0.01363435 0.07151931 0.06211048
-0.046761412 -0.0925823 0.102810845 0.07945832 0.040965606 -0.13259587 -0.05963264 0.054956324
-0.09429507 -0.034792855 0.09931328 0.025685573 -0.116002865 -0.021056848 -0.032992113 -0.06980736
0.11329495 -0.15078981 0.035640728 -0.036587477 -0.008222315 0.008457903 -0.019812109 0.15822111
-0.029544504 0.11000514 0.01715426 0.10247641 -0.110071145 0.026642326 0.097414866 0.12559077
-0.06140596 0.10747335 -0.08638479 0.06695435 0.015053695 0.11299304 0.06848717 0.07251099
0.15099588 -0.017678084 -0.075515725 -0.08248639 -0.07992381 -0.079037145 0.114054486 -0.116183445
0.058372784 0.046372037 0.018190693 -0.13621789 -0.02677334 -0.019451374 -0.21295682 0.037781257
-0.193398 -0.1891417 -0.6177435 0.14372109 -0.021340748 -0.005332545 -0.01000865 -0.05037291
-0.0981624 0.14854407 0.09128284 -0.04242311 0.2017395 -0.12760797 -0.14060438 -0.09813052
0.18227217 0.23863406 -0.00067499524 0.06931212 -0.010370502 0.041673794 -0.09041981 0.1710546
0.017721679 0.038834803 -0.035583504 0.019304005 -0.0028205637 0.15736231 -0.33101866 0.049017888
0.19147247 0.16428287 0.01999023 -0.05583532 -0.1577771 0.10875838 -0.08558076 0.11977683
-0.0071704253 -0.023744069 0.046038732 0.12934431 -0.103684284 0.11753959 0.27936497 -0.14892897
0.17246443 0.0129031725 -0.10862716 0.028417384 -0.13758942 0.17821407 -0.017183794 -0.07374391
-0.010527585 -0.22588229 -0.040726077 0.072558835 0.06963124 0.008937242 0.11704627 0.14101884
-0.0016682678 0.15781301 0.008456858 -0.06507848 -0.040572338 0.00745579 0.005663146 -0.026298694
0.08541127 -0.05816065 0.118090294 -0.019872293 -0.111840405 0.13507158 0.020920139 0.03333659
-0.16432326 -0.07170833 -0.009921748 0.10917364 -0.21778128 0.05223451 -0.107117675 -0.045517813
-0.16378047 0.1061784 -0.13512371 0.16471773 -0.10129234 -0.11848181 0.09618503 -0.030122211
-0.4136595 -0.3740192 0.17415908 0.19203536 -0.6894911 -0.5742001 2.0741658 0.7298356
0.10119989 -0.39506385 -0.7203596 -0.76473206 0.17899607 0.3580854 -0.17462508 -0.25673997
-0.58523864 -0.10709245 -1.0245734 -0.06604008 -0.040783983 0.2743091 0.6346646 0.04862494
-0.20281693 0.7164104 0.12361233 -1.0982575 -0.0022928882 -0.07763789 0.4979334 0.8754406
0.3168838 -0.25033015 0.78437316 0.06480395 0.8043088 0.38282496 -0.25702083 -0.058743708
0.082161084 -0.4298326 -0.14615731 -0.6816227 0.098419964 -0.010992402 0.057353947 -0.01076938
0.04739278 -1.2449124 -0.056128126 0.0040602973 0.005136782 0.08460349 1.3916837e-06 -0.029699072
00000000: ae51 f3ba fa21 0ebe b8db 8fbd b2e6 7b3c
00000010: fcaf 193e 5676 6abd 6b9f 153d efa3 b6bd
00000020: db10 5c3d 1f2f e53d 2d12 453c 62c9 4bbd
00000030: 19a9 553c 9633 a23d 6178 033e 46c5 733c
00000040: 382d eb3d 7c01 0d3e d9b4 0a3e 78f7 9c3c
00000050: 9972 94bd d3bf a13d 9913 a1bd 0cbe 81bd
00000060: 9921 ef3c cfbb 28bd b17b f9bd a0ff 143d
00000070: 1e7d 1bbd 50f8 7c3d 7c50 a0bc b067 a53d
00000080: d488 d63d f82d 0bbe c650 f23c fc81 3cbd
00000090: 5b99 f0b9 20d1 d0bd 59ff dcbd 9600 973d
000000a0: 0c85 f03d e971 f3bd 41fd bebc cbcc 193e
000000b0: 0d66 d0bd 9c62 5f3c b778 923d 8f67 7e3d
000000c0: e588 3fbd ca9b bdbd 7e8e d23d 0bbb a23d
000000d0: 8dcb 273d 36c7 07be 5b41 74bd e219 613d
000000e0: c61d c1bd f482 0ebd c364 cb3d 8d6a d23c
000000f0: e992 edbd 697f acbc bd22 07bd 29f7 8ebd
00000100: 2f07 e83d a568 1abe 03fc 113d c0dc 15bd
00000110: e4b6 06bc 0493 0a3c 014d a2bc b704 223e
00000120: 5107 f2bc 604a e13d 1787 8c3c 27df d13d
00000130: fb6c e1bd 0241 da3c 7281 c73d de9a 003e
00000140: d184 7bbd fd1a dc3d 82ea b0bd 5d1f 893d
00000150: c6a3 763c e568 e73d 0043 8c3d a480 943d
00000160: aa9e 1a3e a1d1 90bc fda7 9abd a0ee a8bd
00000170: 18af a3bd 3ade a1bd 6695 e93d 96f1 edbd
00000180: 4d18 6f3d 9bf0 3d3d a604 953c b47c 0bbe
00000190: c353 dbbc 7d58 9fbc 5a11 5abe 85c0 1a3d
000001a0: 200a 46be 5dae 41be 7024 1ebf 9f2b 133e
000001b0: cbd2 aebc a1bc aebb 52fb 23bc d353 4ebd
000001c0: 5e09 c9bd f01b 183e 7ff2 ba3d dbc3 2dbd
000001d0: cd94 4e3e aaab 02be 98fa 0fbe a7f8 c8bd
000001e0: 8ea5 3a3e 7d5c 743e 2af2 30ba 83f3 8d3d
000001f0: 0ae9 29bc 24b2 2a3d 052e b9bd f028 2f3e
00000200: 0e2d 913c 3e11 1f3d 02c0 11bd 6f23 9e3c
00000210: 35d9 38bb 9623 213e 477b a9be fbc6 483d
00000220: 5c11 443e c539 283e 8dc2 a33c 94b3 64bd
00000230: 5290 21be b7bc de3d f744 afbd 8e4d f53d
00000240: e3f5 eabb ec82 c2bc 1c93 3c3d d672 043e
00000250: 6d58 d4bd 99b8 f03d ed08 8f3e d680 18be
00000260: 849a 303e d467 533c eb77 debd 93cb e83c
00000270: 3ee4 0cbe c07d 363e 07c5 8cbc 0c07 97bd
00000280: e47b 2cbc b04d 67be 63d0 26bd ba99 943d
00000290: d39a 8e3d 836d 123c f4b5 ef3d 3e67 103e
000002a0: c7a9 daba bc99 213e a28e 0a3c de47 85bd
000002b0: 2e2f 26bd b34f f43b e991 b93b 5c70 d7bc
000002c0: 1bec ae3d dd39 6ebd 53d9 f13d 38cb a2bc
000002d0: 950c e5bd 3450 0a3e b660 ab3c f38b 083d
000002e0: 5b44 28be d1db 92bd d48e 22bc 6e96 df3d
000002f0: 0e02 5fbe dbf3 553d 8360 dbbd e370 3abd
00000300: 11b6 27be 1074 d93d df5d 0abe c4ab 283e
00000310: 5c72 cfbd 97a6 f2bd a8fc c43d dbc2 f6bc
00000320: 2ecb d3be 727f bfbe c256 323e eba4 443e
00000330: 7d82 30bf c7fe 12bf 22bf 0440 82d6 3a3f
00000340: e341 cf3d cf45 cabe 7d69 38bf 7bc5 43bf
00000350: bf4a 373e f856 b73e ebd0 32be 6c73 83be
00000360: 33d2 15bf 4953 dbbd 3925 83bf 0540 87bd
00000370: 1b0d 27bd 3e72 8c3e 6179 223f f22a 473d
00000380: 3eaf 4fbe ac66 373f 7628 fd3d b493 8cbf
00000390: 4844 16bb 9d00 9fbd 20f1 fe3e e01c 603f
000003a0: 983e a23e 462b 80be aecc 483f efb7 843d
000003b0: 2ee7 4d3f a201 c43e 3c98 83be 3e9d 70bd
000003c0: 1244 a83d 0513 dcbe 43aa 15be d37e 2ebf
000003d0: 6890 c93d 7a19 34bc f9eb 6a3d 0e72 30bc
000003e0: ef1e 423d 4a59 9fbf 9be6 65bd 3e0c 853b
000003f0: 7352 a83b 9844 ad3d e3c9 ba35 784b f3bc

layers.2.bias f4 [50]
-0.16417871 -0.096513145 -0.33071238 -0.26672775 -0.088956065 -0.014186917 -0.104785815 -0.14086945
-0.043095913 -0.0050370763 0.0042982167 0.3289309 0.35349628 0.1785372 -0.03964812 0.099901475
-0.026067767 0.21860334 0.26607156 -0.06638623 -0.007821696 0.10070375 0.09839694 0.14530317
-0.23095603 -0.006227741 -0.11504043 -0.09146349 -0.16669816 0.0067114104 0.105075575 -0.06495495
-0.026500978 -0.051617526 -0.087893896 0.15841416 0.1701104 -0.08089741 -0.12679978 -0.14146493
0.029316915 -0.08268243 0.16120845 -0.077589534 -0.01775787 0.02362279 0.054431286 0.030031191
-0.034508202 0.049274057
00000000: 771e 28be afa8 c5bd 2253 a9be 8a90 88be
00000010: 992e b6bd 3e70 68bc f299 d6bd 1540 10be
00000020: 5785 30bd 0f0e a5bb 0ed8 8c3b a269 a83e
00000030: 77fd b43e 75d2 363e 1166 22bd 2599 cc3d
00000040: 128c d5bc 8ed9 5f3e 883a 883e 81f5 87bd
00000050: 9226 00bc c53d ce3d 5684 c93d 5bca 143e
00000060: bd7f 6cbe 1412 ccbb 519a ebbd 3651 bbbd
00000070: ecb2 2abe 64eb db3b dd31 d73d 1a07 85bd
00000080: 9418 d9bc e66c 53bd b701 b4bd 5237 223e
00000090: 6c31 2e3e 8bad a5bd cdd7 01be 2fdc 10be
000000a0: 072a f03c 6855 a9bd d413 253e 43e7 9ebd
000000b0: f478 91bc 9584 c13c 57f3 5e3d f903 f63c
000000c0: 7958 0dbd 98d3 493d

layers.4.weight f4 [1, 50]
-0.22042221 0.115670726 -0.8840509 -0.5677749 3.9343815 0.1768129 0.37335485 -1.0623018
0.41755188 0.8664184 -0.37296954 3.3770401 0.7413366 0.84125125 1.3065039 -0.039850455
0.4428207 0.51141447 0.7626784 0.11600354 -0.38517353 -0.62660855 0.304825 -0.8405237
-0.953313 0.6316954 -0.99067926 -0.07425852 0.33425882 -0.3002935 -0.70425445 0.2904835
1.447915 -0.24232098 0.21248658 -0.8485386 -0.57531166 0.3477063 0.31677112 -0.11005698
-0.99121225 -1.0926293 1.2891479 0.064520255 0.088461496 1.1426584 0.627803 0.28574467
-0.43294215 -0.08131097
00000000: 5cb6 61be c6e4 ec3d 2951 62bf b259 11bf
00000010: e8cc 7b40 710e 353e 5e28 bf3e 81f9 87bf
00000020: 5cc9 d53e 99cd 5d3f ddf5 bebe 6d21 5840
00000030: 3cc8 3d3f 3e5c 573f 853b a73f 3b3a 23bd
00000040: 65b9 e23e 0fec 023f e43e 433f 4493 ed3d
00000050: 7735 c5be 6b69 20bf 0612 9c3e 902c 57bf
00000060: 520c 74bf cab6 213f 289d 7dbf da14 98bd
00000070: f923 ab3e 12c0 99be 054a 34bf 41ba 943e
00000080: 4755 b93f fe22 78be 1596 593e d339 59bf
00000090: a047 13bf 8f06 b23e d32f a23e 8e65 e1bd
000000a0: 16c0 7dbf 47db 8bbf cc02 a53f 3223 843d
000000b0: 4d2b b53d a142 923f b3b7 203f 204d 923e
000000c0: 98aa ddbe 5e86 a6bd
