model/results/skew-skew/skewness-e10000/50-50-SGD-tanh-0.001-50-e10000-skew.pt (torch, 14199 bytes, 5 tensors)

layers.0.weight f4 [50, 5]
00000000: 01f0 06be aada a5be 59b6 dfbe d7fb 32bf
00000010: 0dcd a73e 9bb9 cbbd 1517 ac3e 6e55 243e
00000020: d7b8 47bf 070b 5dbd 8b86 1840 4518 c13e
00000030: 1dba 9dbf 68fd c7c0 c967 f9bd d885 113f
00000040: 6f1c 4bbe 8cf5 003e e05e 7a3f 00a1 823e
00000050: 7c1e 10bf 3139 65bf 687c a43c 481e fabe
00000060: 9689 9f3e ab57 583f 6a60 903e 0c2a 023f
00000070: 1633 a0bc ab35 d63d 13aa 1e3f fdd7 24bf
00000080: 126b 453f 15b9 fabf fd18 aa3e c30e 35bf
00000090: a292 4ebf 6c73 563e 22ca 953f 27b2 72bd
000000a0: ab3d 8cbd efc9 123d 5f90 173e 1772 0cc0
000000b0: 2349 52bd 8866 cbbe 1e1e 1cbe 042e bc3c
000000c0: d7c0 61bf 18e2 7f3e bf4f 9e3e 99dd 493d
000000d0: 910a 91be b0c5 c23f ebf0 d5bd 6012 393f
000000e0: e6a0 4a3e c714 853c 485b a13d 89dd 05bf
000000f0: 09c3 74bd 445e 1c3f 003f 5bbe c93c 2dbf
00000100: 7b87 1cbe 0990 0abd 5b04 b43c 93b3 ab3e
00000110: cf70 96bf 74a5 8ebd 90a5 193f a39f 73bf
00000120: 7ff9 64bf 3a56 85bf d2ce e6be 871f d63e
00000130: 29d5 743d 0bf3 7d3d 332c 28bf e667 123f
00000140: e989 21bf 5ab1 e3be c013 27bf b976 0d3b
00000150: 7605 b73c 8935 2ebf 2409 423e fd6c 8abd
00000160: 7918 1ac0 62aa 673e 6dab d3bf 98fc d6bf
00000170: 9230 953f 3127 01c0 bb39 0a3f 746b b93e
00000180: 4693 22be 28e2 93bd 6d54 173f aeb0 c8bd
00000190: 4c0a 1e3a cf08 bdbc c3c4 d03d 6f36 d83f
000001a0: 5096 cf3d 0ec7 0040 0261 de3e 4efa babf
000001b0: a1c1 91bf a01b 81be f4dc 43c0 fe93 863d
000001c0: 4afa 253f a16e 07c0 b3ef 80bd 1668 22bf
000001d0: 5ab4 fb3e 7e00 453f 88de 46bf 6498 ecbe
000001e0: 0fec 493e 9c16 b73e 1fe1 8c3e 3fcc 22bd
000001f0: 4623 173f 4af7 8bbe 3d97 f43d 4206 27bf
00000200: d6da d1be 0695 d63e 8ba5 553e 1d4d c83d
00000210: 5aff 053f 443f 4abe 40ab 1f3f cc9c 59bd
00000220: 5296 863e 716c 1b3c 910b fc3e 5675 95ba
00000230: a7e3 21c0 d553 59be 90a4 d9be bfb5 053f
00000240: 970a 1d3b ddd2 58bb 4482 febe f950 0a3f
00000250: 1fc5 1b3f 4783 6ebd e1a1 23bf b8e8 c6be
00000260: 5df8 3f3f db86 26bf e21c 26bf 9881 e13d
00000270: 8cdd 05bd c273 013f 2885 c6bf d611 5abe
00000280: 8220 95be fe42 a43d b09d 2f3e 3a8e 43bf
00000290: 6b5d 82bd 2964 983c 17c3 343f 3735 983b
000002a0: 0667 b2bf 340e c33e af8e 783f fcad 4fbf
000002b0: d702 ca3e 0936 a13c 442d c6bc a835 3dbf
000002c0: 7de6 9bbd 2757 6f3f 64d7 533f 7ccc 96be
000002d0: f9f1 acbe 7be3 a3be de88 593f 599e b73e
000002e0: 6b48 be3e f655 553e dc65 95be e082 1abe
000002f0: b0dc 36be c2df 7fbe 681a 833e 5896 2dbd
00000300: 354d f7bd da37 583f 6ae2 30be b4d0 e63e
00000310: 346b 8b3c 218d a3bd 9754 893f 3244 5ebe
00000320: 8209 2dbf b066 27bf a024 453e 09eb b93f
00000330: 7a95 223c 4660 84be 69e3 ab3e 8bb2 adbe
00000340: bfbe e9bd 29af 823e e934 27be af4c 45bd
00000350: acd9 8abe 8680 73bf 483c 573d d719 3fbe
00000360: 297a 50bd 18d6 c4bd 0a6f 233f f2df 6f3e
00000370: 4432 94be e531 6f3e d5ed df3a fc69 8fbf
00000380: 42b4 6cbe 147b 8cbd fe2e 0bbe 4c5d 02be
00000390: 6ca1 18bf 46c3 01be 1bbc 3c3e 74de 443c
000003a0: 3820 33be 6af5 c93f a2b8 f33c c3cb bd3e
000003b0: 3b70 09be eb32 24bf 40f5 8bbf b97d 88be
000003c0: 4995 e33e 3702 99bf 618a 05bf b395 a83f
000003d0: ca6d ac3e fc55 453f c707 953f 26db b8bf
000003e0: acb3 513f 9e50 5a3e
-0.13177492 -0.3239339 -0.43693808 -0.6991553 0.3277363 -0.09947511 0.3361136 0.16048214
-0.7801642 -0.053965595 2.3832119 0.3771383 -1.2322422 -6.2496834 -0.121779986 0.56844854
-0.19835065 0.12593669 0.9780102 0.25513458 -0.56296515 -0.8954039 0.020078853 -0.48851228
0.31159657 0.8450877 0.28198558 0.5084541 -0.01955561 0.10459455 0.6197826 -0.6439207
0.771165 -1.9587733 0.3322219 -0.7072565 -0.80692494 0.20942467 1.1702311 -0.05925193
-0.068477 0.03583711 0.14801167 -2.1944635 -0.05133928 -0.39726663 -0.15245864 0.02297116
-0.88184875 0.24988592 0.30920216 0.049283598 -0.28328374 1.521658 -0.10446342 0.72293663
0.1978794 0.016245259 0.07878739 -0.5229116 -0.059756313 0.6108134 -0.21410751 -0.67670876
-0.15286057 -0.03382877 0.021974733 0.33535442 -1.1753176 -0.069651514 0.60018253 -0.9516546
-0.894432 -1.0416939 -0.45079666 0.41820928 0.059773598 0.061999362 -0.6569244 0.57189786
-0.6310106 -0.44471246 -0.6526451 0.0021585657 0.022341471 -0.6805044 0.189488 -0.06759069
-2.4077437 0.2262359 -1.653669 -1.6795835 1.1655447 -2.018017 0.5399434 0.36214793
-0.15876493 -0.0722087 0.591132 -0.09799324 0.0006028756 -0.02307549 0.10193779 1.6891612
0.10136092 2.0121493 0.43433386 -1.4607637 -1.1387216 -0.2521639 -3.060361 0.06571196
0.64835036 -2.1161273 -0.06295719 -0.6344007 0.49161035 0.76953876 -0.77683306 -0.46210015
0.19718955 0.35759437 0.27515504 -0.039745566 0.590382 -0.27337104 0.11942909 -0.65243924
-0.4098727 0.4191057 0.20863931 0.09780333 0.5234276 -0.19750696 0.6237068 -0.05312805
0.2628656 0.009486304 0.49227574 -0.0011402767 -2.5295198 -0.21223386 -0.42508364 0.5223045
0.002396261 -0.0033084669 -0.4970876 0.54029804 0.6084766 -0.058230665 -0.6391888 -0.38849425
0.7498835 -0.65049523 -0.6488782 0.11011046 -0.032681987 0.5056726 -1.5509386 -0.21295866
-0.29126364 0.0802059 0.17149997 -0.76388896 -0.06365474 0.018602448 0.70610183 0.0046450156
-1.393769 0.38096774 0.9709272 -0.81124854 0.39455292 0.019679086 -0.024191506 -0.7391
-0.076123215 0.9349236 0.82750535 -0.29452884 -0.3377836 -0.3200949 0.8497447 0.35862997
0.37164626 0.20833573 -0.29179275 -0.15088987 -0.17857623 -0.249877 0.25606084 -0.042379707
-0.12075273 0.8446022 -0.1727387 0.45081103 0.017018892 -0.079859026 1.072894 -0.21705702
-0.6759263 -0.65391064 0.19252253 1.4524852 0.009923333 -0.258547 0.33571938 -0.3392528
-0.11413335 0.25524262 -0.16328777 -0.048168834 -0.27119195 -0.95117986 0.052547723 -0.18662201
-0.05089775 -0.09611148 0.6384131 0.23425272 -0.289446 0.23358877 0.0017084429 -1.1204219
-0.23115638 -0.06859413 -0.13592145 -0.12730902 -0.5962131 -0.12672147 0.18431132 0.012015928
-0.17492759 1.577802 0.029751126 0.3706952 -0.13421719 -0.64140195 -1.0934219 -0.2665842
0.44449833 -1.1953801 -0.52164274 1.3170685 0.33677512 0.77084327 1.1642998 -1.4441879
0.8191478 0.21319816

layers.0.bias f4 [50]
00000000: 953d cbbe e070 ffbd 7f88 123f e971 febe
00000010: ceff 043f 2864 2abe 8487 46bf 0663 16be
00000020: e77e 9cbe 8fec 65be 54d5 fd3e f7a2 a2be
00000030: dd5a 1f3f 3367 0ebf 1436 c5bc 8201 1d3a
00000040: 4336 503d 3306 323d aeb8 efbe 8e4f fc3e
00000050: 8235 e33d a3b3 da3e bd57 223f 89e5 033e
00000060: 165a 8cbe 9983 9bbe ec92 0a3f db72 4ebd
00000070: 71ea adbd 1b65 33bf 89d3 423e 3d80 0dbf
00000080: 70f6 12bf 703c 46be 76d7 193e 0417 5bbf
00000090: 796b 2cbf d0a7 32bf 3f5a ed3e 76b3 b73e
000000a0: 962f 10be 47fd 36be da75 17be 1ff1 cf3e
000000b0: cbe3 5abd 3eb2 a3be 4caf b13e c048 bb3d
000000c0: 49d8 c9bd 35e0 7c3e
-0.3969542 -0.12472701 0.57239527 -0.49696282 0.51952827 -0.16639769 -0.7755053 -0.14686212
-0.3056557 -0.22453521 0.4957682 -0.31764957 0.6224802 -0.5562622 -0.024073638 0.00059892994
0.050832998 0.043462943 -0.46820587 0.49279445 0.1109419 0.42715177 0.6341513 0.1288053
-0.2741248 -0.3037384 0.54130435 -0.050402503 -0.08491982 -0.7007615 0.19026007 -0.552738
-0.57407284 -0.19358993 0.15023598 -0.85581994 -0.6735149 -0.6978731 0.46357915 0.35879105
-0.14080653 -0.17870055 -0.1479105 0.40613648 -0.053439897 -0.31971925 0.34704053 0.09144735
-0.09855706 0.24694903

layers.2.weight f4 [50, 50]
00000000: 4343 143e 13ed 05be 663e b03b f684 0abe
00000010: 05a0 953d 700f 38be f583 07bd 4483 71bd
00000020: f556 173e e0f7 f9bd ece0 023d bd66 1d3e
00000030: c2a8 033e b88e 72bd 3ee5 713d ad86 adbd
00000040: aeed de3d 1f3d 93bd 47d5 25be 43bb dd3d
00000050: 4097 27be a01f 81bd 6b42 35be ade4 dfbb
00000060: 7162 613d f76b ed3c a1b9 7dbe bc64 153d
00000070: 942f 963e 34b6 26be 8e49 f6bb f556 ba3b
00000080: ec0e 153e 379d 0fbe a189 dfbd 656a 9abd
00000090: b77b 5fbe e173 8bbd 7959 ad3d 0220 47bb
000000a0: 6695 353e 6ab0 c73b b92f 9fbd 91cc 97bd
000000b0: 652f e13d 22c8 0d3e 7683 06be a6c8 3abc
000000c0: 9b5c 8bbd b158 65bd bd21 ff3d b904 63be
000000d0: 32cb 47be 389e 7dbd b575 adbd e045 8fbd
000000e0: 44f0 633e ae9c 293c d73b 163d 92c0 0abe
000000f0: 7381 fc3d 4ee5 933d e572 20be 944c 30be
00000100: 3d91 2f3e 2ddb 77bc 95e8 1b3e f53d 773d
00000110: 2e87 833d d665 c93d 29ad 063e 3080 433c
00000120: 8792 afbd 09e1 26bd da94 0ebe 4c05 2e3d
00000130: e67f bcbe 1f01 5b3d efc0 933e 95ba f73c
00000140: 6b40 b4bd 6331 36be eb0c 45be 4fc9 49bd
00000150: 2149 56be 3fe2 b4bd 1342 123c 19e4 103e
00000160: 8cf0 263d e5a1 203d 9f3f 6b3e a1af 143d
00000170: 7d3e 083d e2e0 053d 7980 e43d 0b49 05bd
00000180: df55 3c3c 3bdb 463d e9a1 a5bc 3681 cabd
00000190: 323f 3dbd 72c3 a93d 9685 a0bd 6bad 23bd
000001a0: 2ce7 58bd ce14 a7bd ec31 8a3e 68ef 853d
000001b0: 3543 44bc 534c 1abc 641b 313e 45b2 17be
000001c0: 3f57 6abd 32c0 863d a858 87be ba95 9abd
000001d0: 1d6f a9bb 6a44 6dbe fa30 8b3e e317 743d
000001e0: 835b 803d 6702 5dbc 86f1 4b3d f38d 02bd
000001f0: 68e7 e43d 4461 4cbe 5bba 1f3e 35a4 2e3c
00000200: e94a 753c 624d bbbd 5309 32bd 6919 1f3e
00000210: 530a e6bd e4a1 cd3c c8c9 7c3e 60d3 87be
00000220: 3b36 543d dd7a 42be d52a 893b 1dfe 0d3e
00000230: c748 1a3e 96bd 633d 6ab9 c6bd ebae 44bd
00000240: 474f 51bb cae3 94bd f540 debd ed74 06be
00000250: 1163 153e 5c95 b0bd 1173 4ebd eb5f 98bd
00000260: 5b3a e93d 614a 9fbc e907 13bd 820e b4bc
00000270: 7884 113d 9f41 19bc f5e8 4a3d 3f23 5ebd
00000280: 4ebd 033d aee4 163e 62bb 02bd 907a 4cbd
00000290: e1c7 f13d efd7 d83d 72a3 c3bd 39b5 aa3d
000002a0: 1995 ddbd 2a4f bfbd 05c8 4ebd d714 e53d
000002b0: 6150 c33d e972 c33d 675f 0cbd 0b13 61bd
000002c0: f5d9 0abe 4b0f d63d b82d 98bc 2e96 933d
000002d0: 5cd6 9abc ff15 74bd e937 1d3c a232 77bd
000002e0: 8e5c b2bc e139 153c 37b7 e63d 2fa6 e1bd
000002f0: d03f 663d 665d aebd a1dc c9bb babe 1c3d
00000300: 964a 1c3e f847 003e 03c8 383d b4ad dcbd
00000310: 7ab1 573c 784f 033e 0d2d 673d 181f 63bc
00000320: dc49 57bd d6e4 0cbe c502 00be 95d1 dfbd
00000330: e0c3 653d 01e6 bb3d 09b9 3cbd 9840 0e3e
00000340: 8ed7 0a3e d28b dbbd 90da 6fbd 9e9a 25bd
00000350: 2dc6 573d 190a ab3d 05bb 8e3d 69a4 58bd
00000360: 501c a93d f3af 9e3c a3ee a6bb 640e 03be
00000370: 13bc a33d 5b44 2ebd 297b e4bd 1834 b93d
00000380: 1101 85bd 979a 0a3e 5ca0 7a3d fc3a 03be
00000390: a347 d8bd 355c a73d 6def f1bd 4c43 50bd
000003a0: 5b07 063e 670f dbbd 1be4 edbc 6928 7bbd
000003b0: 9a72 5fbd 27d5 bfbc 89f0 ba3d bed4 51bc
000003c0: cf07 703c 01a0 9fbb 674a ff3d 1dcd f83c
000003d0: 7a82 a1bd 4670 233d b1e3 2b3d 95de 77bd
000003e0: eb4b ef3c 7ca3 88bd b68c 383e a52c 003e
000003f0: 1a6d 153e 3c02 e6bb e0ad a1bd 8b92 38bd
0.14478783 -0.13078718 0.005378532 -0.13527283 0.07305912 -0.17974639 -0.03308483 -0.058963075
0.14779265 -0.122054815 0.031952783 0.15371223 0.12857345 -0.05921814 0.059056513 -0.08472953
0.108851776 -0.07189392 -0.1619464 0.10826733 -0.16366291 -0.0630486 -0.17701118 -0.00683268
0.05502552 0.028982146 -0.24777843 0.03647302 0.29333174 -0.16280442 -0.0075160926 0.0056866356
0.14556473 -0.14024816 -0.109149225 -0.075398244 -0.21824537 -0.068092115 0.08464331 -0.0030384068
0.17732772 0.0060940282 -0.07772774 -0.07412065 0.10995368 0.13845876 -0.13136086 -0.011400377
-0.068047725 -0.055992786 0.12457607 -0.2216977 -0.19511107 -0.061918467 -0.084697165 -0.069957495
0.22259623 0.010352297 0.03667816 -0.13550022 0.12329378 0.07221471 -0.15668829 -0.17216712
0.17145248 -0.015127939 0.15225442 0.06036182 0.06422268 0.09833877 0.13151993 0.011932418
-0.0857287 -0.040741954 -0.1392397 0.04248552 -0.3681633 0.053467866 0.28858134 0.030240336
-0.08801349 -0.17792277 -0.19243209 -0.04926425 -0.20926334 -0.088322155 0.008926886 0.14149512
0.040756747 0.039216895 0.22973488 0.036300305 0.03326272 0.032685168 0.11157317 -0.032540362
0.011495083 0.04854892 -0.020218806 -0.09887926 -0.046202846 0.08289231 -0.078379795 -0.039960306
-0.052954838 -0.08158265 0.26991212 0.06539804 -0.011978914 -0.009417611 0.17295605 -0.14814098
-0.05721211 0.06579627 -0.26434827 -0.07548089 -0.0051707164 -0.23170629 0.27185804 0.059593093
0.062674545 -0.013489342 0.04979088 -0.031873655 0.1117695 -0.19958979 0.15598433 0.010659267
0.014971473 -0.09145619 -0.043465924 0.15537037 -0.11232438 0.02510161 0.24686348 -0.26528454
0.05180953 -0.18992181 0.004186014 0.13866468 0.15066825 0.055600725 -0.09703334 -0.048018377
-0.0031938122 -0.0727001 -0.10852233 -0.13130541 0.14588572 -0.08622238 -0.050402705 -0.0744017
0.113880835 -0.019444646 -0.035896216 -0.021979574 0.035526723 -0.009354024 0.04953857 -0.054232832
0.032162957 0.14735672 -0.031916983 -0.049921572 0.11805702 0.10588061 -0.09552659 0.08335347
-0.10819454 -0.09341271 -0.050483722 0.111856155 0.095368154 0.09543402 -0.03427067 -0.0549498
-0.13559707 0.10452136 -0.018576488 0.07206379 -0.018901043 -0.05959129 0.00959585 -0.06035102
-0.02177265 0.009108038 0.11265414 -0.11018025 0.0562132 -0.08513908 -0.006160334 0.03826783
0.15262827 0.12527454 0.04511262 -0.10775319 0.013164872 0.12823284 0.05643945 -0.013862394
-0.052560672 -0.13759169 -0.12501056 -0.109286465 0.056095004 0.09174729 -0.0460749 0.13891828
0.1355879 -0.10720028 -0.058558047 -0.040430658 0.05267923 0.08351535 0.06969265 -0.05289117
0.08257353 0.019371009 -0.0050943657 -0.12798458 0.07994857 -0.042545658 -0.111563034 0.09043139
-0.06494344 0.13535534 0.061188087 -0.1281547 -0.105605386 0.08171884 -0.11813245 -0.05084543
0.13088743 -0.10696297 -0.029039433 -0.061317835 -0.054552652 -0.023417069 0.0912791 -0.012807069
0.014650299 -0.004871369 0.12465363 0.030371243 -0.078862146 0.039901994 0.04196519 -0.060515005
0.029211005 -0.06671807 0.18022427 0.1251703 0.145924 -0.0070193093 -0.07894492 -0.04506163

layers.2.bias f4 [50]
00000000: d8bf 8f3d cad1 1a3e 567a 083e 2d1f 1cbe
00000010: 34e0 043d 795a 523e a432 893e e1bb 8c3e
00000020: 7b6d 40bd c67d 1f3d a355 99bc 0f30 753e
00000030: 6fb8 5dbe ca95 cebd 89a0 7bbe 73ea f63d
00000040: 3ccf 2f3d d0bb 193f fa29 0dbd b982 82be
00000050: 6afe 35be 0106 00bd a343 863d b86d 553e
00000060: ccc9 b6bd 5a18 39be 1eb7 263d 0b2c 0ebe
00000070: fce8 a4bd d546 6f3e 10bc c1bd 95f1 743e
00000080: fd05 9b3e d70b 99bd d81e fdbd 43a6 8f3e
00000090: 5c54 06be 386c 203e 08cf 193e 557a dd3c
000000a0: 6bb2 d3bc 53a3 5e3e 4930 1d3e 3dd3 913e
000000b0: 0484 783d eeb8 23be 643d 833d 8aee c03d
000000c0: 5e8f 103d f17a 8dbd
0.07019013 0.1511909 0.13327917 -0.15246268 0.03244038 0.20542325 0.26796448 0.2748709
-0.04697941 0.038938306 -0.018717593 0.23944114 -0.21652387 -0.10087164 -0.24572958 0.120564364
0.042922243 0.60052204 -0.03446386 -0.25490358 -0.17772833 -0.031255726 0.065558694 0.20842636
-0.089252084 -0.18075696 0.040701978 -0.13883989 -0.08052251 0.23366864 -0.09459698 0.23920281
0.30278006 -0.074729614 -0.123593986 0.28056535 -0.13118118 0.15666282 0.15020382 0.027035872
-0.025841912 0.21741991 0.1535045 0.28481475 0.060672775 -0.15988514 0.06408194 0.09420498
0.035292976 -0.06908215

layers.4.weight f4 [1, 50]
00000000: 5eab c13e d774 c23e e67f 053f 07c5 83bd
00000010: 15bb 863c ce74 493f 2230 3f3f 8606 753f
00000020: 316a 883d 8492 07be e36e 973c 8a75 593f
00000030: cdb4 7f3f d759 85be 0b99 eb3f 15cf 413f
00000040: 8bc8 a33d 4bed b2c0 e8ea 123d 52e1 d6be
00000050: f21b 87be 55c4 a73d 57ca 02bc 3221 b73e
00000060: c3a4 dbbe ff08 a1bf cc6a f6bc d2c1 1dbe
00000070: b8fa f7be d6e7 b13e ed6c 9cbc 701b 203f
00000080: 40a0 5b3f 3ceb 813d 01a3 edbe 5992 f33e
00000090: 1e58 09c0 c2e7 383f 37e2 ea3d f64a b3bc
000000a0: 0448 cebe 61cf b43e ea1c 003e e509 efbf
000000b0: c1b2 9c3e 03b5 90be 372f a33e 57c3 7b3d
000000c0: 2696 88be 3595 f6be
0.37826055 0.37979767 0.5214828 -0.06434064 0.01644663 0.78693855 0.7468282 0.9571308
0.066608794 -0.13239485 0.018485492 0.84944975 0.99885255 -0.26045105 1.840608 0.7570661
0.07997235 -5.5914664 0.035868555 -0.4196878 -0.26388508 0.08191744 -0.007982812 0.35767514
-0.4289914 -1.258087 -0.030080222 -0.15405968 -0.4843347 0.3474719 -0.019094909 0.62541866
0.857914 0.063436955 -0.46413425 0.47572592 -2.1460032 0.72228634 0.11468928 -0.02188633
-0.4028932 0.35314468 0.1251103 -1.8674895 0.30605128 -0.282631 0.3187196 0.061465587
-0.26677054 -0.4816071
