model/results/skew-skew/var-e10000/10-10-SGD-tanh-0.001-50-e10000-var.pt (torch, 3375 bytes, 5 tensors)

layers.0.weight f4 [10, 5]
0	0x3f10320f	0.56326383
1	0x3dcb575d	0.099287726
2	0xbe0bbaf5	-0.13645537
3	0x3e8ec6a9	0.2788594
4	0xbda87d6e	-0.08227049
5	0xbdf7c30d	-0.1209775
6	0xbce56b6a	-0.02800532
7	0x3f1d4dd8	0.61446905
8	0x3ea66b0e	0.3250355
9	0x3e63687c	0.22207826
10	0xbecad1b6	-0.39613122
11	0xbca6df44	-0.020370133
12	0x3e96789b	0.2938889
13	0x3edefc21	0.43551734
14	0xbdfbb503	-0.122903846
15	0xbee1de2b	-0.44114813
16	0x3e2b2760	0.16714239
17	0xbea409ba	-0.3203867
18	0x3d4db585	0.05022194
19	0xbd5d82e2	-0.054079898
20	0xbe754799	-0.23953094
21	0xbc878174	-0.01654122
22	0xbde9844c	-0.11402187
23	0xbe2edb29	-0.1707579
24	0xbd42aedf	-0.04753005
25	0xbe54a2e4	-0.20765263
26	0xbcf4c172	-0.029877398
27	0xbf07120d	-0.5276192
28	0x3f55ab33	0.83464354
29	0xbe7c2d4f	-0.24626659
30	0x3f04b7b8	0.5184283
31	0x3e82d50a	0.2555316
32	0xbf16393d	-0.5868109
33	0xbe841c1f	-0.25802705
34	0x3d2390e1	0.03993309
35	0xbee223a8	-0.4416783
36	0x3e3a6641	0.1820307
37	0xbec2fccb	-0.3808349
38	0xbe685fdf	-0.22692822
39	0x3ebb2ad5	0.36556116
40	0xbdb018b1	-0.085984595
41	0xbe835653	-0.25651798
42	0xbdfc28bd	-0.12312458
43	0xbe9b9194	-0.30384505
44	0x3df197f9	0.117965646
45	0xbe14c0b8	-0.14526641
46	0xbd132ecc	-0.0359333
47	0x3ea1d65f	0.31608865
48	0xbd831704	-0.06400874
49	0xbec8aab2	-0.3919273

layers.0.bias f4 [10]
0	0x3ebb26ca	0.3655303
1	0xbf24779e	-0.6424502
2	0xbe8e803e	-0.27832216
3	0xbe82bccf	-0.25534675
4	0x3e57f02b	0.2108771
5	0x3f3c0b03	0.734543
6	0xbf3387eb	-0.7012927
7	0x3e8d81de	0.27638143
8	0x3deac18e	0.11462699
9	0xbd5cd100	-0.053910255

layers.2.weight f4 [10, 10]
0	0xbe5d9497	-0.21638714
1	0x3e8574e5	0.26065746
2	0xbe7f2906	-0.24917993
3	0xbe06b2fa	-0.13154212
4	0xbeaad26d	-0.33363667
5	0x3e334ccf	0.17509769
6	0x3df89d3c	0.12139365
7	0xbdbd3bac	-0.09239897
8	0xbe16bac1	-0.14719678
9	0xbdc22215	-0.09479157
10	0xbe36941b	-0.17829935
11	0x3e10aa15	0.14127381
12	0xbe2cbb5c	-0.16868347
13	0x3e4e5560	0.20149755
14	0x3c1e1ba4	0.009650145
15	0xbe38127b	-0.179758
16	0x3cf23287	0.029565109
17	0x3df64d80	0.12026501
18	0x3e662fa8	0.22479117
19	0x3e1021f7	0.14075457
20	0x3e87e43b	0.26541314
21	0xbe123321	-0.14277317
22	0xbd8b9d6b	-0.068171345
23	0xbd362e06	-0.044477485
24	0xbe540140	-0.20703602
25	0xbca0a258	-0.019608662
26	0x3e19232a	0.1495482
27	0xbe848591	-0.25883153
28	0x3d779431	0.06044406
29	0x3d48efab	0.04905669
30	0xbe77be5a	-0.24193707
31	0x3e1f4700	0.15554428
32	0xbe5dad39	-0.2164811
33	0xbf0c97d1	-0.54919153
34	0xbeb38ecb	-0.3506988
35	0x3ed18564	0.4092208
36	0x3ddd636d	0.108099796
37	0xbe999e5e	-0.30003637
38	0x3e79e9d6	0.24405608
39	0x3e8fdd4b	0.2809852
40	0x3e8756bf	0.2643337
41	0xbda18bc6	-0.07887988
42	0xbe0cfcc5	-0.13768299
43	0x3e51fee8	0.20507395
44	0x39a5784b	0.00031560878
45	0x3dd03f2c	0.10168299
46	0x3c16ce49	0.009204456
47	0x3d5f444e	0.0545085
48	0xbe71d678	-0.2361697
49	0x3e0deb79	0.13859357
50	0x3e093205	0.13397987
51	0x3cb6f88b	0.022335311
52	0xbe028dba	-0.12749377
53	0xbe8f29f9	-0.2796171
54	0xbcbd9fbf	-0.023147462
55	0xbee510c3	-0.4473935
56	0xbea60e0d	-0.32432595
57	0xbea3596b	-0.31904158
58	0x3dc26247	0.09491401
59	0x3d680bed	0.056652
60	0xbdb09ad5	-0.08623282
61	0x3e57de06	0.21080789
62	0xbe0438f3	-0.1291235
63	0xbe62c55e	-0.22145602
64	0xbe7cc4c8	-0.24684441
65	0xbdc59ef7	-0.09649461
66	0x3ed7732a	0.4208005
67	0xbdb3fab7	-0.087880544
68	0xbe57bb42	-0.21067527
69	0xbeb62afa	-0.35579664
70	0x3e5688bb	0.20950596
71	0xbf32140d	-0.69561845
72	0xbed3c0ae	-0.4135794
73	0xbca1e29b	-0.019761374
74	0x3e1f3d14	0.15550643
75	0xbe6b071e	-0.22951934
76	0xbe8faaab	-0.28059897
77	0xbe0c4043	-0.13696389
78	0x3e05e53d	0.13075729
79	0x3e68d053	0.2273572
80	0x3e5a9fae	0.21349975
81	0xbd827402	-0.06369783
82	0x3dc96478	0.09833616
83	0xbe22137c	-0.15827745
84	0x3e8c32e7	0.27382585
85	0x3e4f70a5	0.20257814
86	0x3dcb8689	0.0993777
87	0xbd1a7e7d	-0.037718285
88	0xbde750ca	-0.11294706
89	0xbc3edf4f	-0.011649921
90	0x3e410281	0.18848611
91	0xbe011e9a	-0.1260933
92	0xbe966dec	-0.2938074
93	0x3e9fad88	0.3118708
94	0x3e0029b1	0.12515904
95	0xbe6802e7	-0.22657357
96	0xbea44026	-0.3208019
97	0xbd89e96e	-0.06733976
98	0xbd2c292b	-0.04203145
99	0xbe5621ec	-0.20911378

layers.2.bias f4 [10]
0	0xbdd295a1	-0.10282446
1	0xbcf738b5	-0.030178407
2	0x3dfe65b9	0.12421746
3	0x3e968eac	0.29405725
4	0x3eb77baf	0.3583655
5	0xbe517839	-0.20456018
6	0xbe82a572	-0.2551685
7	0x3ea882ba	0.32912236
8	0xbd5a75c1	-0.053334955
9	0xbe8bb374	-0.2728535

layers.4.weight f4 [1, 10]
0	0x3efac4fd	0.48978415
1	0xbe72390e	-0.23654577
2	0x3e3633a9	0.17793144
3	0x3f2ea8ec	0.68226504
4	0x3dd6f0e8	0.10495168
5	0xbf12a6ef	-0.5728597
6	0x3ef04b3e	0.46932405
7	0xbf248099	-0.64258724
8	0x3dbae71c	0.09126112
9	0xbedf42e7	-0.4360573
