model/results/skew-skew/var-e10000/10-10-SGD-relu-0.001-50-e10000-var.pt (torch, 3375 bytes, 5 tensors)

layers.0.weight f4 [10, 5]
000000 75 58 ff 3d 6d fd c2 bc 37 be ce be c6 58 1d 3f
       0.12468044 -0.023802483 -0.40379497 0.6146358
000010 98 c9 06 3d 96 89 01 3f b4 a5 2e 3e 21 28 66 be
       0.0329071 0.50600564 0.17055398 -0.22476245
000020 09 32 d5 bb 72 cf 02 3c 0f 9d 2c bc 85 d7 ec 3c
       -0.006506209 0.007984029 -0.010535493 0.028911361
000030 28 41 37 3e 7b 08 dd 3e c2 60 2a 3e 4f be 3d 3e
       0.17895949 0.43170533 0.16638473 0.18529628
000040 25 b2 b6 3d 02 bd 91 3e 62 f6 84 3e 7a d8 c1 3d
       0.08920697 0.28464514 0.25969225 0.09465118
000050 3d a0 aa 3e 56 ea c2 3c 14 cb d4 be e0 e7 b7 be
       0.33325377 0.02379338 -0.41561186 -0.35919094
000060 7f b1 03 3e 48 e6 cd be ed 3d f2 3d 1d f1 ad be
       0.12860678 -0.40214753 0.11828218 -0.33973017
000070 5a 33 13 3e 29 71 9e bc f6 58 bd be 64 71 0a 3e
       0.14375058 -0.019341068 -0.36981934 0.13519818
000080 a8 99 13 be b8 d7 bc 3e 22 e6 e9 3e 17 e4 7f be
       -0.14414084 0.3688333 0.4568339 -0.24989353
000090 b6 74 90 bd 4d 68 f6 3e 2b e6 6b 3e 86 a9 0b 3d
       -0.07053511 0.4812645 0.23037021 0.034097217
0000a0 d7 4f a2 3d 07 bb a7 bc d2 0a 30 3e 88 0b 3d bf
       0.079253845 -0.020474924 0.17191628 -0.7384572
0000b0 92 f1 3f 3e d6 9f 40 3e 80 72 5d 3e c6 11 61 be
       0.18744496 0.18810973 0.2162571 -0.21979436
0000c0 db 7c b4 3e 41 05 b9 3e
       0.35251507 0.3613682

layers.0.bias f4 [10]
000000 c2 11 cc 3e 84 b2 1a be b5 e1 95 be 4b ce 42 3e
       0.39857298 -0.15107161 -0.29273763 0.19024007
000010 1f 9c c2 be 86 da 52 3e 45 8f 1e 3d 02 74 3e be
       -0.38009736 0.20591173 0.03871085 -0.18598941
000020 97 0f e2 3e 4d 5d ec 3e
       0.4415252 0.46164933

layers.2.weight f4 [10, 10]
000000 5e 99 83 be 2a d4 b8 3b 42 06 c2 3e f6 4d 70 3e
       -0.25702947 0.0056405263 0.378954 0.2346724
000010 88 d7 90 3e eb 4c 75 3d 07 51 44 be 3f 69 f0 bd
       0.28289437 0.059887808 -0.19171534 -0.11738824
000020 6f f7 2a 3e 69 3f 1d bd 9e d2 17 3e 76 98 c2 3c
       0.16695951 -0.03839055 0.14826438 0.02375434
000030 db 53 93 be b7 ad 80 be 2d e6 96 be 18 e0 a1 3e
       -0.28774914 -0.25132534 -0.29472485 0.31616282
000040 53 20 c5 bd b0 2b 20 3e 19 45 9a 3e 0b bb 8c 3b
       -0.09625306 0.15641665 0.30130842 0.004294758
000050 16 84 e8 3e aa f8 96 3e a2 78 51 bc f8 6a 74 3e
       0.45413274 0.2948659 -0.012785109 0.2386893
000060 10 9d 14 be 27 30 a4 be 2b f6 2b bd 60 86 8a 3e
       -0.1451304 -0.32067987 -0.04198281 0.27055645
000070 2f 03 7a be 33 52 d8 3e 4f 7c 92 3e 79 e9 2b 3e
       -0.24415277 0.42250213 0.28610465 0.16788282
000080 63 1f f6 3d ce ec a0 3e 5d 6a d3 3c 2c 15 25 3e
       0.12017705 0.31430668 0.025807554 0.16121358
000090 3d de 77 be 5d 34 62 3e c9 61 68 3d d6 75 a4 bd
       -0.24205871 0.22090288 0.05673388 -0.08030288
0000a0 89 6e 1c 3e 2f fb 89 be 05 d6 87 bd c1 0f 20 be
       0.15276541 -0.2694945 -0.06632618 -0.1563101
0000b0 3b 8a 40 3e 6d 82 ab 3e 4b f5 4e be 4f 15 3d bd
       0.1880273 0.33497944 -0.2021076 -0.0461629
0000c0 eb 32 b8 be 66 40 48 3e 5a 12 a9 3d b3 7f 1e 3d
       -0.35976347 0.19555816 0.082554534 0.038696002
0000d0 75 9c 6f be f3 db 28 be cd 24 21 be 39 da 86 be
       -0.23399527 -0.16490154 -0.15736695 -0.26338366
0000e0 c8 d4 94 bc 9f 5c 25 3d bc 5b 9f be c3 ae 42 bb
       -0.018167868 0.040371533 -0.31124675 -0.0029706217
0000f0 7e 62 5e be 7b 73 d3 bd 85 ce 67 be cc 69 80 be
       -0.2171726 -0.103247605 -0.22637375 -0.25080717
000100 89 3c 85 3e d7 7c 90 be 8f 0f dc 3d 4b 67 b0 be
       0.26022747 -0.28220245 0.10745155 -0.34453806
000110 ce c5 1c 3e a1 59 2c 3e 89 67 7f be 94 ef 31 be
       0.15309832 0.16831066 -0.2494184 -0.17376548
000120 b0 ab de bd 7f 41 dc bc 64 54 24 3e 70 3a d0 3d
       -0.108725905 -0.0268867 0.16047817 0.10167396
000130 24 42 41 3d 28 43 7e bc c6 fe 89 3e e6 2c 73 3e
       0.047182217 -0.015518941 0.2695219 0.23747596
000140 9f 28 9a be e9 dc 80 3e d0 c1 a5 bc 20 4c 77 be
       -0.30109116 0.2516854 -0.020234019 -0.24150133
000150 d9 11 1e bd f6 40 67 3d 6b 57 66 be 1d a2 5f 3d
       -0.03859124 0.056458436 -0.22494285 0.054597963
000160 5f 22 88 3e 70 2d 97 be 43 6f f5 3e 20 c1 24 bd
       0.26588723 -0.29526854 0.47936448 -0.04022324
000170 b7 f6 bf bd 8a d9 3e 3e e0 25 bf 3d f7 91 9f 3e
       -0.09373229 0.18637672 0.09333396 0.3116605
000180 9e 34 46 be cf f3 9c bd 77 5f b8 be fe 07 36 be
       -0.1935601 -0.0766369 -0.36010334 -0.17776486

layers.2.bias f4 [10]
000000 30 e2 58 3c b3 d1 90 3e fe 53 66 3e 64 cb 7c bd
       0.013237521 0.28284988 0.22492978 -0.061717406
000010 f8 e6 25 3e f5 0e 45 be 3c d1 02 3f 83 cf 0b 3c
       0.16201389 -0.19243987 0.51100516 0.008533361
000020 a1 61 ed bd d4 da 24 bd
       -0.11590887 -0.040247753

layers.4.weight f4 [1, 10]
000000 7b b9 b6 be 17 fa cb be 62 54 03 3f 89 eb 69 3e
       -0.35688385 -0.3983924 0.5130063 0.22843756
000010 09 f8 96 be 4a 94 59 be 94 29 0d bf c2 2f 42 be
       -0.2948611 -0.21247974 -0.5514157 -0.1896353
000020 5a 7f a9 bd 1a 41 89 be
       -0.082762435 -0.2680748
