model/results/skew-skew/var-e10000/100-100-SGD-tanh-0.001-50-e10000-var.pt (torch, 45759 bytes, 5 tensors)

layers.0.weight f4 [100, 5]
-0.15724881 0.20357695 0.16687359 0.027303496 -0.3531764 -0.3113098 -0.20265631 0.09145901
0.37472755 -0.4474194 -0.060262956 0.14420913 0.4376342 0.09560247 0.37330535 -0.23362817
-0.3400753 0.31035677 -0.15863879 -0.27286077 0.46133363 0.41190273 -0.0030856456 -0.3830673
0.31509748 0.041585807 -0.07693966 -0.02651188 0.32737142 0.22142068 -0.10123172 0.25543484
-0.0007072247 0.11385873 0.35680518 0.08562777 -0.11469942 -0.3190275 0.35703337 -0.0364845
-0.082963884 -0.18005587 0.23407277 0.11839981 -0.06590339 0.07062703 0.30026913 0.39389247
0.21302497 0.35666847 -0.3573611 -0.35183764 0.35634506 0.29378852 0.3831141 -0.40721697
0.4043183 0.27975956 0.0644166 -0.009238811 -0.24022982 -0.21912417 0.07887952 -0.13067214
0.11721081 0.008921935 -0.21103628 -0.15307727 0.0021833114 0.42582542 0.034687 -0.20814066
-0.09135828 0.20812102 -0.19651073 -0.49100354 0.079818286 -0.26064774 -0.3942635 -0.16982451
0.12926263 -0.2242354 -0.14075617 -0.20360078 -0.056066718 -0.06227465 0.44035608 -0.38386676
-0.32785398 0.36994463 -0.0681465 0.33747327 0.37995324 -0.5074064 0.01877772 -0.4385812
0.23274429 0.34404877 -0.44093478 0.0071374564 0.39200148 -0.06477709 0.4120931 -0.3225831
-0.346968 -0.39721614 0.028611211 -0.25369528 -0.10937665 0.18319911 -0.33422402 -0.19353376
0.09665632 0.11231982 0.01256973 -0.3598115 0.12066792 0.25817 0.05449704 0.183421
0.014466676 0.15761273 0.27135894 0.044993963 0.1163537 -0.25270703 0.026821101 0.15893632
-0.3595447 0.2014162 -0.039262075 0.023944303 0.3585437 -0.21491258 -0.23934378 0.02368618
-0.2418171 -0.02977319 0.21103281 0.01095606 0.24144119 0.06825578 -0.26076025 -0.04742114
-0.16907686 0.14579082 -0.17135052 0.30745196 -0.3107823 -0.023174182 -0.1225934 0.31341326
-0.3110404 0.37155393 0.28135878 -0.2580761 -0.27981892 0.073361956 0.050254494 0.012262832
0.0829575 0.03168988 0.2888512 0.04138253 -0.19078007 -0.2567758 0.10125317 0.36447546
-0.065428965 -0.3193098 0.19644582 -0.16153182 -0.019989021 0.23943502 -0.14387672 0.36556637
-0.25071454 0.3214053 0.19516288 -0.21589677 0.1303791 -0.30655733 0.14566576 -0.06874011
-0.1881145 0.26669097 0.008877579 0.16863126 -0.45990422 -0.0065079685 -0.26974943 0.0948721
-0.23512116 -0.15805238 -0.20838109 0.25146964 0.20526847 -0.18618602 -0.31597617 0.2921705
0.08773283 0.29515463 -0.22256066 0.003955242 0.08798373 -0.012087617 -0.13858095 0.22134161
-0.05789436 0.13003767 0.10460079 0.34210008 0.4503315 -0.16184796 -0.25725827 0.2709243
0.14214687 0.01444306 -0.1835746 0.21265575 -0.34389627 -0.026049046 0.1874267 -0.2988558
-0.40281686 0.047147244 -0.34880394 -0.072845966 0.164151 0.1423454 0.14561668 0.39679444
-0.4404753 -0.41501567 0.20494823 0.075283416 0.16413686 0.16982071 0.10089186 0.2723344
-0.42937788 -0.38729385 0.44174722 -0.29454136 -0.10881541 -0.24609676 -0.2867096 0.19953984
0.021901127 -0.39891934 -0.11290611 0.4507509 0.40257978 0.10736381 -0.3443165 -0.15901223
00000000: d505 21be 7a76 503e e9e0 2a3e 95ab df3c
00000010: 89d3 b4be 0064 9fbe 2385 4fbe dd4e bb3d
00000020: 4adc bf3e 2814 e5be 4ad6 76bd 8fab 133e
00000030: 9711 e03e 3acb c33d e121 bf3e 393c 6fbe
00000040: 5a1e aebe 15e7 9e3e 3572 22be 68b4 8bbe
00000050: ec33 ec3e eae4 d23e 8b38 4abb 6621 c4be
00000060: 7554 a13e e155 2a3d 8a92 9dbd 712f d9bc
00000070: 3a9d a73e 1abc 623e 9352 cfbd 5bc8 823e
00000080: 0c65 39ba c42e e93d 2baf b63e 9d5d af3d
00000090: 88e7 eabd 9357 a3be 14cd b63e c570 15bd
000000a0: f8e8 a9bd 9160 38be c6b0 6f3e 997b f23d
000000b0: 5bf8 86bd e8a4 903d e0bc 993e 46ac c93e
000000c0: 3823 5a3e 409d b63e 09f8 b6be 1024 b4be
000000d0: dc72 b63e 736b 963e 8827 c43e be7e d0be
000000e0: cf02 cf3e a53c 8f3e daec 833d 625e 17bc
000000f0: cefe 75be 1662 60be 968b a13d ebce 05be
00000100: 390c f03d 4f2d 123c e519 58be 4ac0 1cbe
00000110: e315 0f3b ca05 da3e f513 0e3d d322 55be
00000120: 0d1a bbbd ad1d 553e 1c3a 49be d164 fbbe
00000130: c577 a33d 9f73 85be e8dc c9be 7ae6 2dbe
00000140: 6c5d 043e f79d 65be 6322 10be b97c 50be
00000150: 37a6 65bd b413 7fbd 5a76 e13e 2f8a c4be
00000160: 7adc a7be 6269 bd3e 6490 8bbd 4cc9 ac3e
00000170: 3b89 c23e 63e5 01bf bcd3 993c b78d e0be
00000180: 8554 6e3e 2927 b03e 34c2 e1be 53e1 e93b
00000190: 6bb4 c83e daa9 84bd defd d23e 9d29 a5be
000001a0: caa5 b1be ea5f cbbe 0f62 ea3c 59e4 81be
000001b0: dd00 e0bd 8c98 3b3e 691f abbe b72d 46be
000001c0: c0f3 c53d ef07 e63d 45f1 4d3c 3739 b8be
000001d0: be20 f73d dc2e 843e 4a38 5f3d b7d2 3b3e
000001e0: a305 6d3c 3b65 213e 8fef 8a3e 974b 383d
000001f0: d94a ee3d d162 81be edb7 db3c 34c0 223e
00000200: 3e16 b8be 0c40 4e3e 45d1 20bd d826 c43c
00000210: 0a93 b73e 0b12 5cbe 8916 75be 8509 c23c
00000220: e79e 77be e8e6 f3bc fc18 583e 0c81 333c
00000230: 5c3c 773e b0c9 8b3d 5e82 85be ab3c 42bd
00000240: 7c22 2dbe 304a 153e 8376 2fbe 586a 9d3e
00000250: dc1e 9fbe c8d7 bdbc 4012 fbbd b477 a03e
00000260: b040 9fbe 513c be3e 420e 903e 8d22 84be
00000270: 6d44 8fbe cb3e 963d a8d7 4d3d 0cea 483c
00000280: 9fe5 a93d 3fcd 013d 4ee4 933e ba80 293d
00000290: da5b 43be 1e78 83be d25d cf3d 879c ba3e
000002a0: 9fff 85bd 937c a3be 1829 493e 9968 25be
000002b0: 04c0 a3bc 742e 753e 6b54 13be 842b bb3e
000002c0: a85d 80be 3c8f a43e c7d8 473e 0b14 5dbe
000002d0: 1982 053e 15f5 9cbe 6829 153e 9dc7 8cbd
000002e0: 16a1 40be b88b 883e 4473 113c acad 2c3e
000002f0: 9178 ebbe cc40 d5bb 991c 8abe 4e4c c23d
00000300: 9ac3 70be 7cd8 21be da61 55be a1c0 803e
00000310: e631 523e 8ca7 3ebe a1c7 a1be 5f97 953e
00000320: 45ad b33d 821e 973e f1e6 63be fa9a 813b
00000330: d030 b43d 240b 46bc 2ae8 0dbe 60a7 623e
00000340: a322 6dbd 9828 053e f038 d63d be27 af3e
00000350: da91 e63e 79bb 25be 5bb7 83be 97b6 8a3e
00000360: f38e 113e 96a2 6c3c fbfa 3bbe 6ec2 593e
00000370: 2c13 b0be cf64 d5bc c9ec 3f3e a103 99be
00000380: 033e cebe 781d 413d 6e96 b2be 4430 95bd
00000390: 3317 283e fec2 113e 8a1c 153e a428 cb3e
000003a0: fb85 e1be ef7c d4be f3dd 513e 312e 9a3d
000003b0: 7e13 283e 7be5 2d3e 64a0 ce3d 6a6f 8b3e
000003c0: 6bd7 dbbe 614b c6be b12c e23e 20ce 96be
000003d0: 9dda debd ca00 7cbe 9acb 92be 2c54 4c3e
000003e0: fe69 b33c 283f ccbe 523b e7bd d2c8 e63e
000003f0: f01e ce3e 8fe1 db3d 414a b0be 1ad4 22be

layers.0.bias f4 [100]
0.045353506 0.37898797 -0.2635523 -0.34438843 -0.13747959 0.0020847963 -0.1397237 0.35539556
-0.13652192 0.3320805 -0.21905145 0.39169437 -0.41679886 -0.25494123 -0.34840447 -0.19682316
-0.25503743 0.39699352 -0.47418696 -0.44361085 -0.0009939577 -0.17196707 -0.18499744 -0.3799736
0.21596587 -0.2815425 0.14462303 -0.058332838 0.06863524 0.1567436 -0.34732044 -0.12864329
0.2599547 -0.086666375 0.16650487 0.008915139 -0.2238226 0.038414814 0.039641757 0.3569978
0.22298361 -0.16494943 0.27915564 0.112692095 -0.15010533 0.034263134 -0.4356752 -0.3233939
-0.054649543 -0.3059322 -0.14478655 -0.44073343 0.39621723 -0.087671846 -0.44448757 0.36420056
0.02010462 0.4103443 -0.29707563 0.32383668 -0.35606414 -0.14455654 -0.36472213 0.35065174
-0.44274023 0.25965646 -0.0748015 0.23964916 0.26174086 0.41761434 0.07832092 -0.4503269
0.35069567 0.44697702 -0.1805479 -0.25314754 -0.016354354 0.2383521 -0.29580504 -0.16837667
-0.3982405 0.017094884 -0.13306867 0.31328538 0.41969296 -0.11260741 -0.34505114 0.2795527
-0.33024988 0.20846656 0.38197684 -0.35324728 0.27973494 -0.46798834 -0.15430307 0.47361314
0.22992812 -0.23318818 0.42420593 0.18483278
00000000: 99c4 393d b60a c23e 54f0 86be ae53 b0be
00000010: 73c7 0cbe 14a1 083b bb13 0fbe 68f6 b53e
00000020: 67cc 0bbe 7506 aa3e 064f 60be 2a8c c83e
00000030: a966 d5be a887 82be 1262 b2be 038c 49be
00000040: 4494 82be bc42 cb3e a2c8 f2be f620 e3be
00000050: b047 82ba 2318 30be f86f 3dbe e68b c2be
00000060: 2826 5d3e 5726 90be 0f18 143e 6aee 6ebd
00000070: a290 8c3d 6581 203e fcd3 b1be 11bb 03be
00000080: c818 853e 247e b1bd 4180 2a3e ce10 123c
00000090: c031 65be da58 1d3d 655f 223d 6ac8 b63e
000000a0: d155 643e 81e8 28be 7ded 8e3e 1dcb e63d
000000b0: 36b5 19be 8057 0c3d d210 dfbe e393 a5be
000000c0: 33d8 5fbd 25a3 9cbe ed42 14be d0a7 e1be
000000d0: fcdc ca3e 4c8d b3bd e093 e3be 7f78 ba3e
000000e0: 72b2 a43c a618 d23e 4c1a 98be eccd a53e
000000f0: 0a4e b6be a106 14be dcbc babe a088 b33e
00000100: d9ae e2be b1f1 843e 8731 99bd 9766 753e
00000110: e602 863e 8cd1 d53e b866 a03d 3f91 e6be
00000120: 628e b33e 2cda e43e 8ce1 38be 8e9c 81be
00000130: 91f9 85bc 9312 743e c273 97be ef6a 2cbe
00000140: 2ee6 cbbe 920a 8c3c 2743 08be f166 a03e
00000150: ffe1 d63e b79e e6bd 8baa b0be 8821 8f3e
00000160: 8316 a9be 4278 553e 7892 c33e d4dc b4be
00000170: 6b39 8f3e 2b9c efbe a001 1ebe 6c7d f23e
00000180: 4772 6b3e e2c8 6ebe 8531 d93e ce44 3d3e

layers.2.weight f4 [100, 100]
0.08143869 -0.057492524 -0.025728792 0.082491845 0.053585988 0.0076389057 0.06909404 -0.065217264
-0.02332969 0.070125304 -0.017515045 -0.012578669 0.07822386 -0.05689655 0.06872577 -0.027330132
-0.07032348 -0.038155988 -0.0893191 -0.10430681 -0.018689115 0.07159844 -0.01988183 -0.07366349
-0.085605115 0.0892266 0.05550388 -0.07823399 -0.017184146 -0.053018924 -0.09387817 -0.07215572
0.09229834 0.064239964 -0.08288028 0.035190735 -0.07754937 0.011935538 -0.06370297 0.023145862
-0.05648284 0.012264475 -0.044434257 0.024267701 -0.05587162 -0.0072133904 0.040280852 -0.079690814
-0.08027477 0.09158787 -0.012453381 0.060522977 -0.05119021 0.024883937 -0.04737017 -0.0900257
-0.07392361 -0.062272098 0.07090921 -0.05212093 -0.024430517 -0.02672631 0.025877228 -0.04973694
-0.021713693 -0.067547396 -0.02626073 -0.024202686 -0.04998969 0.006590436 0.100015 -0.07047038
-0.08573723 -0.034813818 0.007485596 0.072712734 -0.061108675 -0.08962869 0.026762595 -0.09257422
-0.070778444 0.043897852 0.022679554 0.082978345 0.04914913 -0.09139537 0.077406056 -0.07102604
0.04573868 0.0058692438 -0.020477 -0.016199872 0.030153789 -0.016472654 -0.06730794 0.008143639
-0.080800764 -0.058022298 0.0128155565 -0.017982334 0.012697653 0.012578238 -0.074454635 0.005162341
-0.048342813 0.058314882 -0.09203208 0.06352059 0.007297623 0.04542196 -0.007159737 -0.012355631
0.060614318 0.047212645 -0.033871174 -0.0008284096 0.005123251 0.09002236 0.06475134 0.032351803
0.09503505 0.026189797 0.015894573 -0.1046191 0.05043151 -0.06638515 0.07142447 0.0074242647
-0.0014517939 -0.036025655 -0.017578656 -0.030649347 -0.06349827 0.088810325 -0.04746055 -0.06938796
0.008894018 0.109815344 -0.055863753 0.008196685 0.044004373 0.05482161 0.048801824 0.015179684
-0.05458168 0.02739264 -0.10454078 -0.010261648 -0.005361738 -0.018357707 -0.055424426 0.061486147
0.051493302 0.06763695 0.025997797 -0.083664864 0.022089023 0.030550344 0.00079261337 -0.03493354
-0.060814112 -0.051863007 0.044365708 0.061408203 0.017109275 -0.029465305 0.050366893 -0.066831864
0.0563356 -0.075214095 -0.0845729 -0.104267105 0.014094011 -0.045330152 -0.06089013 -0.038483877
-0.091721565 -0.039381918 -0.03768933 -0.07030053 0.057981547 -0.07117289 -0.050479073 0.11342897
-0.026772222 -0.07430726 0.048738312 -0.08003965 -0.007152662 0.084955454 0.023913825 0.064601876
0.06787599 0.005969933 0.009878625 -0.013762195 -0.04095004 0.03968101 0.10437519 0.07764651
0.043548003 -0.023611812 -0.099411204 -0.0640146 0.05216659 -0.040328957 0.08511198 -0.04494293
-0.09068827 0.055465717 0.08145932 -0.04958439 0.08253778 -0.06504684 -0.021938648 -0.08789211
0.016154218 0.059657313 0.04015265 -0.06037788 0.007226963 0.07230168 0.08370174 0.08837038
0.036069583 0.08324702 -0.015908122 0.08920534 0.019535054 -0.040066633 -0.076040424 -0.052645966
0.085133955 0.049566545 0.03905379 -0.05238371 -0.055080954 0.0804079 0.027075611 -0.06797854
-0.05609777 -0.06983417 -0.07249757 -0.09806946 -0.020317968 0.068474606 -0.08891326 -0.044537958
-0.07594866 -0.029874751 0.06336439 0.03494033 0.038092762 -0.08902693 0.032484762 -0.08613667
00000000: 54c9 a63d 487d 6bbd 30c5 d2bc 7cf1 a83d
00000010: fb7c 5b3d c94f fa3b 2d81 8d3d a190 85bd
00000020: e81d bfbc db9d 8f3d b67b 8fbc c316 4ebc
00000030: d533 a03d 5b0c 69bd 19c0 8c3d 71e3 dfbc
00000040: c205 90bd 7449 1cbd efec b6bd cf9e d5bd
00000050: ea19 99bc 34a2 923d 38df a2bc e2dc 96bd
00000060: bc51 afbd 70bc b63d 0958 633d 2439 a0bd
00000070: c4c5 8cbc 5f2a 59bd 3343 c0bd 61c6 93bd
00000080: e906 bd3d 3e90 833d 23bd a9bd 2924 103d
00000090: 34d2 9ebd 468d 433c b476 82bd 649c bd3c
000000a0: 8d5a 67bd f0f0 483c b200 36bd 0fcd c63c
000000b0: a4d9 64bd 4e5e ecbb 89fd 243d f034 a3bd
000000c0: 1967 a4bd 6c92 bb3d 4409 4cbc f1e6 773d
000000d0: d3ac 51bd 66d9 cb3c 3907 42bd 655f b8bd
000000e0: 4365 97bd 0711 7fbd d938 913d c27c 55bd
000000f0: 8222 c8bc 22f1 dabc 7bfc d33c f6b8 4bbd
00000100: eae0 b1bc 4a56 8abd be20 d7bc b644 c6bc
00000110: fdc1 4cbd 96f4 d73b aad4 cc3d c652 90bd
00000120: 0097 afbd ef98 0ebd bb49 f53b 6aea 943d
00000130: 174d 7abd 3f8f b7bd 3b3d db3c 8d97 bdbd
00000140: 4af4 90bd 3cce 333d 79ca b93c 8df0 a93d
00000150: 9950 493d 7f2d bbbd 1187 9e3d 1a76 91bd
00000160: 7b58 3b3d c952 c03b 62bf a7bc 98b5 84bc
00000170: 1405 f73c a9f1 86bc bfd8 89bd e66c 053c
00000180: df7a a5bd caa8 6dbd 57f8 513c b04f 93bc
00000190: d109 503c f414 4e3c ac7b 98bd db28 a93b
000001a0: 1d03 46bd 96db 6e3d 517b bcbd 1517 823d
000001b0: e620 ef3b 610c 3a3d 3a9c eabb 466f 4abc
000001c0: b846 783d 0c62 413d 80bc 0abd a129 59ba
000001d0: f2e0 a73b a55d b83d 5a9c 843d 5383 043d
000001e0: bca1 c23d fc8b d63c 5635 823c 8a42 d6bd
000001f0: 4591 4e3d f0f4 87bd fe46 923d 3f47 f33b
00000200: 1f4a beba a38f 13bd 1d01 90bc 5714 fbbc
00000210: 620b 82bd 30e2 b53d fe65 42bd 461b 8ebd
00000220: 37b8 113c dee6 e03d 64d1 64bd 644b 063c
00000230: ee3d 343d a08c 603d 6ce4 473d 36b4 783c
00000240: 0a91 5fbd 8866 e03c 7a19 d6bd 7920 28bc
00000250: 85b1 afbb e762 96bc b904 63bd e6d8 7b3d
00000260: a4ea 523d 3e85 8a3d 55f9 d43c 7c58 abbd
00000270: 0af4 b43c b744 fa3c 62c7 4f3a 7916 0fbd
00000280: 3818 79bd 4e6e 54bd d1b8 353d 2b87 7b3d
00000290: c028 8c3c 3961 f1bc 844d 4e3d 25df 88bd
000002a0: 28c0 663d d909 9abd 8e34 adbd fe89 d5bd
000002b0: 91ea 663c 1cac 39bd ee67 79bd 45a1 1dbd
000002c0: 84d8 bbbd ef4e 21bd 2060 1abd b9f9 8fbd
000002d0: 0f7e 6d3d 18c3 91bd 25c3 4ebd 734d e83d
000002e0: 6b51 dbbc 682e 98bd d3a1 473d d4eb a3bd
000002f0: e160 eabb 20fd ad3d ede6 c33c fd4d 843d
00000300: 9102 8b3d 6d9f c33b f5d9 213c d47a 61bc
00000310: 3bbb 27bd 8e88 223d a9c2 d53d 2205 9f3d
00000320: 645f 323d 8f6d c1bc 1a98 cbbd 161a 83bd
00000330: a2ac 553d fa2f 25bd 314f ae3d 1416 38bd
00000340: c6ba b9bd 0530 633d 25d4 a63d 0019 4bbd
00000350: 9109 a93d 4737 85bd aeb8 b3bc c700 b4bd
00000360: da55 843c 3a5b 743d 1b77 243d cc4e 77bd
00000370: 29d0 ec3b e712 943d d16b ab3d 88fb b43d
00000380: b3bd 133d 6a7d aa3d c051 82bc 4ab1 b63d
00000390: fa07 a03c e91c 24bd 15bb 9bbd 4ca3 57bd
000003a0: b65a ae3d 4a06 4b3d def6 1f3d 4d90 56bd
000003b0: 919c 61bd e6ac a43d accd dd3c 5538 8bbd
000003c0: c6c6 65bd 3805 8fbd 9b79 94bd a4d8 c8bd
000003d0: de71 a6bc 6a3c 8c3d 2818 b6bd 6f6d 36bd
000003e0: f98a 9bbd e5bb f4bc 30c5 813d 971d 0f3d
000003f0: 2807 1c3d c053 b6bd be0e 053d 6c68 b0bd

layers.2.bias f4 [100]
0.03855438 -0.06584306 0.0023523022 0.10068877 -0.013881807 -0.07378449 -0.08874613 -0.070940584
0.066344544 -0.08265842 0.007960403 -0.08333484 0.12007831 0.013696932 0.08859584 0.045806617
0.067774184 -0.053445067 0.09240422 -0.016630508 0.03723487 -0.04885179 -0.034445643 -0.06761299
-0.006668496 -0.018193329 0.087761775 0.059673816 0.10270836 -0.07125012 0.019909112 0.011836634
-0.112182215 -0.091990724 0.029621098 0.034951303 0.08735618 -0.08253894 -0.092375584 -0.045114003
-0.03812542 -0.0026325523 0.019217893 -0.050352722 0.06752609 0.031759743 0.06528834 0.06205558
-0.029954355 0.053638015 0.09316785 0.032035444 0.04053974 -0.056346476 -0.07316188 -0.010334834
-0.10373185 0.03534409 -0.02510198 -0.08482 -0.07451942 -0.06327431 -0.09903742 -0.049803175
0.090480626 0.04213457 0.061068162 -0.043259848 0.03957709 0.059712313 0.10339979 0.00049026957
0.06640963 -0.024763053 -0.010297017 0.06550581 0.08526417 -0.08010638 -0.050294597 -0.0899833
0.09219082 0.08877237 -0.075066194 0.044463463 -0.09153617 0.05450805 -0.04937245 0.07212261
0.06726148 0.036725186 -0.011007679 -0.067352384 -0.027492011 0.064808965 0.0067943563 -0.040390834
-0.0116887 -0.0075648236 0.069504954 -0.065802984
00000000: 33eb 1d3d bad8 86bd 1529 1a3b ea35 ce3d
00000010: 8570 63bc 531c 97bd 88c0 b5bd 4c49 91bd
00000020: a6df 873d d148 a9bd 5a6c 023c 75ab aabd
00000030: 9eeb f53d 1969 603c bc71 b53d b89f 3b3d
00000040: 31cd 8a3d 37e9 5abd 6c3e bd3d b43c 88bc
00000050: 9783 183d d118 48bd e016 0dbd ae78 8abd
00000060: 6683 dabb 2d0a 95bc 72bc b33d 886c 743d
00000070: c358 d23d 95eb 91bd 6f18 a33c 71ee 413c
00000080: cabf e5bd a265 bcbd f2a7 f23c 1929 0f3d
00000090: cce7 b23d 2d0a a9bd 692f bdbd 76c9 38bd
000000a0: 6729 1cbd e686 2cbb d86e 9d3c a83e 4ebd
000000b0: 1e4b 8a3d 8116 023d e5b5 853d fe2d 7e3d
000000c0: d662 f5bc 89b3 5b3d c9ce be3d 9937 033d
000000d0: 000d 263d 90cb 66bd e5d5 95bd 7053 29bc
000000e0: 5d71 d4bd f7c4 103d aba2 cdbc 1cb6 adbd
000000f0: a39d 98bd f695 81bd 21d4 cabd 6afe 4bbd
00000100: e84d b93d 4d95 2c3d 9c22 7a3d 3d31 31bd
00000110: 961b 223d e694 743d 45c3 d33d 6f85 003a
00000120: c601 883d e3db cabc d2b4 28bc e927 863d
00000130: fb9e ae3d d00e a4bd b501 4ebd 2a49 b8bd
00000140: 8ace bc3d 4ace b53d 4ebc 99bd 521f 363d
00000150: 5177 bbbd d543 5f3d c43a 4abd 05b5 933d
00000160: 63c0 893d 266d 163d 8d59 34bc 0cf0 89bd
00000170: ed36 e1bc 90ba 843d 31a3 de3b dc70 25bd
00000180: f681 3fbc 57e2 f7bb 9d58 8e3d b7c3 86bd

layers.4.weight f4 [1, 100]
-0.026012335 -0.16937207 -0.13636915 -0.2781432 0.06858134 0.12965585 0.18227409 -0.08096949
-0.17687707 -0.074317575 -0.17835918 -0.05957839 -0.16455932 0.039620027 0.24111415 0.101615876
0.04932015 0.023659658 -0.18590195 -0.13728294 0.007631093 -0.19591494 -0.161365 -0.20972379
0.114492536 0.083133 -0.14636134 0.13957444 -0.10774178 -0.04358648 0.0044668126 -0.085481375
0.10057287 -0.012585656 0.18694893 0.18805449 0.068610355 -0.020214505 -0.00088663993 -0.0494823
-0.1363519 0.051180717 0.18861625 -0.35067767 -0.054466844 -0.07965358 0.12684034 0.031902153
-0.1396945 0.17112713 -0.47874808 -0.08477799 -0.038476594 0.035652064 0.059449222 0.0589901
-0.12754144 0.033112008 -0.029779712 -0.018544586 0.08184559 0.009211994 -0.14773339 -0.069598556
-0.15363185 -0.08360566 -0.043342587 0.006692484 -0.0758351 0.21149023 0.1704526 0.10215942
-0.016800247 -0.062481627 -0.12949586 -0.2209032 0.071254 0.06911443 0.002042703 -0.062240824
-0.0347127 -0.31807303 -0.035826985 -0.027195048 -0.1551863 -0.039207228 -0.13238232 0.13888806
-0.013060566 -0.0021840718 0.024348503 -0.03158882 -0.014838403 -0.010880439 -0.035852093 0.09760457
0.08144945 0.1282367 -0.069646694 0.04475712
00000000: d217 d5bc df6f 2dbe 5ba4 0bbe c968 8ebe
00000010: 6074 8c3d 81c4 043e 0fa6 3a3e 55d3 a5bd
00000020: 431f 35be d033 98bd caa3 36be 7808 74bd
00000030: 3d82 28be 9c48 223d a1e6 763e fc1b d03d
00000040: ed03 4a3d e6d1 c13c 155d 3ebe e693 0cbe
00000050: 3f0e fa3b ed9d 48be de3c 25be d5c1 56be
00000060: 107b ea3d a241 aa3d bfdf 15be 9aec 0e3e
00000070: b9a7 dcbd bd87 32bd 575e 923b dc10 afbd
00000080: 26f9 cd3d 1134 4ebc 8a6f 3f3e 5b91 403e
00000090: 9683 8c3d e498 a5bc 666d 68ba f4ad 4abd
000000a0: d59f 0bbe dfa2 513d 9e24 413e 068c b3be
000000b0: a018 5fbd 6b21 a3bd 6fe2 013e d5ab 023d
000000c0: 130c 0fbe f33b 2f3e 781e f5be 15a0 adbd
000000d0: a299 1dbd e607 123d 0781 733d 9a9f 713d
000000e0: 399a 02be 75a0 073d 95f4 f3bc d1ea 97bc
000000f0: a99e a73d e7ed 163c 6c47 17be b089 8ebd
00000100: ab51 1dbe 7239 abbd ff87 31bd a04c db3b
00000110: 6f4f 9bbd e590 583e 208b 2e3e f538 d13d
00000120: aca0 89bc bcec 7fbd 909a 04be 7334 62be
00000130: 9eed 913d de8b 8d3d dfde 053b 3cf0 7ebd
00000140: e72e 0ebd 78da a2be 51bf 12bd 26c8 debc
00000150: 28e9 1ebe c297 20bd 3b8f 07be ac38 0e3e
00000160: fcfb 55bc a522 0fbb 8376 c73c 4763 01bd
00000170: c61c 73bc de43 32bc a5d9 12bd e8e4 c73d
00000180: f8ce a63d 7b50 033e eda2 8ebd 3e53 373d
