model/results/skew-skew/var-e10000/15-15-SGD-relu-0.001-50-e10000-var.pt (torch, 4015 bytes, 5 tensors)

layers.0.weight f4 [15, 5]
0	0x3d828405	0.06372837
1	0x3d4bf549	0.04979447
2	0x3e0ada91	0.13559939
3	0x3eebed23	0.46079358
4	0x3e270cea	0.1631352
5	0xbe876d75	-0.26450697
6	0xbd1f41a6	-0.038880967
7	0x3e90b865	0.28265682
8	0x3f109ffb	0.5649411
9	0xbeb19957	-0.34687302
10	0x3ea5acca	0.3235839
11	0xbcd70e5b	-0.026251962
12	0x3f04ff7a	0.51952326
13	0xbf12a020	-0.5727558
14	0x3e1d42fe	0.15357587
15	0x3e68b2df	0.22724484
16	0xbb1d675a	-0.00240179
17	0x3eafd158	0.34339404
18	0xbe7cbc62	-0.24681237
19	0x3eb2981d	0.34881678
20	0x3ee1262c	0.43974435
21	0xbe7d0568	-0.24709094
22	0xbe3a1f77	-0.18176065
23	0xbd856beb	-0.06514724
24	0x3e79c732	0.24392393
25	0xbeecaf59	-0.4622753
26	0x3e618522	0.22023442
27	0xbda4c837	-0.080460005
28	0xbe358b19	-0.17728843
29	0x3dd389d1	0.10329021
30	0xbd56e7a8	-0.05246702
31	0xbe956c9e	-0.2918443
32	0x3e240692	0.16018131
33	0xbe81ee70	-0.25377226
34	0xbec6dfea	-0.38842708
35	0xbdd6e340	-0.10492563
36	0xbe912bc0	-0.2835369
37	0xbddb950b	-0.10721787
38	0xbebbcd5e	-0.3668012
39	0x3e92c465	0.28665462
40	0x3ea8d35e	0.3297376
41	0x3dccfab6	0.10008757
42	0xbeb66e2b	-0.35630926
43	0xbe0e2def	-0.1388471
44	0xbcdb881f	-0.026798306
45	0x3ea5bf14	0.32372344
46	0x3e083717	0.13302265
47	0x3e2a6720	0.16640902
48	0x3f37a285	0.7173236
49	0x3e05b123	0.13055854
50	0x3ccc49fd	0.024937624
51	0xbebd8853	-0.3701807
52	0xbec2f81f	-0.38079926
53	0xbddbbcdf	-0.10729384
54	0xbecb3ef2	-0.3969646
55	0x3c3eacba	0.011637861
56	0xbc81542e	-0.01578721
57	0xbe6c12a2	-0.23053983
58	0x3f0e7a6f	0.5565557
59	0xbd961fb1	-0.073302634
60	0xbf1a19cb	-0.60195607
61	0xbe0af198	-0.13568723
62	0x3f045d57	0.51704925
63	0x3e570eeb	0.21001785
64	0x3d3fc910	0.046822608
65	0x3c28973e	0.010289965
66	0x3d151efe	0.03640651
67	0xbde54fff	-0.11196899
68	0xbde0ca13	-0.109760426
69	0x3d2acb84	0.041697994
70	0xbeb7a8de	-0.35871023
71	0xbe922df2	-0.28550678
72	0xbe9112f1	-0.28334764
73	0x3c670d43	0.014102283
74	0xbe371edd	-0.17882867

layers.0.bias f4 [15]
0	0xbeb03500	-0.34415436
1	0x3e8cb401	0.27481082
2	0x3dfedf96	0.124449894
3	0xbeb0e6b8	-0.34551024
4	0x3ed256ac	0.4108175
5	0x3ebc98f5	0.36835447
6	0x3d820f95	0.06350628
7	0xbe81f5ef	-0.25382945
8	0xbd4d0e75	-0.050062615
9	0x3d8dd13e	0.069246754
10	0xbe98450d	-0.29740182
11	0x3bef53df	0.0073036994
12	0xbe431e45	-0.19054516
13	0xbe9c4aef	-0.3052592
14	0x3ec8006b	0.3906282

layers.2.weight f4 [15, 15]
0	0xbdff47ea	-0.124648884
1	0xbd9c55cc	-0.07633552
2	0xbe07c5ce	-0.1325905
3	0xbe3326fb	-0.17495339
4	0xbe73b0a5	-0.23797853
5	0x3e1b1277	0.15143763
6	0x3dd0c26d	0.10193334
7	0x3e59b842	0.21261695
8	0x3e1f31be	0.15546319
9	0x3dcb744d	0.09934292
10	0xbe2aae27	-0.16667996
11	0xbd8dd90b	-0.06926163
12	0xbe426539	-0.18983926
13	0x3cab1278	0.02088283
14	0xbe71322f	-0.235543
15	0x3e48dc29	0.19615234
16	0xbe7e7141	-0.2484789
17	0x3e2f029c	0.17090839
18	0x3cb627e3	0.022235816
19	0x3d10187f	0.03517961
20	0x3de64415	0.11243454
21	0xbcf1ab17	-0.029500527
22	0x3e80d09c	0.25159156
23	0x3d93da64	0.07219389
24	0x3b867832	0.004103684
25	0x3be0ea18	0.0068638436
26	0x3e05ddb7	0.13072859
27	0xbe247e9a	-0.1606392
28	0x3e2d3d10	0.16917825
29	0x3c662a47	0.014048166
30	0xbe6abd08	-0.22923672
31	0xbce1da5e	-0.027569946
32	0xbe46733a	-0.19379893
33	0xbe312a21	-0.17301227
34	0x3e0536fb	0.13009255
35	0x3d928199	0.07153625
36	0x3e421594	0.18953544
37	0xbe20207f	-0.15637396
38	0x3e539312	0.20661572
39	0x3e1c06d8	0.15236986
40	0x3dbcf3a7	0.092261605
41	0x3caea68f	0.021319656
42	0xbd8a0324	-0.0673888
43	0xbe1bfa46	-0.1523219
44	0xbd87d99d	-0.06633303
45	0xbe3d9eb8	-0.18517578
46	0xbd251820	-0.04030621
47	0xbe5213a1	-0.205153
48	0xbe3a6b97	-0.18205105
49	0xbe0d28d6	-0.13785109
50	0x3e1b6127	0.1517378
51	0x3cf0fbf9	0.029417025
52	0x3e7f7460	0.24946737
53	0x3e9cd3b3	0.30630264
54	0x3e9fecc4	0.31235325
55	0x3e516614	0.20449096
56	0xbe9cd8af	-0.30634066
57	0x3e835ddc	0.25657547
58	0x3e310b4a	0.17289463
59	0xbe0f8be9	-0.14018215
60	0x3eaad4f4	0.33365595
61	0xbc88ac49	-0.016683714
62	0xbe22da7d	-0.15903659
63	0xbe8000e5	-0.25000682
64	0x3e5b42fa	0.21412268
65	0x3ca4f7fd	0.020137781
66	0x3d06dbfb	0.032924633
67	0xbe2f38d9	-0.1711153
68	0xbdf0baed	-0.11754403
69	0xbcebca34	-0.028782941
70	0xbe313219	-0.17304267
71	0x3d28f4a8	0.041248947
72	0x3dcb9b73	0.09941759
73	0xbdd928ee	-0.1060351
74	0xbe3b4330	-0.18287349
75	0xbe327757	-0.17428337
76	0xbc3af33b	-0.01141053
77	0xbe62d10a	-0.22150055
78	0x3d8b8b7f	0.06813716
79	0xbe45d342	-0.1931887
80	0xbe777f79	-0.2416972
81	0x3c2f047a	0.01068222
82	0x3e2a661b	0.16640513
83	0x3e1a71ac	0.15082425
84	0x3cec2c2d	0.028829658
85	0xbe4a3bd4	-0.19749385
86	0xbdc556fc	-0.096357316
87	0x3cc14d7f	0.023596523
88	0xbe7a249c	-0.24428028
89	0x3da17317	0.0788328
90	0x3e22d9a7	0.1590334
91	0x3e3cd0b6	0.18438992
92	0xbe54967c	-0.2076053
93	0x3c769f2e	0.0150526
94	0xbe50c792	-0.2038863
95	0x3e60fa39	0.21970452
96	0xbe007f67	-0.125486
97	0x3e702960	0.23453283
98	0xbe7e5f15	-0.24840958
99	0xbde0ebc7	-0.10982471
100	0xbe5807eb	-0.2109677
101	0x3d46e652	0.048559494
102	0x3e1fa715	0.1559108
103	0x3c5c7499	0.013455533
104	0xbe04621d	-0.12928052
105	0x3e3f2f4c	0.18670386
106	0x3e4f181e	0.20224044
107	0xbdb52bcf	-0.088462465
108	0xbcc0bb0c	-0.02352669
109	0xbc45efc3	-0.012081089
110	0xbe8866d0	-0.2664094
111	0x3d98a779	0.07453818
112	0x3d45a110	0.048249304
113	0x3ebb1779	0.36541346
114	0x3eccd20f	0.40004012
115	0xbe417b96	-0.188948
116	0xbe2d6e5b	-0.16936629
117	0xbd0dec15	-0.034648973
118	0xbe115a03	-0.14194493
119	0x3d149af9	0.036280606
120	0xbe490e6e	-0.1963441
121	0x3ea48a5d	0.32136813
122	0x3e062d26	0.1310316
123	0xbbc54e58	-0.006021302
124	0x3e28650d	0.16444798
125	0xbd5b5680	-0.05354929
126	0x3e7f6152	0.24939469
127	0x3e0fc0e5	0.14038427
128	0x3d7904f5	0.060795743
129	0xbe445045	-0.19171245
130	0x3ccdfa3b	0.025143733
131	0x3e61c9a1	0.22049572
132	0xbe837764	-0.25677025
133	0xbe3168af	-0.1732509
134	0x3d3541ce	0.04425221
135	0x3c9c28ed	0.019062484
136	0x3e1f3263	0.15546565
137	0xbcb036c1	-0.021510484
138	0x3e1c615d	0.15271516
139	0x3e7274cf	0.23677371
140	0x3df12c0e	0.11775981
141	0xbd77c96f	-0.060494836
142	0xbe547ee4	-0.2075153
143	0x3e72173d	0.23641677
144	0x3ea202a2	0.31642634
145	0xbdcc719a	-0.09982605
146	0xbe735b8c	-0.23765391
147	0x3cde5734	0.027141191
148	0x3e38671c	0.18008083
149	0x3da4336b	0.0801762
150	0xbe393f3c	-0.18090528
151	0xbe2166e6	-0.15761909
152	0x3e70d1fb	0.23517601
153	0x3dda284f	0.106522195
154	0x3e20e53a	0.15712443
155	0x3eb07c65	0.34469905
156	0xbd0c86e6	-0.034308337
157	0x3e0e9b78	0.13926494
158	0xbda106b5	-0.078626074
159	0xbd810187	-0.062991194
160	0xbe4b4873	-0.19851856
161	0xbd1f0125	-0.03881945
162	0xbd77b969	-0.060479555
163	0xbe83a491	-0.25711492
164	0x3e1eec4f	0.15519832
165	0x3dc5ef7f	0.09664821
166	0xbdf77488	-0.120827734
167	0xbe1e824e	-0.15479395
168	0x3dfdab99	0.12386245
169	0x3e32b37b	0.17451279
170	0xbdcbc437	-0.099495344
171	0x3d5be9c0	0.05368972
172	0xbdcb88c0	-0.09938192
173	0x3e754bb7	0.23954664
174	0x3eaf0222	0.34181315
175	0x3e2cd747	0.16878997
176	0xbea1ae31	-0.3157821
177	0x3de27a23	0.11058452
178	0xbc8d908a	-0.017280836
179	0x3e20d468	0.15706027
180	0xbe1d18b5	-0.15341456
181	0xbe7a76f4	-0.2445944
182	0x3da880e4	0.08227709
183	0xbdd3c219	-0.103397556
184	0x3e3e83d8	0.18604982
185	0x3e63639d	0.22205968
186	0xbe070a10	-0.13187432
187	0x3e335c55	0.1751569
188	0xbd6efbf2	-0.058345743
189	0x3c84e56f	0.016222684
190	0xbd9661f7	-0.07342904
191	0x3d8b1c63	0.06792524
192	0xbe396468	-0.18104708
193	0xbdeca0e5	-0.11554126
194	0xbe10f19f	-0.14154671
195	0x3e7012b8	0.2344464
196	0x3e50cf96	0.20391688
197	0x3e5e5d97	0.21715389
198	0x3e395399	0.18098296
199	0x3e0e3437	0.13887106
200	0xbe6ccae7	-0.23124276
201	0x3e0cbbeb	0.1374356
202	0x3e36dcd2	0.17857674
203	0x3e833cc1	0.2563229
204	0x3e1862ef	0.1488149
205	0x3d6b2a3a	0.057413317
206	0x3e29992c	0.16562337
207	0x3e470bc7	0.19438086
208	0xbe1eaf26	-0.15496501
209	0x3e5e96b2	0.21737173
210	0x3d36b1a8	0.04460302
211	0xbd887eef	-0.06664836
212	0x3ed80e10	0.4219823
213	0x3e8fa8eb	0.28058562
214	0xbe18ed80	-0.14934349
215	0xbe5fbc2d	-0.21849127
216	0xbda354ce	-0.079751596
217	0xbe85b591	-0.26115087
218	0xbd37cab9	-0.044871066
219	0x3d2c6e68	0.04209748
220	0xbd4d367e	-0.050100796
221	0xbe9d15c0	-0.30680656
222	0x3bfc2005	0.0076942467
223	0x3e6b0e49	0.22954668
224	0x3e143bd8	0.14475954

layers.2.bias f4 [15]
0	0xbe44f6ba	-0.19234744
1	0xbe829aa6	-0.25508612
2	0xbe91ef17	-0.28502724
3	0x3e734432	0.23756483
4	0x3e3186a2	0.17336515
5	0xbe29387b	-0.16525452
6	0xbe7a239a	-0.24427643
7	0x3d6c3a9f	0.057673093
8	0x3e3e4d7f	0.1858425
9	0x3cf3e942	0.029774312
10	0x3da3e071	0.08001793
11	0x3df19ae2	0.1179712
12	0xbdcadc25	-0.099052705
13	0xbceb3ced	-0.028715575
14	0x3ca22016	0.01979069

layers.4.weight f4 [1, 15]
0	0x3e5a82a9	0.21338905
1	0x3d02248a	0.031773128
2	0x3e57bd2b	0.21068256
3	0x3e9afc28	0.30270505
4	0x3d89c719	0.06727428
5	0xbd643214	-0.05571182
6	0xbdef3dc6	-0.11681704
7	0x3f061f1b	0.52391213
8	0xbeca4545	-0.39505973
9	0x3e8f3a74	0.27974284
10	0xbe49381d	-0.19650312
11	0x3edc87e2	0.4307242
12	0xbd05f4dc	-0.03270422
13	0x3e857fd9	0.26074103
14	0xbea7e559	-0.32792166
