model/results/skew-skew/var-e10000/150-150-SGD-relu-0.001-50-e10000-var.pt (torch, 97343 bytes, 5 tensors)

layers.0.weight f4 [150, 5]
0.39274827 0.12356774 -0.24889411 0.22522292 0.33651534 0.18532957 0.309171 0.02661283
-0.4222314 0.3948338 -0.34470356 -0.2502574 0.35572207 -0.050245605 0.4223622 0.006055173
-0.41638973 0.33087793 0.3455464 0.17392713 -0.34488845 0.23020685 -0.094483845 -0.25006473
-0.34723204 0.15528142 -0.16377702 -0.43940285 -0.2662586 0.21738128 0.081164725 -0.0026843795
0.39879942 0.04961303 -0.2835159 0.08941509 0.12108417 -0.42604345 -0.16750127 -0.32581472
-0.1784753 -0.038247004 -0.25253472 0.32587427 0.22892162 -0.41800871 -0.33080584 -0.36874557
0.10522186 -0.26006764 0.34657183 0.39376423 0.033947684 0.06091551 0.43612793 -0.08378745
0.20623577 -0.40418136 -0.024169382 -0.055998415 -0.030981442 -0.16506754 0.44950485 -0.2877097
-0.09040922 -0.32634968 -0.23234479 0.37932086 -0.2565158 0.24563101 -0.10100276 0.35969236
0.004337019 -0.39219958 0.018097907 0.020046666 -0.12859881 0.17400987 -0.34551165 -0.28749993
-0.15039311 0.13545738 0.11116041 0.1407477 0.28721657 -0.16310121 -0.25594783 0.34054744
0.061123203 0.16545907 0.22703329 0.22600673 0.38127404 -0.21680872 0.024395341 -0.027310753
-0.05009239 0.30756825 0.3605336 -0.08882683 0.18943955 -0.24351206 -0.3819686 -0.038964506
-0.03276566 -0.16932088 0.013899847 -0.12347953 -0.12870245 0.2817528 0.27531585 0.027570298
0.121390626 0.3753549 -0.021039743 0.30566013 -0.07486929 0.3861012 0.33313304 -0.09060832
0.3216723 -0.21790983 0.30981714 -0.41411927 0.29270023 0.31181395 -0.13932139 0.18614328
0.15723003 0.32865518 -0.097201414 0.34987846 -0.026402952 0.17511633 0.13009135 -0.101094685
-0.34531757 -0.33334887 -0.19267517 0.0864099 -0.06590681 -0.33651644 0.13873313 0.43811145
0.23537074 0.1751481 -0.04530665 -0.30016062 0.3474799 -0.21497712 0.41771942 -0.05412864
0.33731854 0.070578724 0.29974738 -0.15457837 0.3373068 0.064907104 0.40475625 0.24215586
0.22094867 0.33813328 -0.31946978 0.25196746 0.24577612 0.29956552 -0.29119867 -0.22140987
-0.12127759 0.21378365 0.35427648 0.20434105 -0.07794587 0.011039187 0.033980697 -0.011980803
-0.17075735 -0.38856834 0.07328841 -0.31636867 -0.28873074 -0.29163626 0.029764166 -0.34163883
0.23823032 -0.3473688 -0.22879462 0.3825284 0.17060757 -0.3262024 0.07525035 -0.31599742
-0.25878093 -0.2883846 -0.060476653 0.3112252 0.2836982 -0.040228028 -0.30953962 -0.1943827
-0.37342498 0.23159419 0.4405358 0.06522672 -0.010594144 0.32401198 -0.022157164 0.089363724
0.002498012 0.28055626 -0.33221376 0.24893679 -0.016506456 0.41697863 -0.20229723 -0.13110647
-0.16919984 0.05981048 -0.0139726475 -0.07385846 0.13641576 -0.3232164 0.3067202 0.27703094
-0.00091255066 -0.42780182 0.017875746 -0.1886453 -0.04009219 0.12720963 0.095948085 -0.027251823
-0.07603642 -0.036042653 0.018362097 0.17302053 0.36588135 0.11585202 0.10043191 -0.43703565
-0.065659605 0.20938838 0.02691142 0.23496608 -0.2672761 -0.3956518 -0.17525876 -0.35528052
0.1099125 0.16107999 -0.42659238 0.38958013 0.31179208 0.074119925 -0.16765547 -0.19466388
00000000: 4d16 c93e 1511 fd3d 19de 7ebe d6a0 663e
00000010: bd4b ac3e 09c7 3d3e a94b 9e3e 2603 da3c
00000020: b72e d8be a827 ca3e fc7c b0be bd21 80be
00000030: 3421 b63e 56ce 4dbd dc3f d83e 796a c63b
00000040: 0931 d5be d568 a93e 75eb b03e f419 323e
00000050: 3895 b0be 58bb 6b3e bf80 c1bd 7c08 80be
00000060: 66c8 b1be 1802 1f3e 2ab5 27be 69f9 e0be
00000070: 0c53 88be 3399 5e3e b139 a63d 6aec 2fbb
00000080: 702f cc3e 0837 4b3d ff28 91be 421f b73d
00000090: fafa f73d 5e22 dabe 7485 2bbe 30d1 a6be
000000a0: 3bc2 36be e4a8 1cbd 3b4c 81be fed8 a63e
000000b0: 6e6a 6a3e 3d05 d6be 625f a9be 38cc bcbe
000000c0: 8f7e d73d 9627 85be dd71 b13e 779b c93e
000000d0: ba0c 0b3d 8b82 793d 294c df3e c198 abbd
000000e0: 782f 533e dcf0 cebe defe c5bc 985e 65bd
000000f0: cbcc fdbc 7707 29be 8025 e63e b04e 93be
00000100: 7828 b9bd 4e17 a7be cbeb 6dbe 5836 c23e
00000110: 0a56 83be b286 7b3e 89da cebd 9929 b83e
00000120: 8d1d 8e3b 62ce c8be 1042 943c e838 a43c
00000130: 68af 03be a52f 323e e7e6 b0be 3133 93be
00000140: a700 1abe 57b5 0a3e 12a8 e33d 2a20 103e
00000150: 0d0e 933e 0104 27be 980b 83be 3c5c ae3e
00000160: 535c 7a3d 1a6e 293e 6a7b 683e 4f6e 673e
00000170: 5a36 c33e 1b03 5ebe bdd8 c73c cdba dfbc
00000180: ae2d 4dbd 9679 9d3e dc97 b83e d7ea b5bd
00000190: 71fc 413e 3a5b 79be 6391 c3be 3f99 1fbd
000001a0: 4935 06bd 7462 2dbe 2fbc 633c d6e2 fcbd
000001b0: 93ca 03be e741 903e 33f6 8c3e 1bdb e13c
000001c0: a69b f83d 842e c03e 8a5b acbc 7c7f 9c3e
000001d0: 1255 99bd 0eaf c53e 6a90 aa3e db90 b9bd
000001e0: 3bb2 a43e c123 5fbe 5aa0 9e3e 7107 d4be
000001f0: cedc 953e 14a6 9f3e 44aa 0ebe 589c 3e3e
00000200: e900 213e 7e45 a83e 8911 c7bd 4523 b33e
00000210: 014b d8bc b251 333e ab36 053e bb0a cfbd
00000220: 77cd b0be b4ac aabe a44c 45be acf7 b03d
00000230: 26fa 86bd e24b acbe 0f10 0e3e 2550 e03e
00000240: 0705 713e 065a 333e 7793 39bd a7ae 99be
00000250: e3e8 b13e f622 5cbe 52df d53e feb5 5dbd
00000260: 04b5 ac3e 948b 903d 7d78 993e cb49 1ebe
00000270: 7ab3 ac3e 04ee 843d 363c cf3e b5f7 773e
00000280: 5e40 623e ce1f ad3e 8b91 a3be e101 813e
00000290: bcac 7b3e a760 993e fe17 95be 45b9 62be
000002a0: 6360 f8bd 1aea 5a3e ba63 b53e c83e 513e
000002b0: 16a2 9fbd b5dd 343c 582f 0b3d 214b 44bc
000002c0: 04db 2ebe 6ef2 c6be 3c18 963d 13fb a1be
000002d0: 84d4 93be 5951 95be fbd3 f33c 49eb aebe
000002e0: a6f2 733e 53da b1be 2349 6abe c3da c33e
000002f0: c0b3 2e3e 0004 a7be db1c 9a3d 6aca a1be
00000300: ef7e 84be 25a7 93be 5eb6 77bd e958 9f3e
00000310: e440 913e 25c6 24bd fa7b 9ebe 420c 47be
00000320: 8f31 bfbe 0727 6d3e e98d e13e 9695 853d
00000330: 1093 2dbc e6e4 a53e f182 b5bc 5404 b73d
00000340: b0b5 233b 12a5 8f3e ec17 aabe 49e9 7e3e
00000350: 8c38 87bc 397e d53e 0127 4fbe c640 06be
00000360: b942 2dbe d5fb 743d 88ed 64bc 1b43 97bd
00000370: 93b0 0b3e 9f7c a5be 6e0a 9d3e 00d7 8d3e
00000380: 3d38 6fba d708 dbbe 2870 923c 3c2c 41be
00000390: b537 24bd 3e43 023e 6e80 c43d 373f dfbc
000003a0: fcb8 9bbd 76a1 13bd 1c6c 963c 4b2c 313e
000003b0: cd54 bb3e d343 ed3d 3faf cd3d 23c3 dfbe
000003c0: 8b78 86bd e869 563e 5775 dc3c f39a 703e
000003d0: 6ad8 88be df92 cabe 0877 33be 54e7 b5be
000003e0: ce19 e13d 27f2 243e 516a dabe 0c77 c73e
000003f0: 36a3 9f3e 30cc 973d e0ad 2bbe f855 47be

layers.0.bias f4 [150]
0.36399806 -0.4300547 0.31249166 -0.006653642 -0.14528444 0.39965522 0.040260505 0.357472
-0.13047558 0.028786523 -0.112478875 0.39840418 -0.113146484 0.0061291126 -0.19255485 0.072820134
-0.40944785 0.07034505 0.382238 -0.095361896 -0.20583214 -0.23687015 0.27773052 0.09632581
-0.16497976 -0.28194207 -0.21134861 0.029061154 0.41575903 0.13634215 -0.38838118 -0.4464924
-0.1183357 0.021544084 -0.41966087 0.070363246 -0.2214502 0.3119788 -0.10136714 -0.44203585
0.32958597 -0.103010684 0.44251797 0.21821855 -0.050021034 0.33475333 -0.29934695 -0.038838282
0.216525 0.0910259 0.38902393 0.42145255 -0.24519 0.26678196 0.1877059 -0.17429686
-0.21641418 0.0690462 0.4495536 -0.11311904 -0.30501583 -0.09556561 0.42398807 0.40221462
0.29184917 0.026060529 0.3409478 -0.42308715 -0.40345883 0.16330373 -0.22464338 -0.07105298
0.10865567 0.40401453 0.34397462 -0.05116287 -0.3684019 -0.14077824 0.26721853 0.31098238
-0.33883244 0.09354617 0.13321617 0.23906754 -0.094045155 0.35173208 -0.056625556 0.3933682
0.3193751 0.06737185 0.37904036 -0.36610544 0.23002298 -0.06953814 -0.37789634 -0.22816102
-0.3407634 -0.35016388 0.31994188 0.31277266 0.25435475 -0.24663636 0.034228615 0.36165595
-0.11673767 0.39064726 0.14599253 0.40733692 0.37565234 -0.025510222 0.17389008 0.40388814
-0.36246762 -0.08416589 -0.041648872 -0.054352015 0.10177994 -0.31017202 0.37833855 0.062109556
0.03160308 -0.1698594 -0.056896996 -0.29819345 0.10690892 -0.37065378 0.1486919 -0.11056342
0.2562978 0.32194814 -0.17841476 -0.03839799 0.2176478 0.08141519 -0.21495605 -0.22528304
-0.2946234 0.31406724 -0.46004912 0.2407537 0.3488888 0.4335676 0.34152332 0.30749542
-0.20135874 -0.22237243 0.3181066 -0.4208539 0.4787053 0.073146045
00000000: f45d ba3e 2130 dcbe e8fe 9f3e cb06 dabb
00000010: 72c5 14be 9c9f cc3e 33e8 243d 9206 b73e
00000020: 649b 05be b7d1 eb3c 535b e6bd a2fb cb3e
00000030: 58b9 e7bd b9d6 c83b 192d 45be b922 953d
00000040: 26a3 d1be 1111 903d b3b4 c33e 194d c3bd
00000050: a9c5 52be 178e 72be b232 8e3e 7746 c53d
00000060: 74f0 28be b65a 90be c56b 58be a811 ee3c
00000070: 5ede d43e 479d 0b3e e6d9 c6be a79a e4be
00000080: fd59 f2bd 387d b03c cadd d6be 9b1a 903d
00000090: d7c3 62be afbb 9f3e 9399 cfbd 8652 e2be
000000a0: 7ebf a83e 44f7 d2bd b791 e23e af74 5f3e
000000b0: dbe2 4cbd ca64 ab3e 0144 99be e414 1fbd
000000c0: bbb8 5d3e c96b ba3d 252e c73e a1c8 d73e
000000d0: 1613 7bbe a597 883e fa35 403e e07a 32be
000000e0: ae9b 5dbe 1868 8d3d e42b e63e f5aa e7bd
000000f0: 092b 9cbe e7b7 c3bd f714 d93e 13ef cd3e
00000100: 416d 953e e47c d53c b690 ae3e e19e d8be
00000110: 2892 cebe 1839 273e ea08 66be 3a84 91bd
00000120: dd86 de3d feda ce3e 711d b03e 2890 51bd
00000130: 2d9f bcbe 2c28 10be ded0 883e 1539 9f3e
00000140: 727b adbe 2295 bf3d d269 083e 1fce 743e
00000150: bf9a c0bd 3a16 b43e 33f0 67bd 8f67 c93e
00000160: 2285 a33e 41fa 893d 9411 c23e 2c72 bbbe
00000170: 258b 6b3e 036a 8ebd a17b c1be 0ba3 69be
00000180: 8a78 aebe ae48 b3be 6ccf a33e bd23 a03e
00000190: c93a 823e 3e8e 7cbe 4e33 0c3d f82a b93e
000001a0: 2914 efbd eb02 c83e 117f 153e 778e d03e
000001b0: 8155 c03e d0fa d0bc 3e10 323e 6dca ce3e
000001c0: 5b95 b9be 2b5f acbd 0298 2abd 38a0 5ebd
000001d0: 0072 d03d dece 9ebe 97b5 c13e 9766 7e3d
000001e0: 3b72 013d 9fef 2dbe d30c 69bd d0ac 98be
000001f0: 10f3 da3d 55c6 bdbe b042 183e 136f e2bd
00000200: 7739 833e 63d6 a43e 5cb2 36be 3647 1dbd
00000210: 11df 5e3e 02bd a63d 701d 5cbe 99b0 66be
00000220: e1d8 96be 6ccd a03e 8f8b ebbe 2388 763e
00000230: 8ea1 b23e 93fc dd3e 25dc ae3e 0a70 9d3e
00000240: fc30 4ebe 99b5 63be dede a23e 2a7a d7be
00000250: dc18 f53e 98cd 953d

layers.2.weight f4 [150, 150]
0.030631931 0.061319415 -0.025497166 0.015832333 -0.010863666 -0.048613045 0.057122234 0.04278213
-0.0108025065 -0.00040907695 0.07215646 0.0045519117 -0.038257346 -0.027536804 -0.036915682 0.051604815
0.014153059 -0.06766406 0.06156772 0.058867212 -0.0031381838 0.015850877 0.04741259 0.042089872
-0.0020655075 0.05603292 0.061389558 0.015223246 -0.03605219 -0.033799928 0.04953866 0.05536864
-0.042386565 -0.05796472 0.037832044 0.0352722 0.061433557 0.040672585 0.01748532 -0.04833625
0.04062981 0.008076599 0.04639361 0.0428882 -0.04333121 -0.020439828 0.06947824 0.037516195
0.035781495 -0.06668634 0.030435756 -0.02900974 -0.013646357 0.053695068 0.06791684 0.050503764
-0.020581307 0.067906745 -0.07193246 -0.04189543 0.024677133 0.058296025 0.045985635 -0.072012834
0.023983728 0.06629411 -0.008343454 0.036292996 -0.006109377 -0.08130677 -0.038400427 0.028934697
-0.0068020425 -0.06046788 0.02436421 0.0041160816 -0.04363319 0.053228173 -0.037666265 -0.0077871787
0.061768893 0.04852693 -0.0141337495 -0.030119592 -0.06427253 0.042121023 -0.04321679 -0.042272944
-0.008057453 0.046083856 -0.0004995646 -0.038136415 0.0116125215 0.0027203062 -0.0044610426 0.010192328
0.07916181 -0.014686111 -0.01300868 0.078292176 0.023126999 -0.047638405 -0.06832661 0.0765287
0.0214422 -0.06348905 0.0142351715 0.027812228 0.010504224 -0.07867047 0.008836415 0.061015155
-0.039908595 -0.00070999016 -0.028798321 0.024772871 0.020340838 0.0035474875 0.06383324 -0.016481677
-0.027248727 0.07713069 0.01253716 0.07458464 0.058367528 -0.04106093 0.0012089211 0.08016118
-0.0665068 -0.06899966 0.07978084 0.03443549 -0.03428217 0.030024935 0.027304448 0.068193
-0.06188555 0.045033377 0.00081895245 0.0756099 -0.07199756 -0.038568366 0.04128266 0.08029907
-0.0024079015 -0.06834567 0.042777114 -0.0687818 -0.05214557 -0.033811282 0.08494911 -0.044854045
-0.0100381905 0.055697806 0.01250991 -0.034362614 -0.05477556 -0.017097697 0.0030782686 -0.066366814
0.057038136 -0.0045953924 -0.041595384 -0.04402143 -0.02233142 -0.07244801 -0.06612536 0.021785744
-0.0061706603 0.06910359 -0.062641904 0.017806534 0.05982451 0.06597833 0.042504728 0.040488414
-0.029686736 0.070530504 -0.050706487 0.060396075 0.062676914 0.070469126 -0.008289974 -0.05676627
0.031539924 -0.07788455 -0.04852481 -0.0593547 0.02362581 0.06335698 -0.027973715 -0.034176167
0.05834217 0.017798169 -0.03695631 0.05306873 -0.061576113 0.026125707 -0.052996874 -0.03799244
0.027049491 -0.015758848 -0.014470378 0.043284517 0.043406148 0.06934444 0.09550239 -0.0037507284
0.02467093 0.096589446 -0.062332865 0.026817929 0.031709526 0.011601163 -0.075626865 0.0038305067
-0.057324946 -0.053146712 0.07211369 0.024422921 0.044822063 0.020469422 0.058123384 0.040393077
-0.08243196 0.044489507 -0.00078402576 -0.005598428 -0.07080572 0.060704615 -0.020791505 -0.034353588
0.0652727 0.0037771526 0.07650777 -0.07452751 -0.0066503254 0.04737097 0.04912433 0.06403286
0.035466965 0.06316007 -0.033271123 -0.02348118 0.06649033 -0.005955477 -0.03468662 -0.048657168
-0.07439748 0.0684384 -0.032233067 -0.04676188 0.024174795 0.016712103 0.06658169 0.04978649
00000000: d1ef fa3c 112a 7b3d 6fdf d0bc cfb2 813c
00000010: 85fd 31bc 791e 47bd 01f9 693d 513c 2f3d
00000020: fffc 30bc 6179 d6b9 c4c6 933d 3428 953b
00000030: bcb3 1cbd dd94 e1bc e634 17bd 925f 533d
00000040: 3be2 673c 7493 8abd 6f2e 7c3d bf1e 713d
00000050: fda9 4dbb b3d9 813c b433 423d 6e66 2c3d
00000060: 775d 07bb c682 653d 9e73 7b3d ec6a 793c
00000070: 76ab 13bd cb71 0abd 0de9 4a3d 3aca 623d
00000080: 899d 2dbd 6a6c 6dbd c6f5 1a3d 9579 103d
00000090: c1a1 7b3d 4c98 263d 603d 8f3c 3bfc 45bd
000000a0: 726b 263d b653 043c 3a07 3e3d 8aab 2f3d
000000b0: 117c 31bd 6d71 a7bc 9c4a 8e3d 95aa 193d
000000c0: 9e8f 123d d992 88bd 6854 f93c d6a5 edbc
000000d0: f894 5fbc 5cef 5b3d fc17 8b3d 09dd 4e3d
000000e0: 219a a8bc b112 8b3d 5351 93bd 8b9a 2bbd
000000f0: b327 ca3c d0c7 6e3d 6f5b 3c3d 777b 93bd
00000100: 8679 c43c 35c5 873d fcb2 08bc f7a7 143d
00000110: 2b31 c8bb 2a84 a6bd c449 1dbd 7508 ed3c
00000120: abe3 debb 2bad 77bd 7497 c73c 32e0 863b
00000130: b7b8 32bd c905 5a3d f147 1abd 972b ffbb
00000140: 6101 7d3d 2dc4 463d 3e91 67bc 5dbd f6bc
00000150: 51a1 83bd 1887 2c3d 1704 31bd 6526 2dbd
00000160: 6803 04bc 6dc2 3c3d 36f5 02ba ee34 1cbd
00000170: 7242 3e3c 2a47 323b f02d 92bb b9fd 263c
00000180: 961f a23d 049e 70bc 5c22 55bc a657 a03d
00000190: d574 bd3c 7d20 43bd d2ee 8bbd 14bb 9c3d
000001a0: 8da7 af3c 8c06 82bd a33a 693c 78d6 e33c
000001b0: e919 2c3c fc1d a1bd 9cc6 103c 07eb 793d
000001c0: 3277 23bd a21e 3aba 75ea ebbc 7af0 ca3c
000001d0: d4a1 a63c f77c 683b 00bb 823d 9504 87bc
000001e0: b938 dfbc b2f6 9d3d a968 4d3c d5bf 983d
000001f0: ca12 6f3d 812f 28bd a974 9e3a 8b2b a43d
00000200: b834 88bd b24f 8dbd 2364 a33d 3a0c 0d3d
00000210: 766b 0cbd daf6 f53c 94ad df3c c6a8 8b3d
00000220: b47b 7dbd eb74 383d f8ae 563a 5dd9 9a3d
00000230: 7573 93bd ddf9 1dbd 0218 293d d773 a43d
00000240: e2cd 1dbb d1f8 8bbd 0e37 2f3d 79dd 8cbd
00000250: 9896 55bd b37d 0abd cdf9 ad3d e0b8 37bd
00000260: 3977 24bc 6223 643d 5ef6 4c3c d0bf 0cbd
00000270: 565c 60bd 7810 8cbc c7bc 493b 53eb 87bd
00000280: d2a0 693d f294 96bb ec5f 2abd d14f 34bd
00000290: 62f0 b6bc 9f5f 94bd bc6c 87bd 0478 b23c
000002a0: 4033 cabb 2f86 8d3d 664a 80bd 02df 913c
000002b0: 8c0a 753d a61f 873d 7019 2e3d 2ed7 253d
000002c0: 9931 f3bc 4c72 903d 9bb1 4fbd e061 773d
000002d0: c15c 803d 1e52 903d acd2 07bc c083 68bd
000002e0: 0230 013d ef81 9fbd f3c1 46bd ea1d 73bd
000002f0: ea8a c13c 4ec1 813d 2229 e5bc 4ffc 0bbd
00000300: 33f8 6e3d 77cd 913c 805f 17bd 995e 593d
00000310: 3c37 7cbd 9405 d63c 4013 59bd f69d 1bbd
00000320: e596 dd3c b318 81bc 2a15 6dbc 1b4b 313d
00000330: a5ca 313d 7504 8e3d c296 c33d c8ce 75bb
00000340: b11a ca3c b0d0 c53d bf50 7fbd 46b1 db3c
00000350: d9e1 013d ce12 3e3c 42e2 9abd 3d09 7b3b
00000360: 90cd 6abd 5eb0 59bd 58b0 933d 9412 c83c
00000370: 5797 373d 7daf a73c c912 6e3d 3673 253d
00000380: 16d2 a8bd a13a 363d 1487 4dba 0573 b7bb
00000390: 9702 91bd 67a5 783d f252 aabc 59b6 0cbd
000003a0: b1ad 853d 1b8a 773b 1bb0 9c3d e1a1 98bd
000003b0: f9ea d9bb 1008 423d 9836 493d a923 833d
000003c0: cf45 113d 115a 813d 4d47 08bd 9b5b c0bc
000003d0: 152c 883d 2926 c3bb 8f13 0ebd bd4c 47bd
000003e0: b55d 98bd 6f29 8c3d d206 04bd 6389 3fbd
000003f0: 380a c63c d2e7 883c fb5b 883d ebec 4b3d

layers.2.bias f4 [150]
-0.043379404 0.046355996 -0.07033179 0.016493779 -0.04289225 -0.06601148 0.06455185 -0.089325085
-0.031524405 -0.04602143 0.05281684 0.004409276 -0.0534202 -0.0017686944 0.02595904 -0.015102746
0.041474752 -0.033741005 0.047573455 -0.06967595 0.08966442 0.05003949 -0.06707585 0.021062067
-0.009701952 -0.07273956 -0.043464296 0.020014156 0.0052714916 -0.029107047 0.026656961 0.007522106
-0.0037270475 -0.050812874 0.000114104114 0.07318826 0.052292064 -0.06592032 -0.054763794 -0.046336982
-0.0063617667 -0.0015486256 -0.04703269 0.0075352755 0.053830374 0.0044702077 0.06554497 -0.004338468
-0.06265111 0.014573077 0.021065366 0.07425867 -0.038135547 -0.05474965 0.008114675 0.06335294
0.0675173 0.017890126 -0.0063650543 -4.4890963e-05 0.05331219 0.10368629 0.02675746 0.0037794067
-0.061087117 -0.0043592094 0.010214996 -0.076054595 -0.08297768 -0.005889358 -0.000119412915 -0.025560109
-0.0077575673 0.056114264 0.058457542 0.062238786 0.042842206 0.025582824 -0.023797836 -0.07554131
0.052712847 -0.0025497419 0.06591476 0.047399715 0.0053581856 -0.05671067 0.024108762 0.057859216
-0.073694594 0.059738763 -0.017910058 0.036955558 0.050517254 0.034057815 0.04351339 0.0046293396
0.036156233 -0.024161452 -0.018333076 0.031882104 -0.035731718 0.031604737 -0.06821638 0.050429456
-0.06726981 -0.020815387 0.051981244 0.053054594 0.03317548 -0.056341432 0.032016475 -0.03412481
0.049428478 0.06554041 -0.014831509 0.059974153 -0.064208865 -0.01699939 0.064022265 0.0032714147
0.05846662 0.044472005 0.06650068 -0.017987797 -0.021898206 -0.045509838 -0.08515969 -0.036480907
-0.033750046 -0.042282917 0.05145117 -0.008145754 0.07811505 0.06530714 -0.056000266 -0.01918333
-0.011986198 0.025392694 -0.0008033231 -0.0782465 -0.005046962 0.013923948 -0.00012610342 0.055223126
0.016018601 -0.06172192 0.0182414 0.014200321 -0.02129472 -0.037392408
00000000: 9aae 31bd c9df 3d3d 1d0a 90bd f61d 873c
00000010: c9af 2fbd 0731 87bd c333 843d 12f0 b6bd
00000020: bc1f 01bd f880 3cbd 7956 583d b07b 903b
00000030: 24cf 5abd 89d3 e7ba 0da8 d43c 8271 77bc
00000040: 6ee1 293d 0234 0abd 62dc 423d 44b2 8ebd
00000050: fba1 b73d 35f6 4c3d 105f 89bd 5b8a ac3c
00000060: f0f4 1ebc 7af8 94bd 9e07 32bd baf4 a33c
00000070: 7abc ac3b e771 eebc b35f da3c 007c f63b
00000080: 7b41 74bb 2921 50bd 2e4b ef38 bae3 953d
00000090: 3430 563d 3c01 87bd 0050 60bd d9cb 3dbd
000000a0: 5e76 d0bb 41fb caba 5aa5 40bd 79ea f63b
000000b0: 3d7d 5c3d d27a 923b 713c 863d b529 8ebb
000000c0: 3a4f 80bd eac3 6e3c 4691 ac3c ee14 983d
000000d0: 0534 1cbd 2b41 60bd 6af3 043c 30bf 813d
000000e0: 8346 8a3d 508e 923c f291 d0bb 4e49 3cb8
000000f0: e25d 5a3d 7a59 d43d 7632 db3c ecaf 773b
00000100: 7c36 7abd b3d7 8ebb cc5c 273c 83c2 9bbd
00000110: 34f0 a9bd 84fb c0bb 526d fab8 6f63 d1bc
00000120: 3133 febb 12d8 653d 2d71 6f3d 19ee 7e3d
00000130: 4f7b 2f3d 1293 d13c aef3 c2bc 67b5 9abd
00000140: 6de9 573d 9219 27bb 51fe 863d 3426 423d
00000150: b893 af3b 7349 68bd bd7f c53c c9fd 6c3d
00000160: 31ed 96bd a2b0 743d 1db8 92bc b65e 173d
00000170: 2eeb 4e3d 3580 0b3d 193b 323d b7b1 973b
00000180: 8f18 143d 3dee c5bc 3f2f 96bc cf96 023d
00000190: 6c5b 12bd f873 013d 08b5 8bbd 1e8f 4e3d
000001a0: c1c4 89bd 0885 aabc 49ea 543d c64f 593d
000001b0: 03e3 073d 46c6 66bd b523 033d 75c6 0bbd
000001c0: 8475 4a3d 0d3a 863d dcff 72bc 75a7 753d
000001d0: f07f 83bd 4e42 8bbc 1b1e 833d 3b65 563b
000001e0: b27a 6f3d 4728 363d 8231 883d 255b 93bc
000001f0: de63 b3bc 8668 3abd 3468 aebd 016d 15bd
00000200: 7d3d 0abd da30 2dbd 76be 523d c575 05bc
00000210: c9fa 9f3d c0bf 853d 8960 65bd 5c26 9dbc
00000220: c261 44bc 5704 d03c 1a96 52ba b33f a0bd
00000230: fc60 a5bb 4521 643c a13a 04b9 a531 623d
00000240: 7139 833c 20d0 7cbd fd6e 953c 77a8 683c
00000250: 4472 aebc c828 19bd

layers.4.weight f4 [1, 150]
-0.00933738 0.18661489 -0.027628854 -0.0067103663 0.01796753 0.052350108 -0.19289866 0.15657032
0.062106922 -0.103145204 0.004296441 0.058716714 -0.02956255 -0.0052337367 -0.05572475 0.02256176
0.022433069 0.06717871 -0.041326776 0.013606018 0.043900516 0.053289354 -0.042178266 -0.102913424
-0.07566031 0.03825118 0.025256172 0.023975123 -0.031132283 0.10980404 -0.07638201 0.031272355
0.0063026715 -0.039123453 0.11949233 -0.024829155 -0.041014954 0.05284104 -0.059656605 0.007275834
0.10976639 0.009597012 -0.1158181 -0.047255453 0.047102246 0.18811527 -0.0023806582 -0.14570314
0.05909782 0.106630065 0.078958444 0.09693768 -0.042833082 0.013693257 0.06348868 0.055242114
-0.122018784 0.06593674 -0.12962198 0.032413654 0.030797934 -0.14650366 0.028493471 -0.09829496
0.047717903 0.065694496 -0.06481559 0.066178605 -0.046180062 0.021430003 -0.09488291 0.08895795
0.12372634 0.04140601 0.07734843 0.09496942 0.13939804 -0.10399183 0.07193325 -0.02446187
0.06822422 0.00030257928 -0.059769552 -0.025174716 -0.095679514 0.09997747 0.08758152 -0.04794166
0.04626071 -0.088582605 0.13129562 0.0107079055 -0.059488125 0.052968714 -0.028918313 0.14339504
-0.12815489 -0.012941339 -0.056886252 -0.044925325 -0.049158275 -0.018228352 0.11528387 -0.03553099
0.0720099 -0.14361714 -0.006689207 -0.012784731 -0.041704755 -0.12061537 -0.059721377 -0.100391254
-0.051541474 -0.0036248926 -0.13130893 -0.021824852 0.054939535 0.03596384 -0.06633523 -0.018802335
-0.027890924 0.077859946 -0.09159882 0.07683926 0.06005607 -0.019433636 0.1835885 -0.037537284
-0.005043535 0.019318169 0.0032629527 -0.020950634 0.065837756 0.097998664 0.059430014 0.033964183
-0.07120747 -0.03705561 -0.03046076 -0.06485849 -0.02951625 0.07060031 0.14549999 0.12567854
0.115009554 -0.06083394 0.07950846 0.13386044 -0.08626807 -0.098576084
00000000: cffb 18bc f917 3f3e e855 e2bc a2e2 dbbb
00000010: a430 933c 116d 563d 3a87 45be f853 203e
00000020: d463 7e3d cb3d d3bd 29c9 8c3b f080 703d
00000030: 292d f2bc c47f abbb a33f 64bd 71d3 b83c
00000040: 8ec5 b73c fe94 893d 4446 29bd c7eb 5e3c
00000050: 07d1 333d f045 5a3d 1ec3 2cbd 46c4 d2bd
00000060: cbf3 9abd 45ad 1c3d 08e6 ce3c 7a67 c43c
00000070: 2109 ffbc f1e0 e03d 2c6e 9cbd 7117 003d
00000080: a486 ce3b ea3f 20bd 65b8 f43d 8366 cbbc
00000090: 4cff 27bd d96f 583d 7c5a 74bd 1f6a ee3b
000000a0: 33cd e03d c93c 1d3c 0a32 edbd ef8e 41bd
000000b0: 49ee 403d 4aa1 403e d104 1cbb 3433 15be
000000c0: 8e10 723d dd60 da3d f7b4 a13d 4387 c63d
000000d0: be71 2fbd af59 603c 5a06 823d 8e45 623d
000000e0: fce4 f9bd d709 873d a0bb 04be 2ec4 043d
000000f0: f34b fc3c 0e05 16be 246b e93c de4e c9bd
00000100: d973 433d d68a 863d 09be 84bd a688 873d
00000110: 4e27 3dbd f98d af3c f951 c2bd 962f b63d
00000120: 3c64 fd3d 5999 293d db68 9e3d 547f c23d
00000130: 5cbe 0e3e abf9 d4bd bd51 933d 4264 c8bc
00000140: 24b9 8b3d 81a3 9e39 ebd0 74bd 353b cebc
00000150: 9ff3 c3bd fdc0 cc3d f15d b33d 795e 44bd
00000160: df7b 3d3d cc6a b5bd 5c72 063e 3670 2f3c
00000170: d2a9 73bd b9f5 583d 19e6 ecbc 26d6 123e
00000180: 093b 03be e907 54bc 8f01 69bd 9e03 38bd
00000190: 305a 49bd a053 95bc f319 ec3d f288 11bd
000001a0: ed79 933d 5f10 13be 2331 dbbb 0c77 51bc
000001b0: 9bd2 2abd 3105 f7bd 679e 74bd ee99 cdbd
000001c0: 271d 53bd 9b8f 6dbb d975 06be 08ca b2bc
000001d0: 4708 613d d24e 133d c4da 87bd 5b07 9abc
000001e0: 827b e4bc 0975 9f3d 2a98 bbbd e75d 9d3d
000001f0: 5bfd 753d 4a33 9fbc a0fe 3b3e b2c0 19bd
00000200: 3d44 a5bb 2341 9e3c 43d7 553b aaa0 abbc
00000210: f2d5 863d 86b3 c83d e36c 733d 071e 0b3d
00000220: 39d5 91bd a0c7 17bd d888 f9bc 87d4 84bd
00000230: 10cc f1bc e596 903d f3fd 143e e0b1 003e
00000240: 218a eb3d 022d 79bd 55d5 a23d b612 093e
00000250: 50ad b0bd 42e2 c9bd
