model/results/skew-skew/var-e10000/20-20-SGD-tanh-0.001-50-e10000-var.pt (torch, 4783 bytes, 5 tensors)

layers.0.weight f4 [20, 5]
00000000: d107 c5be 973f abbd 54ec 4c3e 1aff 9abe
00000010: 1055 ca3d 7a38 cabd 8359 7d3e f7b9 5cbd
00000020: 24d7 fabe 6cc1 403e bed5 d9bb 67ef 843e
00000030: 72b1 3cbd 0a4b 37bd e7c4 923e 9b85 83bd
00000040: 0cc8 a1be 9d2d df3e 3124 9ebd d670 b1be
00000050: 8ad3 893e a881 34be ceb8 f53e e088 913e
00000060: d290 43be e184 09bf 8825 843e 34c6 b33e
00000070: b29c 0e3d f2e8 43bd 85e5 ac3e e1d1 313e
00000080: d9cc d53e c52f 78be 2383 f93d 7562 273e
00000090: 1d45 15be 1d8b c33e 2dfd 30bf 93c3 723e
000000a0: 892e 9e3e 013f 40be f34c 91be 5c8e a33d
000000b0: 36aa a53e f1f9 27bf c471 6c3e 319b fabe
000000c0: 7643 733e 6ffb 223d e7a5 8b3d 6959 c83d
000000d0: d143 41be 3222 da3d e1cf b33e fce7 a3be
000000e0: ff2b 8bbe 7a07 f53e 4619 863e cb8c b03e
000000f0: 9d5a c8bc e755 cf3d 48a9 523e c04c c63e
00000100: 1861 a63e 907a d43e 07e7 1ebe a8c4 d53d
00000110: f383 553e 4821 863d 9860 183d 809b d93d
00000120: f825 523e e494 603e b420 92be 3785 a7bd
00000130: 8b43 ee3d a3d8 aabe 2b4a 48bd de41 ad3e
00000140: 8b7b f4bd 26f1 803e 7070 1d3f 8cc8 483e
00000150: 2823 67bd 2aed b23e 9eb0 1fbc 9659 e2bd
00000160: e492 f73e dcfb c0be 3942 4d3f 4436 403e
00000170: 5ca5 0ebf 6b5d 0c3e 00ef 89bc b4d4 fa3e
00000180: 4b3d be3e fa92 5d3c ab01 023e 7a3d 94be
-0.38482526 -0.08361738 0.20012027 -0.30272752 0.09879506 -0.09874053 0.24741177 -0.053888287
-0.48992264 0.18823785 -0.0066477945 0.259639 -0.046067663 -0.044749297 0.2866585 -0.064219676
-0.31597936 0.43589488 -0.07721747 -0.346564 0.26919204 -0.17627585 0.47992557 0.2842474
-0.19098213 -0.5371838 0.25809884 0.35112154 0.034817405 -0.047829576 0.3376886 0.17365219
0.4175785 -0.24236973 0.121832155 0.16346152 -0.14577146 0.38192073 -0.69136316 0.23707418
0.30894879 -0.18774034 -0.2837902 0.07986137 0.32356423 -0.65615755 0.23090273 -0.48946527
0.23756203 0.039790567 0.06818753 0.09782679 -0.18873526 0.106510535 0.35119537 -0.32012928
-0.27182004 0.47857267 0.26191157 0.34482417 -0.02445727 0.101238064 0.20572388 0.3873043
0.32495952 0.41499758 -0.15517817 0.104379 0.20851116 0.06549317 0.037201494 0.106253624
0.20522296 0.21931797 -0.28540576 -0.081797056 0.116339765 -0.33368406 -0.048898857 0.33839315
-0.119376265 0.25183982 0.6149969 0.19607753 -0.056430012 0.34946567 -0.009746699 -0.110522434
0.48354256 -0.37692153 0.8017917 0.187707 -0.5572107 0.13707511 -0.016837597 0.48990405
0.37156138 0.0135238115 0.12695949 -0.28953153

layers.0.bias f4 [20]
00000000: 3e06 2b3e 50f7 c53d e758 95bd 9e21 e7be
00000010: 5837 d7be 3802 7c3d b278 363e 89d9 ddbe
00000020: 2528 a73e 1261 bbbd 7a48 d03e 9cf2 b63e
00000030: 3747 56bf 5e18 953c 4f34 d33e 4390 d1be
00000040: b22b 9ebe db9d ec3e 4a9c f03e fe2a 8b3e
0.167016 0.09666312 -0.072923474 -0.45142835 -0.4203441 0.061525553 0.17819479 -0.4333003
0.32647815 -0.09149374 0.40680295 0.3573197 -0.83702415 0.018200096 0.41250846 -0.40930375
-0.30892712 0.46214184 0.4699424 0.27181238

layers.2.weight f4 [20, 20]
00000000: 8782 2ebe e44c 3d3e fcb3 333e 7bc5 663c
00000010: e2a1 3b3e 5ad0 f43c 5dbc a7bd 367d 3d3d
00000020: 16b0 0ebe e4a4 90bb 6661 66bd 8b6a 553e
00000030: 68e9 623e 2db3 80bd 62b5 00be 061f b63d
00000040: a98a 3c3e ee82 38be a8a3 bd3c 0ebf 02be
00000050: a459 c7bd 1c6f aebc 3775 09be aa74 1f3b
00000060: 37cc c7bd f922 3b3e df00 36be f5c5 07bc
00000070: 4355 43be 372e 703e 079d c23d 5087 d63d
00000080: c196 0ebe db8d c03d 51d6 e13c ab07 d3bd
00000090: 71ac d7bc 1c03 63be fe95 873d d9cb e7bd
000000a0: ce6e 39bd 53fd 5a3e c279 37bd 96a7 a03d
000000b0: 123f 523e b11e f1bd 699d e43d 0064 c03d
000000c0: 5aeb 103d 5707 d3bd cdd4 08be 9058 593d
000000d0: 7d2e 84be 7a31 c23d 36dd a2bd d0a4 433e
000000e0: b0ef 4abd c601 073e 8c10 393e ad21 fcbd
000000f0: 9506 18be 181a 203c 5fb7 e93d 57b8 e23c
00000100: 60a7 173e 82b5 7a3e adb6 4fbe a754 563e
00000110: 3a67 1e3e 9138 9c3d 28af 9cbd 3406 4fbe
00000120: 7c03 34bd 672b 3f3e d120 abba 2d71 05be
00000130: b6a5 d739 9a29 e23c 5bcd 033e def0 95bd
00000140: bc30 aa3c d3e1 483e d976 023e 2a5f 32be
00000150: aa74 95be 810a f9bd 550c 3fbc 0c75 9ebc
00000160: c5fc dd3c cb22 7cbd 3d37 58be cdf4 92be
00000170: d1b8 a7be d295 2bbe 1107 d93d bfac aa3d
00000180: 20d9 c9be e5b9 983d f211 8e3e a25c 47be
00000190: a886 f1bd b733 3a3e 4872 a53d 75eb a8bd
000001a0: ce94 36be c019 aabd fbff f23c 0d13 9e3d
000001b0: e60e 1ebe aa03 01be f511 bbbc 13ff 99be
000001c0: c69f 4c3e 8369 66bd 6fef 27be 315c 2e3e
000001d0: 3c6d 2ebe 158f 1b3e 037d 99be 6896 1c3c
000001e0: bfbe 18be d3ea 773d d48a d8bc d5ec 2cbd
000001f0: 41e7 05be b75b 6b3d 2432 873e c17c 493d
00000200: 350b 07be f8b8 ed3b 0896 f3bd 7af0 cc3d
00000210: 630c 413e 336f 633e af0b cd3c 3f97 f0bd
00000220: e01f 933d 7189 3abd 5608 d9bd 9ab6 a93d
00000230: 91e1 253e 4958 fc3d 55cc 32be 3160 7fbe
00000240: 953d d8bd 2c97 9abd 2445 7cbe d530 5f3e
00000250: 3938 db3d 095b d63d af85 85bd d082 25bc
00000260: 8118 cfbe 1398 bcbd 3025 5b3d d882 6abe
00000270: fa32 b7be ea16 2fbe e942 9c3e 3aeb 513e
00000280: f745 833e cc4b c1bc 28c7 eabd 39a0 0b3e
00000290: 4871 1cbe dddb 7c3e a4dd 56be 2eae f03b
000002a0: 1228 e73d af53 f83c b902 afbd 5771 f03d
000002b0: 91f6 2e3d 398f 97bd bf0f d5bb 1aa5 1fbd
000002c0: ffb7 49be 8ce9 b4bc 3553 e13d fe80 433e
000002d0: 10a9 333d bdef 27be b2dc 3d3e e33e 523e
000002e0: 26c6 a53e cb86 b53d 2e60 4e3e 8933 c93e
000002f0: d5ea 02be f1fe debe f436 8d3d a188 ac3d
00000300: a496 4d3d 78ed 0c3e 23c6 1cbe 45ab 49be
00000310: f5c1 d83d 9b83 11be 5686 1d3e d374 543e
00000320: 360d 5c3e ee38 72bd d0ea 273e 4547 383e
00000330: f6d4 d0bd c9d8 2bbe 0a4f 213d 6ef2 193e
00000340: b9c1 7ebd dbd6 5b3d 30dc e1bd 7109 4a3e
00000350: 9023 a13d dd72 47be 0238 a03d a810 44be
00000360: 2037 43be b1c4 04be cc75 dc3d 5500 173d
00000370: c83f a83d e3ff c4bd 670d 313e 9469 ac3d
00000380: 28db 153d e03d f13d 4461 603e 4c18 3abe
00000390: 0a05 193c 371d 8abe 9894 d1bc 8fac 20be
000003a0: 6ebc 813e da88 83bc f112 db3d d525 803d
000003b0: a1e8 753c 29cc 663e 6277 ff3c 4955 26be
000003c0: 05bb 93be 8f5f a7bd b7b6 d93d 9ef1 3dbe
000003d0: ce3c 773d 04d9 9ebe d32a 2d3d aab6 323e
000003e0: f111 63bc 73a6 c43d c017 14be 55de 78be
000003f0: 40dd be3d 7e30 1c3d 983d bfbd 3204 d73d
-0.1704198 0.18486363 0.17549127 0.014085169 0.18323472 0.029884506 -0.08190224 0.04626199
-0.13934359 -0.0044141877 -0.05624523 0.20841424 0.2215935 -0.06284175 -0.12569192 0.08892636
0.1841227 -0.18018696 0.023149326 -0.12768194 -0.097338945 -0.021293215 -0.1342362 0.0024331012
-0.09755748 0.1827506 -0.1777377 -0.008286943 -0.19075494 0.2345513 0.09502607 0.104750276
-0.13924696 0.09402057 0.027568014 -0.10304197 -0.026327344 -0.22169155 0.066204056 -0.11318178
-0.045271687 0.21385698 -0.04479385 0.078444645 0.20531872 -0.11773432 0.11162836 0.093940735
0.0353807 -0.10304134 -0.13362427 0.053062975 -0.25816718 0.09482093 -0.07952349 0.1910584
-0.04954499 0.1318427 0.18072718 -0.12311111 -0.14846261 0.009771846 0.114119284 0.02767579
0.14809942 0.24483302 -0.20284529 0.2093073 0.15469065 0.07627977 -0.07650596 -0.2021721
-0.043948635 0.186689 -0.0013056045 -0.13031454 0.0004113146 0.027607728 0.12871306 -0.073213324
0.020775191 0.19617395 0.1274065 -0.17419115 -0.2919057 -0.121602066 -0.011660655 -0.019342922
0.027098069 -0.06155662 -0.21114822 -0.28702393 -0.3275819 -0.1675637 0.10597051 0.0833373
-0.39423466 0.074573316 0.27748066 -0.1946893 -0.11793262 0.1818379 0.08078438 -0.08248035
-0.17830202 -0.08305693 0.029663077 0.077184774 -0.15435371 -0.12599054 -0.022835711 -0.3007742
0.19982824 -0.056252968 -0.1639993 0.17027356 -0.17033857 0.151913 -0.2997819 0.009557344
-0.14916514 0.06052668 -0.026433386 -0.042218048 -0.13076498 0.057460513 0.26405442 0.04919124
-0.13187869 0.007254716 -0.118938506 0.10006805 0.18852381 0.22210388 0.025029985 -0.11747598
0.07183814 -0.04554123 -0.10597293 0.082867816 0.16199328 0.123215266 -0.17460759 -0.24939038
-0.10558621 -0.07548365 -0.2463575 0.21795972 0.10704083 0.10466582 -0.06519639 -0.010101989
-0.40448382 -0.09208693 0.05350226 -0.22901475 -0.3578108 -0.17098585 0.30519798 0.20499888
0.25639316 -0.023595713 -0.11463767 0.13635339 -0.15277588 0.24693246 -0.20982987 0.0073449826
0.1128694 0.030313341 -0.08545441 0.11740368 0.042715613 -0.074003644 -0.006502121 -0.038975812
-0.19699095 -0.02208402 0.110021986 0.19092175 0.043862402 -0.16400047 0.1854122 0.20531802
0.32377738 0.088636 0.20153877 0.3929713 -0.12784894 -0.4355388 0.06895247 0.084244974
0.05019249 0.13762462 -0.15309958 -0.1969424 0.10583869 -0.1421036 0.15383276 0.2074769
0.21489415 -0.059136324 0.16398168 0.17995937 -0.10196869 -0.16781916 0.03938202 0.15033886
-0.062196467 0.0536717 -0.110283256 0.19730164 0.07868111 -0.1947741 0.07823183 -0.19146979
-0.19063997 -0.12965657 0.107646555 0.03686555 0.0821529 -0.09619119 0.17290269 0.08418575
0.036585957 0.1177938 0.21912104 -0.18173331 0.00933958 -0.26975414 -0.02558355 -0.15690826
0.25339073 -0.016056467 0.10696972 0.06257216 0.015009076 0.22538818 0.031184856 -0.16243471
-0.28853622 -0.08172523 0.10630553 -0.18549201 0.060360722 -0.31024945 0.04227717 0.17452493
-0.013859258 0.0960206 -0.14462185 -0.24303563 0.09319544 0.038132183 -0.0933792 0.10498847

layers.2.bias f4 [20]
00000000: dc6e 33be c06c 31bd a0b3 513b 587b 403e
00000010: 77b9 dd3d 6f2b 803c fa4e e5bd 0ad9 153e
00000020: fbc6 bd3c 7b18 9dbe 99cc e7bd a145 1ebe
00000030: 94b7 90bd 9814 213e b7cd 92be ff91 7e3e
00000040: 9fd1 143e 81a5 82bc 9a07 07be 778a 86be
-0.17522758 -0.043316603 0.0031997934 0.18797052 0.1082639 0.01564571 -0.11196704 0.14633575
0.02316617 -0.3068274 -0.11318321 -0.15456249 -0.07066265 0.15730512 -0.28672573 0.2486038
0.14533089 -0.015948059 -0.13186494 -0.26277515

layers.4.weight f4 [1, 20]
00000000: 9560 5d3d 54ce 8fbe 0516 b5bd 5cc3 d5bd
00000010: 6780 cabe c636 d73e a5a2 583e 8fee 0dbf
00000020: d044 98be 1958 06bf e15a b7bd 2e1c 853e
00000030: 6618 a93e cc91 023f c984 97be 72ec a73e
00000040: d280 acbb 70fe 4a3e d699 ccba adab f3be
0.054047186 -0.28087103 -0.088420905 -0.104376525 -0.39551088 0.42033976 0.21155794 -0.55442137
-0.2974 -0.52478176 -0.08952881 0.25998062 0.33026427 0.5100372 -0.29593495 0.3279758
-0.00526438 0.19823623 -0.0015609812 -0.47591916
