model/results/skew-skew/var-e10000/20-20-SGD-relu-0.001-50-e10000-var.pt (torch, 4783 bytes, 5 tensors)

layers.0.weight f4 [20, 5]
00000000: 4c0a 9d3e 0e1a 4c3e f30c 11be 28a2 703e
00000010: 2e18 593e fff2 f8be 1cfa 413e f1ee 6dbe
00000020: f882 64be 3187 b53d 8926 05be 4b5b 89bd
00000030: 8873 5fbe a181 c2be a4cc bb3e e0b7 6f3d
00000040: 11f0 c33d d861 dc3e 6001 ee3e 4a8a 383e
00000050: 936f e5bd 4756 26be 0c5c 903e ea79 b7be
00000060: f4ae 97bd 304b 4fbe 6e17 923d 23c5 84bd
00000070: c2e2 ac3d 5a9f 4fbe 5150 e33e 3228 ae3e
00000080: bb4a ba3e de56 e2be 99ec eebd 9dfc c3be
00000090: 4d50 b93e 8367 ecbd f5f5 bfbe 6134 9dbe
000000a0: 5f1b a93d 23d2 c1be 4b90 c43e b697 163f
000000b0: 8fa3 e8bd dde2 483e 9276 b4be 86b6 9d3e
000000c0: 038c c3be e4ea e8bd d157 223f bf7e b03e
000000d0: bfff cdbe ce3f b43d 4a7a 0ebe c1f9 053d
000000e0: d5a9 34bc 3f18 d63c 24c5 a0be 3361 473e
000000f0: 34b5 173e fdf8 0b3e 3028 babc a934 a13c
00000100: fbbd 9abe 8e76 fd3c a280 e6bd de77 debd
00000110: b709 41bd 4931 bc3d 94b3 b53e 3761 44bd
00000120: deb9 54be 60ba 163f 5525 bd3b 7657 f23e
00000130: 4dbd 8dbd 8847 bb3e 91a5 f7bd d452 28bb
00000140: 7623 57bd afbd 593d 3c94 123e 31fd abbe
00000150: 75fe 173d 12b6 22bd 80ac 863e 834b d1bd
00000160: 8c36 8a3e 8c41 653e ebd4 b53e e841 1e3e
00000170: f0b4 9a3c e2f1 bebe b388 9c3d 00a2 37be
00000180: 069f 703e 0840 053f 5d33 823e acf7 313e
0.30671918 0.19931814 -0.14165096 0.23499358 0.2120063 -0.4862289 0.18943065 -0.2323568
-0.22315586 0.08863676 -0.13002981 -0.06706866 -0.21821415 -0.37989524 0.36679566 0.058524966
0.095672734 0.430434 0.46485424 0.18021503 -0.11202922 -0.1624385 0.28195226 -0.358352
-0.074064165 -0.20243526 0.07133375 -0.06482913 0.08441688 -0.20275632 0.44397214 0.34015042
0.3638514 -0.442069 -0.11666221 -0.38278666 0.36194077 -0.11543181 -0.37492338 -0.30704024
0.08257174 -0.37855634 0.38391337 0.5882524 -0.11359321 0.19617791 -0.35246712 0.30803317
-0.38192758 -0.11372927 0.6341525 0.344717 -0.4023418 0.08801232 -0.13913837 0.032708887
-0.011026819 0.026134608 -0.31400406 0.19470672 0.14815217 0.136692 -0.022724241 0.01967843
-0.3022307 0.03094032 -0.112550035 -0.108627066 -0.047128405 0.09189088 0.3548857 -0.047944274
-0.20774028 0.58878136 0.0057722726 0.47332352 -0.06920872 0.36578012 -0.12092126 -0.0025684135
-0.052524053 0.053159412 0.1431436 -0.33591607 0.037107904 -0.039724417 0.26303482 -0.10219481
0.2699474 0.22388285 0.35514006 0.15454829 0.018885106 -0.37293917 0.07643261 -0.17932892
0.23498163 0.5205083 0.25429812 0.17379636

layers.0.bias f4 [20]
00000000: 86d1 4fbe fffb f33e 3bc2 14be 2687 82be
00000010: 7b6a 183f 0230 a83e d73b 83be fc1b b6be
00000020: bcf3 de3e 5d5f 983e 0676 a23e 3510 803e
00000030: 9f01 fe3e 6cac 96be 7904 233e 36fe 1c3e
00000040: 90f8 c43e 9e02 d4be 3f84 fd3e a203 b73e
-0.2029477 0.47653195 -0.14527218 -0.25493735 0.59537476 0.32849127 -0.25631592 -0.35568225
0.4354533 0.29760256 0.3173067 0.25012365 0.49610612 -0.29428422 0.15919675 0.15331349
0.38470888 -0.41408247 0.49514958 0.3574496

layers.2.weight f4 [20, 20]
00000000: 34d2 853b 7730 1cbd b888 1ebe 220e abbd
00000010: 284a 6cbc ad63 0abe e463 be3d 016a bc3d
00000020: 517a 61be 5a7e eb3d 1cba 823e e934 053e
00000030: dcaf cf3c 1fe5 c33d cfcf 623e d8c9 0fbe
00000040: 57b4 22be ff72 4cbd f8e8 803e cdc1 4ebe
00000050: 9c0a 5bbe 0ec2 15bd c4c2 d8bc 2edf 143e
00000060: f24b afbd 1504 3e3e 62a3 95bb bb65 0c3e
00000070: 8f21 5a3d 6e1f 053d 3cb6 b8bd ae1a a3bd
00000080: cae4 03be e41c ff3c f256 1ebd b27f e9bd
00000090: 3aa4 3b3e 6d14 e83c 1709 87bd 45d7 243e
000000a0: 4b8e d73d 35be 4a3e 2cc8 e43d 7085 e339
000000b0: feb2 113e 6dc8 ca3d 7a4f 52be 18a5 213e
000000c0: 7a67 b13d 7116 3a3e f7ae 03be e739 6ebe
000000d0: da34 a73d 6cd2 b53d 0fef 29be 8834 253e
000000e0: 97ec 09be d9a5 1ebe dad9 4d3d 9847 22bd
000000f0: 6d32 12be 18fd 06be 47fa 49bc 4c64 ad3d
00000100: 45cc d2bd 7940 283c 5cb7 1a3d edc3 ff3c
00000110: 7239 5d3d 001f 643d 42a0 303b 7bda 39be
00000120: 893d 48bd e8dc 3a3e 0742 2b3d 9b13 333c
00000130: 6941 2fbe cd85 19be a5dd ad3d 51e3 edbc
00000140: a6c7 083d 9829 55bd 51c0 41be e702 92bd
00000150: 93d7 8dbc 112c 3f3d 1720 003e 8fe6 353e
00000160: b730 3bbe 8c7c 453d 6ab8 823e 9c47 e9bc
00000170: 2224 233e 326c 323e e659 183d c05a 213e
00000180: ed16 b33d 4a22 8c3d 46c2 6c3d a157 55bd
00000190: ceff 29be a311 383d fb7e 45be 2cc5 bf3c
000001a0: 9234 cfbc c540 6ebd 648b 9abd 993d c4bc
000001b0: 350c 383e 5a74 5dbe 740d d33d 2ee2 1cbe
000001c0: 6904 dc3c 70c7 40be 8572 2b3e 82f8 133e
000001d0: f9cf f1bd 8c83 c8bd 63c8 5abd c3c2 e5bd
000001e0: 396b 18be 88da 08bd bb84 54bd 940a 1c3c
000001f0: 197b 8abe 261f 0fbe fc7c 503e b6c5 5dbe
00000200: 3105 143e 7d7e 08bb 62eb 393e dbf8 d53d
00000210: 73f1 053e e45b 4cbe 1d8b 5abc 9348 823e
00000220: 51bc 263d 413a 6e3d a3f7 51be 102c 2f3d
00000230: 61c3 0bbd 21f6 a43d c562 7ebd 0f41 253e
00000240: f09e 5ebe b19d 513d 5177 15bd daab fabc
00000250: 671d 11be 8db7 04be 6121 78bd b21e 463e
00000260: c54f 58be 24c6 46bd cba5 eebd 0892 a93d
00000270: 8256 8abd 19f3 043e b6ee 98bd f4cb 0abe
00000280: c1cd 423d fed4 94bc 06c9 de3d 8524 58be
00000290: 4971 6c3d 0ccf 883e 404b e53d 2b5d d2bd
000002a0: 0ce1 8dbd 0e14 853e 3bf0 8dbd 6c56 213e
000002b0: 6c4b ab3d 6c63 e53d c3be 3fbd 64dc 7e3d
000002c0: f290 863e 6368 e43c 4a4d ca3d 808a 4b3e
000002d0: f3f0 cdbd bf84 683e 30ca 06be 8acf 203e
000002e0: 1410 24bc 9356 ffbc c72d 1d3e 8b36 d0bd
000002f0: f5bc d63c a693 d53d d7e3 e03d 0d26 9b3d
00000300: f6c4 3e3e 0213 61be 3922 31be df9b a83d
00000310: 378f 163e cbd1 13bd bc2b 2d3a ab14 5abe
00000320: ef1c aa3d 4c07 31be 8a33 2bbe 86b7 493e
00000330: 554b fd3d 7368 26be fe6e 6b3d 7b5c dc3d
00000340: 675c 4fbe 34b3 5a3e a009 993d e9e7 c93d
00000350: dabe 0ebe 4896 27be 3364 54be 0ea6 273e
00000360: 0682 823e e5c1 333e 1536 eabd afbe 76bc
00000370: eeca 423e d0f2 b73d ef76 55bd 8aef 88bd
00000380: 96c1 10be a517 053d 6e03 a93d c419 833c
00000390: ccf0 743e f53a 293d 2c74 76be 004f 18be
000003a0: ac69 5d3d 1169 99bd aa66 33be 3d59 ae3d
000003b0: 8db6 ff3d 095b 283e ef91 44be 9add f73d
000003c0: 4a1c 0ebe 38db 85be a110 f93d 43f3 9b3c
000003d0: f0be b9bd c630 13bc 1e07 663d 0b45 4dbe
000003e0: 103a f7bd e7ea 49bb 65c4 8b3e fe74 943d
000003f0: 4a9f 34be 7c8d 44bd 4da5 4f3e 35c4 96bd
0.004083896 -0.038132157 -0.15481842 -0.08352305 -0.014421977 -0.13514586 0.092963964 0.09199906
-0.22019316 0.11498709 0.25532615 0.13008465 0.025352411 0.09565186 0.22149585 -0.14041841
-0.15889107 -0.049914356 0.2517774 -0.20191117 -0.21390766 -0.036562018 -0.026460059 0.14538261
-0.08559407 0.18556245 -0.004566596 0.13710682 0.05325466 0.032500677 -0.090191334 -0.07964073
-0.12880245 0.031141706 -0.038657136 -0.11401309 0.18324366 0.028330052 -0.065935306 0.16097744
0.10525187 0.1979912 0.11170992 0.00043396233 0.14228436 0.099015094 -0.2053813 0.15785635
0.08662315 0.18172623 -0.12859713 -0.23264275 0.081643775 0.088780254 -0.165951 0.1613332
-0.13469158 -0.15492953 0.050256588 -0.03961906 -0.14277048 -0.13182485 -0.012327737 0.08466396
-0.102928676 0.010269278 0.03777252 0.031221354 0.054009862 0.055693626 0.002695099 -0.1814975
-0.04888681 0.18248332 0.041811015 0.010929967 -0.17114796 -0.14992447 0.08489541 -0.029039057
0.033393525 -0.05204162 -0.18921019 -0.0712946 -0.017314708 0.046672884 0.12512241 0.17763732
-0.18280302 0.04821448 0.25531322 -0.028476529 0.15931752 0.17424086 0.03719511 0.15757275
0.08744607 0.068424776 0.05780246 -0.052085523 -0.16601488 0.044938695 -0.1928672 0.023409449
-0.025293622 -0.058167238 -0.07546118 -0.023955153 0.17973407 -0.21626416 0.103053 -0.15320656
0.026857572 -0.1882608 0.16742904 0.14450267 -0.11807246 -0.097907156 -0.05341376 -0.112187885
-0.14884652 -0.033411533 -0.051884394 0.009524006 -0.2704704 -0.13976726 0.20360178 -0.21657452
0.14455105 -0.0020827346 0.18156198 0.10447856 0.13080387 -0.19956928 -0.013338831 0.25445995
0.040706936 0.058161024 -0.20504622 0.04276663 -0.034121875 0.08054758 -0.062105913 0.16138099
-0.21740317 0.051175777 -0.036490742 -0.030599523 -0.14171372 -0.12960644 -0.060578708 0.19347647
-0.2112418 -0.048528805 -0.11652716 0.082798064 -0.06754781 0.1298336 -0.074674055 -0.13554364
0.047559503 -0.018167969 0.10878186 -0.21107681 0.057725225 0.26720464 0.111959934 -0.10271677
-0.0692769 0.25991863 -0.06930586 0.15755624 0.08363995 0.11200604 -0.046812784 0.0622219
0.2628246 0.027881807 0.09878023 0.19877052 -0.10055723 0.22706889 -0.13163066 0.1570417
-0.010013599 -0.031169211 0.15349494 -0.10166653 0.026213149 0.10428552 0.10980957 0.07575617
0.18629822 -0.21979907 -0.17298211 0.08232855 0.1470307 -0.036088746 0.0006605943 -0.21296947
0.083063 -0.1728794 -0.1671888 0.19698915 0.12367884 -0.16250782 0.057478897 0.10759827
-0.20250092 0.21357423 0.07472539 0.098586865 -0.13939992 -0.16365921 -0.20741348 0.16371939
0.25489825 0.17554434 -0.114360966 -0.015060111 0.19022724 0.0898186 -0.052115377 -0.066863135
-0.14136347 0.032493252 0.08252607 0.016003497 0.23919982 0.04131599 -0.24067754 -0.14873886
0.054055855 -0.07490743 -0.17519632 0.085131146 0.12485991 0.16440977 -0.19196294 0.12102814
-0.13877979 -0.26143813 0.12161375 0.019036895 -0.090696216 -0.008983796 0.05615913 -0.20045869
-0.120716214 -0.0030810179 0.27298275 0.07248877 -0.17638889 -0.047986493 0.20277901 -0.07361642

layers.2.bias f4 [20]
00000000: 5bff 4abd 9ffe 02be 0339 f3bb 46af 10be
00000010: 5624 9bbd 6a1a be3c ae16 843d fb11 a5bd
00000020: 25cf 15bc 865a b23d 73f4 9b3c c106 f03d
00000030: 528f 243e 990c 44be 7a4c d13d d6f3 19bc
00000040: 3f3f db3d a9e2 0b3e 2f77 37bd d13e 143c
-0.049559932 -0.12792443 -0.007422568 -0.14129362 -0.0757529 0.023205955 0.06449638 -0.0806007
-0.009143625 0.08708672 0.01903746 0.11720038 0.16070297 -0.1914543 0.10219665 -0.009396514
0.107054226 0.13660683 -0.044791397 0.00904818

layers.4.weight f4 [1, 20]
00000000: 0d1f 9a3e cdf4 3e3e 7f56 903d 8cff 51bd
00000010: 172a 063e 68b0 57be fa1b 523e 457f bd3b
00000020: c3c4 d4be d3eb 5dbe 11f8 c8be 42ee 4f3e
00000030: 01ec 9f3e 2535 663e 0ea8 da3e 918b 9abe
00000040: d930 51be cf6c b13e b50c d1bc 57c3 a6be
0.30101815 0.18648072 0.07047748 -0.0512691 0.13101994 -0.21063387 0.20518485 0.005782994
-0.41556367 -0.21671991 -0.3925176 0.20305732 0.31234744 0.2248121 0.4270634 -0.30184606
-0.2042879 0.34653327 -0.025518754 -0.32570907
