model/results/skew-skew/var-e10000/200-200-SGD-tanh-0.001-50-e10000-var.pt (torch, 168895 bytes, 5 tensors)

layers.0.weight f4 [200, 5]
000000 36 38 13 be 95 fe 92 3c d9 b0 23 3d 71 44 24 3e
       -0.14376912 0.01794366 0.039963577 0.16041733
000010 d1 71 0f 3e 5c 5a e1 be 99 7d 47 be 95 69 b0 3e
       0.14008261 -0.4401425 -0.19481505 0.34455553
000020 83 06 0a bd 93 df 1a be 28 7d 64 3c 79 0a c3 be
       -0.033697616 -0.1512435 0.013945855 -0.38093928
000030 59 64 a1 be 3c 06 3b bd b1 50 ca be e6 39 d8 be
       -0.31521872 -0.045660242 -0.39514688 -0.42231673
000040 ba f1 a4 3e 88 08 1d be 80 09 31 3c d8 88 8d 3e
       0.32215673 -0.15335286 0.010805488 0.27643466
000050 1e 9f 07 3e b2 07 2e 3e 51 7c 20 3e 5c 51 c5 be
       0.13244292 0.16995123 0.15672423 -0.38538635
000060 ac 45 a9 3e e7 11 cc be ba 1d 33 3e cf 9e e4 3e
       0.33060968 -0.39857408 0.17491809 0.4465241
000070 cf f2 b2 bd d4 06 d3 3e ec 68 a9 be d8 31 b6 be
       -0.08737718 0.41216147 -0.33087862 -0.35584903
000080 1f 7f 02 3d c7 5d 40 3e 6b ef 7d bd 2a 85 c4 3d
       0.031859513 0.18785773 -0.061995905 0.095957115
000090 97 11 9d 3e e7 84 96 3b 1f 1d 8e bd aa 00 f2 3d
       0.30677482 0.00459348 -0.06939148 0.11816533
0000a0 6e f5 e6 3c 23 f5 95 be ed 37 3d be 02 27 11 be
       0.028193202 -0.29288587 -0.18478365 -0.14175037
0000b0 a4 9c 48 be 19 17 b7 3e 6e a3 e7 3e 26 5c 9f 3e
       -0.19591004 0.3575981 0.45241874 0.3112499
0000c0 84 39 a6 bc 11 c4 06 3e 5e 0e 12 3e 53 25 b8 be
       -0.020291097 0.13160731 0.14263293 -0.35965976
0000d0 e3 83 73 3e cd 9d 85 be f3 c8 9f be af 80 bb bd
       0.2378078 -0.26096955 -0.31208 -0.09155404
0000e0 b0 75 1f be 4d e6 65 bb 28 4d e2 3e ba d3 8b be
       -0.15572238 -0.0035079897 0.4419949 -0.27309972
0000f0 2f 72 f0 3c 73 2a 95 be 06 28 3a be 82 0f c6 bc
       0.029351322 -0.2913395 -0.1817933 -0.024177317
000100 e9 ea 66 3e 3d 94 ca 3e d8 dd 84 be 6b f3 96 be
       0.22550549 0.39566222 -0.25950503 -0.29482588
000110 29 ed 86 3e c9 c0 4b be f3 7b 35 be 22 0b 7f 3d
       0.26352814 -0.1989776 -0.17723064 0.062266476
000120 5a 73 5b be bb 22 a0 3e 27 21 5c bc 19 3d e4 3d
       -0.21430722 0.31276497 -0.0134356385 0.11144466
000130 7f 13 41 be a1 2c a0 3e 29 e8 d6 bc c5 26 b9 be
       -0.18855093 0.3128405 -0.02623375 -0.3616239
000140 c7 57 44 be a2 74 44 3e 3e de bf be e0 ff 53 be
       -0.1917411 0.19185117 -0.37474245 -0.20703077
000150 be b9 ab 3d 30 ca 3c 3d c2 72 09 be 02 42 24 3e
       0.08385037 0.04609126 -0.13422683 0.16040805
000160 f1 d8 d7 be 25 36 8e 3e 68 5c d9 be 97 c1 80 3e
       -0.421577 0.27775684 -0.42453313 0.25147697
000170 46 3a b0 3e e6 48 81 be 43 03 df be d7 ee bb be
       0.3441946 -0.2525093 -0.43557176 -0.36705658
000180 a2 78 a2 bd b6 1c 91 be 87 b3 1f bd 5d 3f 61 3e
       -0.07933165 -0.28342217 -0.03898957 0.21996827
000190 9e 47 6e be cb f9 c9 be d8 5c d9 be f9 d8 65 3e
       -0.23269507 -0.3944839 -0.42453647 0.2244605
0001a0 d1 56 a6 be 24 de ab 3d cd 26 d6 bc a9 2d 83 bd
       -0.3248811 0.08391979 -0.026141549 -0.06405193
0001b0 12 7d 9d be ee c7 90 bd 27 05 e3 be f5 50 d5 be
       -0.30759484 -0.070693836 -0.44339868 -0.41663328
0001c0 3b 53 85 3e 58 52 0d 3e 8b 89 d7 3e 4d 82 37 3d
       0.26040062 0.13800943 0.42097124 0.044802
0001d0 c8 99 d8 be 91 50 ba bb 28 81 8e 3e 9a d2 9f 3e
       -0.42304826 -0.005685874 0.27832913 0.31215364
0001e0 0b b6 e8 3e ab ed 8e 3e 1d 88 ce be d3 2a af be
       0.45451388 0.279157 -0.4033822 -0.3421236
0001f0 0c e7 db 3d 53 cf 2b 3e 14 c5 ac 3b 68 ce 98 3e
       0.10737428 0.16778307 0.005272517 0.29844975
000200 92 40 bb 3c c8 3c a0 3e da 7b 85 be 96 21 8e bc
       0.022857938 0.31296372 -0.26071054 -0.01735
000210 c9 c4 01 3d 04 71 cb 3e 51 73 43 be e1 25 7a be
       0.03168181 0.39734662 -0.19086958 -0.24428512
000220 75 77 12 3e 59 11 d5 3e fa d5 ec b9 56 86 b1 3e
       0.14303382 0.41614798 -0.00045172853 0.34672803
000230 e3 c2 52 3e 66 a8 01 bd dd 9d a6 3e fa 29 44 3e
       0.20582156 -0.031654738 0.32542315 0.19156638
000240 13 75 d0 3e 3b 15 42 3e 5e a5 fd 3d 43 fc 97 3e
       0.4071432 0.18953411 0.12385057 0.29684648
000250 33 d1 39 3e 97 f8 fb 3d a9 e3 fa 3d d8 16 0b 3e
       0.1814621 0.12303274 0.12250454 0.13582933
000260 ef f1 7f 3e 2f 34 ab bc 69 51 55 3e 23 1b 92 be
       0.24994634 -0.020898907 0.20831837 -0.2853633
000270 c6 65 00 bc f3 6a 8a be ef cd 2b be 89 92 d0 bd
       -0.007836765 -0.2703472 -0.16777776 -0.10184199
000280 94 ac 3e 3e a3 a1 9c 3e 91 4f 0a 3e 1b e0 ce bd
       0.18620521 0.3059207 0.13506915 -0.101013385
000290 21 a8 b2 be ca db 39 3e 0a be 6e 3e 2b 91 e2 3e
       -0.34893897 0.18150249 0.23314682 0.4425138
0002a0 46 5f 9a be fd 87 d9 3e 0a b2 2b be 9a f4 c8 3c
       -0.30150813 0.42486563 -0.16767135 0.024530698
0002b0 d7 80 00 3e b1 12 dd 3d 67 d5 5e 3e 81 e5 04 be
       0.12549148 0.10794581 0.21761094 -0.12978174
0002c0 c1 67 cb 3d 46 61 0a 3e bd b0 e2 3e 52 9c d5 be
       0.09931899 0.1351367 0.44275466 -0.41720825
0002d0 59 fa 23 be 77 0d bb bc 8e bd 0c 3e 51 20 a7 3e
       -0.16013469 -0.022833569 0.13744184 0.32641843
0002e0 b0 0f be 3e b1 8f dd be 9f 0d 58 be 2f 1c c4 3e
       0.37121344 -0.4327369 -0.21098946 0.38302752
0002f0 fe c0 e9 3d e9 77 a7 bd c1 e2 a4 be f7 30 c0 be
       0.114137635 -0.08177168 -0.3220425 -0.37537357
000300 74 fc b2 be 76 47 65 be 81 4f e3 3e 95 c7 d0 3e
       -0.3495823 -0.22390541 0.44396594 0.4077727
000310 7c 87 9d 3d 75 6e 11 be d1 09 70 bc 3e fe d1 3d
       0.07691857 -0.14202292 -0.014650778 0.10253571
000320 5e 75 17 be 51 7b 5a 3e 84 1f 20 bd 86 39 01 3f
       -0.14790866 0.21336104 -0.039092556 0.504784
000330 03 d5 bc be ba f3 9a 3e c4 ef 93 3e 56 72 26 3d
       -0.36881265 0.30264074 0.28893864 0.040636383
000340 28 f7 ce 3d ca 48 d5 be d4 59 74 3d 97 f2 d0 3e
       0.10105735 -0.41657096 0.05965598 0.4081008
000350 d2 8d 95 be d8 27 bd 3e 99 4c 65 be 05 6c b0 3e
       -0.29209763 0.3694446 -0.22392501 0.34457412
000360 38 c4 40 3e 80 df 41 3e a1 34 d2 be f7 2e 9a be
       0.18824852 0.18932915 -0.41055778 -0.30113956
000370 af 6e 6f 3d 51 e2 87 bd c7 8d d2 be 6a ac f2 be
       0.058455165 -0.06634963 -0.41123793 -0.47397166
000380 13 60 69 3e 35 3f b3 be f0 38 cc 3e 8c cc 8c bc
       0.22790556 -0.3500916 0.3988719 -0.01718738
000390 8e 96 b6 be 79 bb 35 3e f8 ae 15 3e d9 a7 b5 be
       -0.3566174 0.17747296 0.14617527 -0.3547962
0003a0 68 c6 e0 be 52 67 d7 be f0 5c a2 be 42 ae 26 3e
       -0.43901372 -0.42071015 -0.3171153 0.16277412
0003b0 4d 98 8a 3c fe f1 2d 3d fb 0b c1 be 70 b3 8b be
       0.016918326 0.04246711 -0.37704453 -0.27285337
0003c0 a6 bb 26 3e 7e 53 8a be ef 2c ab 3e 33 88 ae 3e
       0.1628252 -0.27016824 0.3343272 0.34088287
0003d0 57 77 c1 be 9a 29 bc be 01 7f ce bd 9b 8e 7a ba
       -0.37786362 -0.3675049 -0.10082818 -0.0009557993
0003e0 60 b2 dc 3d 30 5a b3 3e 93 ec a0 be ce 71 a4 3e
       0.1077621 0.35029745 -0.31430492 0.32118076
0003f0 00 b4 ca 3e 6d f0 0e be 73 0a 99 be 04 ea a9 3e
       0.39590454 -0.13958903 -0.29890785 0.33186352

layers.0.bias f4 [200]
000000 0e 87 d0 be 5e 9f db be c3 4c 08 3e 5f c4 e5 be
       -0.4072804 -0.42895025 0.13310532 -0.44876382
000010 24 a7 b9 3e db e3 3d be 42 fc 88 3e c6 cb c9 ba
       0.3626033 -0.18543951 0.26754957 -0.0015395812
000020 1a a1 32 3e b0 eb 4e 3e ac 89 ad be 10 48 bc be
       0.17444268 0.20207095 -0.33894098 -0.3677373
000030 c8 73 f5 3c 91 e0 0e 3e d3 20 e7 be bf f4 ae be
       0.029962435 0.13952853 -0.4514223 -0.341711
000040 7d ea 72 3e 22 41 3d 3e 6a 50 ce bd 60 26 f8 3d
       0.23722263 0.18481877 -0.100739315 0.121166945
000050 90 2e c5 be 11 64 91 3e 3a 90 f1 3d de ad 19 3e
       -0.38512087 0.28396657 0.11795087 0.15007731
000060 da e0 b3 3e c2 4d 62 bd 04 e6 ca bd 66 c3 c9 3e
       0.35132486 -0.055249937 -0.09907153 0.3940689
000070 c9 ff bd 3e e3 48 e7 be 96 d8 ad 3e 5f 34 c6 3e
       0.3710921 -0.45172796 0.33954304 0.3871183
000080 aa a9 3d 3e 77 e8 de be 02 dd 12 be 83 b8 e0 be
       0.18521753 -0.43536732 -0.1434212 -0.4389077
000090 e7 8c f8 be b7 55 dd 3e 32 90 a9 3c 7a 75 cb bd
       -0.48545 0.43229458 0.02069864 -0.09934516
0000a0 04 96 d2 3e 07 00 4a be 91 c5 ad be de cb e7 3e
       0.41130078 -0.19726573 -0.33939794 0.45272726
0000b0 df a8 c1 3e bd 73 b8 be 6f f2 8d be d4 ef 2d be
       0.3782415 -0.360258 -0.27724025 -0.16986018
0000c0 87 3c b1 3e 0e ec b9 be f0 cb a1 be 20 4d 85 3e
       0.3461649 -0.36312908 -0.31600904 0.26035404
0000d0 79 e4 7f 3e 6b c4 9f 3e e5 95 70 bc 70 03 e4 be
       0.24989499 0.31204543 -0.014684175 -0.44533873
0000e0 de de 2d be a4 d7 14 bd eb d8 8e be 4d 8d 9f 3e
       -0.16979548 -0.036338463 -0.2789987 0.3116249
0000f0 40 99 25 3c 94 c7 49 be 8f f6 fe bc e4 c0 24 be
       0.010107338 -0.1970504 -0.031123428 -0.16089207
000100 d9 f9 99 3d 60 05 b6 be 69 f0 1e bc 75 a6 a1 bd
       0.07518358 -0.35550976 -0.009700873 -0.07893077
000110 7f 9b 60 3e 26 68 ae be 1c cc ce 3e 7f 8c 19 be
       0.21934317 -0.34063834 0.40390098 -0.14995001
000120 00 bb c5 3e 77 f8 d6 be 07 08 8e bd 1c 23 55 3b
       0.38619232 -0.4198644 -0.06935125 0.0032522148
000130 ac 30 1b 3d 5c 7b ad 3d f1 8b 26 3e 7f 7b c3 be
       0.037888214 0.084707946 0.16264321 -0.38180158
000140 aa ab 29 3e a7 f2 21 3e 75 73 96 3e 99 e4 dc be
       0.16569391 0.15815221 0.29384962 -0.43143156
000150 82 17 b4 3e 5e b9 7d 3c ca 27 4f 3e f2 d8 41 be
       0.35174185 0.0154860895 0.20230022 -0.18930414
000160 01 30 27 be 81 ed ac bd cf 89 b8 be 89 ef a6 3d
       -0.16326906 -0.08443738 -0.3604264 0.081511565
000170 a4 7d 05 be 4f 53 5f be 24 21 b7 be 6e 5e c8 be
       -0.1303621 -0.21809123 -0.35767472 -0.39134544
000180 d2 c0 ce be 55 bf e0 3e 70 83 e5 3e 6e 33 7b be
       -0.40381485 0.43895975 0.4482684 -0.24531338
000190 e3 f1 b8 3c 14 c0 43 be 64 1a a8 bc df 29 a9 be
       0.022576278 -0.1911624 -0.020520397 -0.33039758
0001a0 25 5a d0 3e 1f ab a9 3e 6e 41 1c 3d 09 d2 a5 be
       0.40693775 0.33138368 0.038148336 -0.32386807
0001b0 a0 d7 b1 3d 95 97 d7 be 48 19 80 3d 28 a5 d3 bd
       0.08683705 -0.42107835 0.06254822 -0.103342354
0001c0 cb e9 0c 3e 1c 77 b1 3e 96 ed bf 3e 9d ba bd 3d
       0.1376106 0.34661186 0.3748595 0.09264109
0001d0 11 b8 3b bd 18 00 84 be 16 61 cf bd c4 d3 7a be
       -0.045829836 -0.25781322 -0.101259395 -0.24494845
0001e0 26 0f 53 bd 25 da e3 be 2a 62 fc 3e 30 a5 44 be
       -0.05152812 -0.4450237 0.49293643 -0.19203639
0001f0 c9 3c 61 3e 7c b6 e1 3e a3 0f 9a 3d a7 ce 8d be
       0.21995844 0.44084537 0.07522514 -0.27696726
000200 79 3b e1 be fc 38 2e 3e 28 ba e5 3d 0d 17 d1 3e
       -0.43990687 0.17013925 0.11217147 0.408379
000210 44 16 67 be 93 4e cd be eb 49 2c bd ee f1 e9 bd
       -0.22567087 -0.4009901 -0.04206268 -0.114230976
000220 4f a3 a9 3e d1 7a c5 be 0a a8 0d 3e 99 d7 b9 3e
       0.33132407 -0.38570264 0.13833633 0.362973
000230 61 8b 25 be d1 ef 2c 3d 16 7c 79 bd c6 f0 b1 3e
       -0.1616645 0.042220894 -0.060909353 0.34754008
000240 c6 fa 8c 3d d1 4e bd 3e 87 8f d6 3d aa 6b 54 3d
       0.06883769 0.36974195 0.104765944 0.05186049
000250 1a bb 8e 3e 29 14 7e be 84 2d 09 3d 36 3c 38 be
       0.27877122 -0.24812378 0.033490673 -0.17991719
000260 e1 86 fd 3d 2b 06 cf 3e 0f bc 56 3d 78 bf 30 3e
       0.12379242 0.40434393 0.05242544 0.1726054
000270 10 0f c0 be c2 a8 08 bd e2 92 8d 3e b7 0a 82 be
       -0.37511492 -0.033364065 0.27651125 -0.253988
000280 09 7a d2 be 91 ba fa bc a0 83 54 3e 35 dc b0 bd
       -0.4110873 -0.03060654 0.20753336 -0.08635751
000290 14 0b 9e be 06 b8 c7 3e c3 5d b5 3e c4 2f 09 be
       -0.30867827 0.39007586 0.35423097 -0.13397127
0002a0 56 1a c0 be 0f c7 c1 3d d7 80 d6 be ac 8b cb be
       -0.37520093 0.094617955 -0.41895172 -0.39755
0002b0 b3 3c c5 3d e7 a1 b4 be 80 de 64 be 42 69 8b be
       0.09630718 -0.35279772 -0.22350502 -0.27228743
0002c0 fc e1 b5 ba 9b c8 d6 bd af 2d 5e be 90 48 a5 be
       -0.0013876553 -0.10487481 -0.21697114 -0.32281923
0002d0 96 7b 52 3d b4 ea ee be 10 3a 48 3d f4 70 0b 3e
       0.051387392 -0.4666344 0.048883498 0.13617307
0002e0 1b 16 e1 3d c4 ed 4d 3d 7f 83 c5 3e 98 2e a7 be
       0.109905444 0.05027558 0.38576886 -0.32652736
0002f0 54 77 c3 3e 1a e0 a6 be 58 37 eb be ff 55 da be
       0.38176978 -0.3259285 -0.4594066 -0.42643735
000300 0c 98 a0 be fc a5 d0 be 6a 63 b6 3e 38 1a 89 be
       -0.31366003 -0.40751636 0.35622722 -0.26777816
000310 85 66 28 3d f0 5f a4 3e b6 2a 7e 3e f1 5d cf be
       0.041113395 0.32104445 0.2482098 -0.4050136

layers.2.weight f4 [200, 200]
000000 e5 8c 07 3c 13 02 9b 3a 63 dc 6f 3d 4f a0 f8 3b
       0.008273338 0.001182618 0.058559787 0.0075874696
000010 be 8d c0 3a 30 82 f5 bc fe 3d 5b 3a 00 25 af bc
       0.001469068 -0.029969305 0.00083634246 -0.021379948
000020 b1 e5 39 bd 57 6a 31 3d 62 2b fa bc 6f 8c 14 bd
       -0.045385066 0.043314304 -0.030538265 -0.03626674
000030 4f f0 2e bd 21 07 1b bc d9 16 71 bd 93 6a 3e bd
       -0.042709645 -0.009462149 -0.05885968 -0.046488356
000040 33 0c 19 3c ff c2 7e bd 05 fb b1 3c 1e d6 16 3c
       0.009341287 -0.06219768 0.02172614 0.009206323
000050 e3 bc 89 bd 7c 4d 25 3b f4 31 40 bc 84 7b 85 3b
       -0.067254804 0.0025223186 -0.01173066 0.004073562
000060 ed 08 f3 39 d7 8f 62 bd d6 01 df bb e6 3f 2e 3d
       0.00046355222 -0.055312958 -0.006805639 0.042541407
000070 2f 45 5c 3d 91 6e 39 bc 89 3a d5 bc d3 bf fb bc
       0.053776916 -0.011317865 -0.026028888 -0.030731117
000080 8e 5a 29 bd b5 94 ba bc cb 21 f4 3c 66 0f 91 3d
       -0.041346125 -0.022775987 0.02980127 0.07083015
000090 f6 11 3a 3c d2 f5 ba bc b0 31 7d bd 32 47 4a 3d
       0.011356821 -0.022822294 -0.061814964 0.049384303
0000a0 ef 21 4e 3a 79 5c 4b 3d d2 09 02 3d e4 a4 6a 3d
       0.0007863333 0.049648736 0.031747647 0.05728616
0000b0 d4 48 06 bd 79 a9 4a 3d c6 a7 f4 bc 9d 71 88 3d
       -0.032784298 0.049478028 -0.029865157 0.06662295
0000c0 ee 01 41 3d 89 c0 9e bc 81 8d 7e bd 07 27 83 bc
       0.04712098 -0.019378917 -0.062146667 -0.01600982
0000d0 0d c0 5d bc ac f3 52 3c 77 89 1d bc 88 b5 b7 bc
       -0.013534558 0.012875479 -0.009615294 -0.022425428
0000e0 4a 8c 69 3d c4 b7 28 3d c9 8b c9 bc 52 46 1f bc
       0.057018556 0.041190878 -0.024602788 -0.0097213555
0000f0 ff 20 75 bd 41 13 8a bc 08 79 e0 bc f2 b1 62 3d
       -0.05984592 -0.016854884 -0.027401462 0.055345483
000100 db a0 95 bb 46 a1 90 3d c1 71 1c 3d 69 69 05 3d
       -0.0045662946 0.070620105 0.03819442 0.03257123
000110 04 9e 1a 3d 29 15 1e 3d 8a cd 10 bd 61 71 4a bd
       0.03774835 0.0385944 -0.035352267 -0.049424533
000120 ae f5 8e 3d cc 3a 7c 3d 63 48 0a 3d 45 1a 27 ba
       0.069804534 0.06157951 0.03376044 -0.0006374459
000130 68 cb 08 3c 77 50 87 bd ee 2a a8 bc 8e 81 89 3d
       0.008349277 -0.06607144 -0.020528283 0.06714164
000140 62 2a 67 3d 1c 87 80 3a 73 f0 35 bd d1 65 4d 3c
       0.056436904 0.0009805891 -0.044418763 0.012536482
000150 2c 7f 7d bd 9f cf bb 3c ee 5b 08 bd 65 ba 66 bc
       -0.06188886 0.02292615 -0.033290796 -0.014082526
000160 b0 51 96 3c 16 b6 31 bd df 9e ae bc 09 5d 92 3c
       0.018349499 -0.04338654 -0.02131599 0.017866628
000170 b8 e7 e0 bc 68 97 4d 3d dd 1f de 3c bd 8b 77 bd
       -0.027454242 0.05019322 0.027114803 -0.060436
000180 65 77 c1 3c 70 8b 11 3d 5f 10 87 3d c4 c6 d7 3c
       0.023616502 0.03553337 0.065949194 0.026339896
000190 0c 82 fc bc b1 28 eb 3b 9b 44 17 bd 1c 0d bf 3c
       -0.03082373 0.0071764817 -0.03693066 0.02332168
0001a0 73 2c 66 3d 73 76 51 3d 53 d2 2e bd a6 ea 10 3c
       0.056194734 0.051138353 -0.04268105 0.008845007
0001b0 3c 23 85 3c 40 ed d6 bb b5 42 7b bd aa 26 fe ba
       0.016252153 -0.006559044 -0.061342914 -0.0019390185
0001c0 10 46 3f bd 50 95 27 bd 1f 35 70 3d 8e a3 c8 3c
       -0.046697676 -0.04091388 0.05864441 0.024492051
0001d0 30 64 93 bb 9f 4e 0d bc 84 54 44 3d d0 c8 c8 bc
       -0.0044980273 -0.008624702 0.047932163 -0.024509817
0001e0 f6 0f 3a 3d e1 2d 75 3d 48 48 97 bd 03 b8 cc bc
       0.045425378 0.059858207 -0.073868334 -0.024990087
0001f0 2d 4b 38 bd be c9 60 bd 6c d5 5b bd 31 f9 46 3d
       -0.04499357 -0.054879896 -0.05367033 0.04857749
000200 d0 75 f2 3c f7 3e 5b bd 97 46 46 3c 0f 1b 19 bd
       0.029597193 -0.053526845 0.012101791 -0.03737932
000210 f9 ed 59 3d ab 5c 19 3d c6 f4 e2 3b 6f 0b b1 3c
       0.053205464 0.03744189 0.006926152 0.021611897
000220 1e 9e 5d 3d a2 93 92 bd 7e c4 8b 3d 82 d9 ff bb
       0.05410587 -0.07157065 0.06824587 -0.0078079114
000230 71 6a 55 3d 89 f2 90 3d cf e5 7c 3d cc 0c 8a bd
       0.052103464 0.0707751 0.0617426 -0.06740722
000240 8f 24 94 bc fa 3b 28 3c c3 6d 49 3d cb 09 09 bd
       -0.018083839 0.010268206 0.049176943 -0.033456605
000250 57 7c 09 3d 14 ce b5 bc 56 fd 8d bd e3 bc b8 bb
       0.033565845 -0.022192992 -0.069330856 -0.0056377514
000260 2f 13 ce bc 95 15 6f bd 7b e1 e7 bc f1 2a 47 3d
       -0.025155632 -0.05837019 -0.02830576 0.048624936
000270 eb 89 1e 3b 0c d8 c2 3c 3f 46 88 3d c2 be 4b 3d
       0.0024191092 0.02378466 0.066540234 0.049742468
000280 fd 67 39 3d 7e e0 34 bd 03 e3 96 3c a9 32 29 bc
       0.045265187 -0.044159405 0.018418794 -0.01032702
000290 89 ff 8b bd e4 3c 1c 3d 4a 77 ed bc 7a fc 89 bd
       -0.06835849 0.038144007 -0.028987546 -0.06737609
0002a0 4d bf 22 3d 14 11 93 3d d8 7d 89 3d 4f 42 73 3d
       0.03973322 0.07180992 0.06713456 0.05938941
0002b0 22 77 b2 3c b8 15 82 3d 1f e9 66 bd b4 11 29 bd
       0.021785323 0.06351799 -0.056374665 -0.04127665
0002c0 14 09 fc bc d9 cc 7c bd 44 c9 88 bc b0 b8 4a bb
       -0.030766048 -0.061718795 -0.016697533 -0.0030932836
0002d0 da cf 55 3d 91 3f db 3c 5c 73 8c bd 07 1a bf 3c
       0.052200176 0.02676371 -0.068579406 0.02332784
0002e0 f9 3c 4c bd 5f 9e 38 bb 45 2d 27 bd 2d b6 e0 3c
       -0.049862836 -0.0028170568 -0.040814657 0.027430618
0002f0 ba 7f 28 bd d6 76 84 bd 21 43 6e ba 61 35 3a 3b
       -0.041137435 -0.06467979 -0.00090889825 0.0028413164
000300 99 66 7e bd 88 6d 54 3d fd cb b0 3c 85 28 f8 bc
       -0.062109563 0.05186227 0.021581644 -0.030292759
000310 45 b8 cd bb 0a 14 ca 3c c8 73 5b bd 11 08 1c bc
       -0.00627807 0.024667758 -0.053577214 -0.009523408
000320 86 1b 58 bd 82 63 29 3d 65 08 36 3c b3 63 05 bc
       -0.052760623 0.041354664 0.0111104 -0.008141446
000330 72 6e 45 bc 25 d9 a4 bc 62 82 56 bc a8 8f 16 3d
       -0.012050258 -0.020123074 -0.013092609 0.036758095
000340 07 2d 36 3d 29 a8 8d 3d 74 3e e5 bc 20 cc 6f 3d
       0.044476535 0.0691684 -0.027983882 0.05854428
000350 9a e0 76 bd 9e 2d 64 bd 9e cd 85 3d 0c 76 18 3d
       -0.06027279 -0.055707566 0.06533359 0.037221953
000360 5e b6 c3 39 1b df a9 3c 4d bd ec 3c c4 ef 83 3d
       0.00037329172 0.020736268 0.02889886 0.06442216
000370 1b c0 66 bc 37 5a 43 bc a1 6a 84 3c 8f 4b 93 3d
       -0.014083887 -0.011923364 0.016164126 0.07192146
000380 1a 61 30 3c 26 26 df 3c eb 3f 0c 3d 6e 6b 02 3d
       0.010765338 0.02723987 0.034240644 0.031840734
000390 8d f3 4a 3d 0f 9b 52 bd b9 c4 6c bc 6b 0c fa bc
       0.049548674 -0.051417407 -0.014451199 -0.0305235
0003a0 77 d1 07 bd ea c3 13 3d d5 cc 6d bd 88 2c 66 3d
       -0.033158746 0.03607551 -0.05805667 0.056194812
0003b0 9e cc c4 3c bf d9 21 3d 52 2b 0e 3d bc 31 4d bc
       0.02402335 0.0395143 0.034709282 -0.012524065
0003c0 78 e6 4c bd 74 a7 5e 3c 1c a7 46 3d 84 bd 8b bd
       -0.05002448 0.013589729 0.04849921 -0.068232566
0003d0 4f bc 39 3c 90 34 8e 3b e2 54 b8 3c 2e dc 9f bb
       0.0113364 0.004339762 0.022501413 -0.0048785424
0003e0 75 7c 43 3d 9f 80 9a bb 81 59 2a bd 02 d8 86 3d
       0.047726113 -0.00471504 -0.041589264 0.06584169
0003f0 56 b5 0e bc 20 2d 85 bd aa 7b 66 bc a4 26 12 bc
       -0.008710226 -0.065027475 -0.01406757 -0.008920345

layers.2.bias f4 [200]
000000 5d 0e 26 bd ae 5a d7 3c 86 12 a6 bc e2 5f b3 3c
       -0.04054104 0.026288357 -0.020272505 0.021896306
000010 22 9d 51 3d ff a1 77 3d 16 e2 2c bc 12 4c 78 bd
       0.051175244 0.060457226 -0.01055195 -0.06061942
000020 9b 33 7d bd fc cf 58 3d 9c 79 e6 3c 01 14 25 3d
       -0.061816793 0.052932724 0.02813416 0.04030228
000030 55 4a 36 3d 45 61 bd bc 55 57 38 3d 49 e7 77 bd
       0.044504482 -0.02311767 0.04500516 -0.060523305
000040 71 8c 3f 3c b3 7e c7 3b 35 3d 30 bd a9 7b 41 bb
       0.011691199 0.006088102 -0.04302712 -0.002952317
000050 2d 6a 37 3d 3a 9f e1 bc d9 d1 99 bd 87 9e 73 3d
       0.04477899 -0.027541745 -0.075107284 0.059477355
000060 21 4e ce 3c b7 25 0b 3d 6a 08 7d 3d 01 5b f7 3b
       0.02518374 0.033971515 0.061775602 0.0075486903
000070 51 bc 34 bd 14 f7 85 bd ee 65 87 3d ca 4e c0 3b
       -0.044124905 -0.06541267 0.066112384 0.0058687674
000080 9c 87 59 3d 07 fe 6d 3d b9 ff 33 3d ba 61 43 3d
       0.053107843 0.058103587 0.043945048 0.04770062
000090 96 a3 40 bd dd 5a 0a bd 5a 5e 1f bc 01 56 18 3d
       -0.047031008 -0.03377806 -0.009727085 0.037191395
0000a0 92 6b 57 bd b5 ba 87 3c 3e 76 71 bd ad b0 8b bc
       -0.05259282 0.016568521 -0.058950655 -0.017052019
0000b0 e8 1a 4b 3d 76 03 8a 3c b2 66 5f 3d 70 3e 2e bd
       0.049586207 0.016847353 0.054541297 -0.042540014
0000c0 5c 41 85 bd e5 fa 49 bd a6 08 09 bc 84 b8 89 3d
       -0.06506607 -0.049311537 -0.008363878 0.06724647
0000d0 d5 4e 50 bc e3 bf 08 39 bd 82 85 bd 7d b7 24 3d
       -0.0127141075 0.00013041454 -0.06519077 0.04021405
0000e0 8a 1b d0 bc 67 b0 66 3d a0 10 d7 3b 19 21 c6 bb
       -0.025403757 0.056320574 0.006563261 -0.006046426
0000f0 ba e0 1b 3d f1 77 1a bc ee 5e a3 bb 36 e9 eb bc
       0.038056113 -0.00942801 -0.0049856817 -0.028797727
000100 bd 87 51 3d 0f ea 21 bb 98 33 8b 3c e3 02 4f 3d
       0.05115484 -0.002470616 0.016992375 0.050539862
000110 ee af 08 bc a4 e9 0c 3d ee 04 13 bd 86 43 00 3d
       -0.008342726 0.034402505 -0.035893373 0.031314395
000120 03 39 e3 b7 d9 ee 5a 3d e8 61 81 bc 5d 98 71 bd
       -2.7087057e-05 0.05345044 -0.015793756 -0.058983196
000130 eb c6 58 3d 3f 08 cb bb eb 92 2c bd de 97 21 bd
       0.052924078 -0.0061960514 -0.0421323 -0.039451472
000140 28 ff 32 3d 61 a0 1d 3d e1 28 a8 bb c9 d7 50 3d
       0.043700367 0.038483027 -0.0051318263 0.05098704
000150 79 e3 50 3d bc 64 e8 ba 27 3f 76 3d ea 41 51 3d
       0.050998185 -0.0017730216 0.06011882 0.05108825
000160 26 77 19 bd 3b bc 68 3d 37 0f 60 bc 63 78 90 bd
       -0.037467144 0.056820136 -0.0136755025 -0.07054212
000170 40 7d 80 bc 6e 24 33 3d 2c 03 86 3c bb 6c 64 3d
       -0.015684724 0.043735914 0.016358934 0.055767756
000180 bf d7 84 3d 73 2b 4e 3d 77 55 96 3d 67 33 d5 bc
       0.06486463 0.050334405 0.0734052 -0.026025487
000190 7b 61 22 bd 67 af d3 bc c6 64 3a bd 36 49 51 3d
       -0.039643746 -0.025840474 -0.04550626 0.05109521
0001a0 ad 99 5e bd 1d cc 06 3b 99 8f d5 3c bc 24 0c 3d
       -0.054345775 0.0020568438 0.02606945 0.03421472
0001b0 fc c2 d2 3c 43 94 41 3d ef aa 60 3c e5 f4 47 bd
       0.025727741 0.047260534 0.013712629 -0.048817534
0001c0 f4 9d e3 39 ff b7 86 3d b7 fd 83 3d 4f 45 81 bd
       0.00043414498 0.06578063 0.06444877 -0.06312048
0001d0 b0 c4 55 bd a2 c5 87 3c 37 48 c0 bc 74 6c 05 3a
       -0.05218953 0.01657373 -0.023471935 0.0005089708
0001e0 ae 09 52 bc 02 65 14 bd 2c 90 e2 bc c6 2e 9a bc
       -0.012819691 -0.03622914 -0.027656637 -0.018821131
0001f0 17 c4 0c 3d 1f 14 76 bd 82 0d 53 3d 13 93 37 bd
       0.034366693 -0.060077783 0.051526554 -0.044817995
000200 1a 2f 1a bd 5a d0 0c bd 91 23 ee bb 75 a4 a4 3d
       -0.037642576 -0.034378387 -0.0072674234 0.0803918
000210 4f 2d 2c 3c 2a 21 b4 bd e8 ee 0d bd 15 6b 70 bd
       0.010508849 -0.08795388 -0.034651667 -0.05869587
000220 c3 ce 98 bc 25 d9 10 3d a2 d3 a3 3c 28 87 39 bd
       -0.01865328 0.035363335 0.019998375 -0.04529491
000230 e3 54 27 bc f6 b7 94 bd 2c 93 11 bb 4e d2 75 3d
       -0.01021311 -0.0726165 -0.0022212965 0.060015015
000240 31 28 89 3c c0 35 8b 3d aa 4a 70 3b 17 05 42 3d
       0.016742798 0.067973614 0.0036665597 0.047368135
000250 12 ac 2f bd c8 77 03 bd 54 b7 a9 3c 48 c4 23 3d
       -0.04288871 -0.032096654 0.0207173 0.03998211
000260 77 36 18 bd 1e 6d 71 3d bd 29 3b bd 34 2c 4f ba
       -0.037161317 0.058941953 -0.0456941 -0.000790301
000270 b5 4a 13 bd 42 ab 71 3d e2 8e 14 3d 71 b0 7b bb
       -0.035959918 0.059001215 0.036269076 -0.0038404728
000280 4f 87 1c bd ea d8 09 3d b7 72 9a 3c fa f1 2f 3b
       -0.038214978 0.03365413 0.018853528 0.002684711
000290 21 e3 6b bd 61 e9 ab 3c 8b 17 e2 bc a2 79 58 bd
       -0.057589654 0.020985307 -0.027599117 -0.052850373
0002a0 d8 5d 97 bb 8d d7 1d 3d aa 49 73 bb 7e 05 6b 3d
       -0.0046193413 0.038535643 -0.0037122765 0.057378285
0002b0 d5 80 92 3b bf 32 85 3b da 03 c4 3c 04 61 4a bd
       0.0044709244 0.0040648873 0.023927618 -0.049408928
0002c0 59 38 3b 3d 10 3d 87 3d ee ed 51 3d 04 59 5d bd
       0.045708034 0.066034436 0.051252298 -0.05403997
0002d0 cf a6 d5 3c f2 ab 49 3d 4e ba 3a 3c 87 57 94 3d
       0.026080517 0.049236245 0.011396958 0.07243257
0002e0 e6 89 da bc a9 55 fa bc 22 fd 4a 3d 06 9c 9d bc
       -0.026677083 -0.030558424 0.049557813 -0.019239437
0002f0 f3 10 e9 bc 4e 4b 83 3d 2a 87 29 bc 00 f0 95 bc
       -0.028450465 0.064108476 -0.010347167 -0.018302917
000300 62 43 9a bd 1b 39 83 3d 14 c3 31 3c af a0 6d bc
       -0.075323835 0.064073764 0.010849733 -0.014503642
000310 8b 7e 06 bd ae d8 4f bd c5 51 74 bd 02 3c 7d bc
       -0.032835525 -0.05074375 -0.059648294 -0.0154562015

layers.4.weight f4 [1, 200]
000000 d7 72 7e 3d a9 bf ac bd db bc 9b 3d b0 6e bb bc
       0.06212124 -0.08434994 0.07604381 -0.022879928
000010 11 d9 b5 bd a0 d4 a7 bc 95 a2 5a bd 24 16 85 bc
       -0.08879293 -0.02048713 -0.053377707 -0.016245909
000020 fa 52 fc bc 35 a2 0a 3e 67 97 93 bd a2 2f 48 bc
       -0.030801285 0.1353844 -0.07206612 -0.012218388
000030 f8 5b 2f 3d fb 6a b9 bc a9 01 dd 3d 0d 96 39 3d
       0.042812318 -0.02263402 0.10791332 0.045309115
000040 91 a3 a1 3d b7 f5 6f bc f3 5b 19 bc 71 9b 14 bc
       0.07892526 -0.014645985 -0.009360301 -0.009070263
000050 36 f5 b8 3c f5 44 52 bd 97 f4 a4 be d6 df 9e bd
       0.022577863 -0.051335294 -0.32217857 -0.07757537
000060 4f 55 04 be 08 42 bc 3d b3 f5 5f 3d 1b f6 0b be
       -0.12923168 0.09192282 0.054677676 -0.136681
000070 70 ff 08 bd 52 2f 6c bd 3f ba 77 bd 01 1b 95 3d
       -0.03344673 -0.057662316 -0.060480352 0.07280541
000080 92 8f 06 be a1 99 25 b9 08 d3 09 3d 9d 98 b2 bd
       -0.13140705 -0.00015792857 0.03364852 -0.08720515
000090 2a 68 20 be f9 dc f8 3d a3 d8 b1 bd 07 83 25 bd
       -0.15664735 0.12151522 -0.08683898 -0.04040816
0000a0 67 02 6a bd a0 62 fc bd e8 7b b5 bd 7b ad 05 bb
       -0.057131197 -0.12323499 -0.08861524 -0.0020397592
0000b0 e6 d9 25 bd 39 a6 c3 bd bc f7 3a 3d f1 7c dc bd
       -0.040491007 -0.09553189 0.045646414 -0.10766018
0000c0 6c 7f b2 3d 9f 93 20 3d 3c a7 49 3c d3 75 e0 3d
       0.0871571 0.039203282 0.012307938 0.10959973
0000d0 56 0a 00 3e b6 97 7d 3c d7 fc 6d 3d ce 22 39 bd
       0.12503943 0.015478065 0.058102455 -0.045199208
0000e0 f9 84 01 3e ca 5b 1c 3d 8b ec a9 bd f8 aa 32 3d
       0.12648381 0.038173474 -0.0829707 0.04362008
0000f0 85 c9 c2 bd b5 3d ea 3d 15 87 6a bc 2c 0b b1 3d
       -0.09511093 0.11437551 -0.014314433 0.08644709
000100 00 49 0b 3e 9d 62 00 3d 69 55 87 3d 2f ab e3 bc
       0.13602066 0.031344045 0.066080876 -0.027791588
000110 8a f9 ec bd 05 7d 4d bd 36 e0 a1 bb 1e 5c 65 3e
       -0.11571033 -0.050168056 -0.004940058 0.22398421
000120 db 25 ae bd 1a fd bf 3d 65 a4 2f 3b 6a 4e f8 3c
       -0.08503314 0.09374447 0.0026800868 0.030310828
000130 28 3a ca bd b1 f5 b1 bd 08 b6 56 3d 69 18 22 3e
       -0.09874374 -0.0868944 0.052419692 0.15829624
000140 36 f8 ad bd c1 93 f8 3d 72 36 fb bd 3b e3 a7 bd
       -0.08494608 0.12137557 -0.12266244 -0.08197638
000150 2f 42 92 bd 96 07 4d 3d 0e cf ad 3d ca 7d fb 3c
       -0.0714153 0.050056063 0.08486758 0.03069963
000160 ba 71 fc 3b 31 6f f7 3b bd c9 29 bc 5a b3 a0 bd
       0.007703987 0.007551097 -0.01036304 -0.078467086
000170 89 4e d6 bd c0 35 28 3d 42 14 57 ba 79 4a d2 bd
       -0.10464198 0.041066885 -0.0008204618 -0.10268111
000180 66 2e 01 3e 1e b9 10 3c 5d 16 c5 3d 5f 2d 0c bb
       0.12615356 0.008833198 0.09623406 -0.0021389348
000190 bf 9f 1e 3d ee ef 00 3d 5e b5 f3 bd 8c 6a de 3d
       0.038726564 0.031478815 -0.118998274 0.10860166
0001a0 3a fd e3 3d 36 35 45 bd 1c b8 34 3d 4f 02 00 ba
       0.111322835 -0.04814645 0.044120893 -0.00048831565
0001b0 c3 e3 e9 bc 16 38 3c bd 89 e4 0e bd a8 d4 38 3d
       -0.028550988 -0.045951925 -0.034885917 0.04512468
0001c0 11 b5 a0 be d3 48 a4 3d b7 9e 7c bd c1 cf 87 bd
       -0.31388143 0.080217026 -0.0616748 -0.06631423
0001d0 cd d8 25 bd 74 e5 9b bd a7 13 fb bc 80 28 b4 bc
       -0.04048996 -0.07612124 -0.03064902 -0.021991968
0001e0 71 05 78 3c 32 31 d5 bd dc b0 51 bd 6b 7f ed 3d
       0.015138016 -0.10409774 -0.051194057 0.11596569
0001f0 f2 14 16 3e 60 bc 31 bd 5b 75 a6 3c c2 a1 9b bc
       0.14656428 -0.04339254 0.020319631 -0.01899803
000200 f8 68 bc bd 29 d7 78 bd 21 ff 02 3d e7 aa 05 3e
       -0.09199709 -0.060752068 0.03198159 0.13053475
000210 c7 e5 80 bd 41 8f 14 be 36 6f 1b bd 3a 0e 18 bd
       -0.062938266 -0.14507772 -0.037947856 -0.037122943
000220 0e 23 80 bd 77 a0 58 3d 45 e3 aa 3d cc e8 db 3d
       -0.06256686 0.052887406 0.083441295 0.10737762
000230 56 71 52 3d c9 6e ec bd da 20 7d 3c 14 8c db 3d
       0.051377617 -0.11544568 0.015449727 0.10720077
000240 7e ea 17 be 93 2b f4 3c df 4a 98 bd ff aa 48 bc
       -0.14835545 0.029805934 -0.074361555 -0.0122478
000250 85 20 24 3d 50 db c2 3d 13 61 90 bd 7a ca 34 bd
       0.040070076 0.09514487 -0.070497654 -0.04413841
000260 7f a3 fc bc 28 31 b6 bd 3f da aa bc 62 82 d3 bd
       -0.03083968 -0.088960946 -0.020856021 -0.10327603
000270 b7 28 c1 3d d4 15 c2 3d 0e ed c6 bd 1f 2e 04 3d
       0.09431594 0.0947682 -0.09713183 0.032270547
000280 d1 a7 30 bd e2 d0 63 bc 7b 0a 7d 3d ba 00 87 bd
       -0.043128792 -0.013904782 0.061777573 -0.065919355
000290 31 f9 08 be 79 ba 7f bd b2 41 eb 3c 41 50 ab 3d
       -0.13376309 -0.062433694 0.02871785 0.083649166
0002a0 bb 04 0b be d2 63 a5 3d 5e 7a 8a b9 6e 5a 3d bd
       -0.13576023 0.0807568 -0.00026412582 -0.04622882
0002b0 21 2d b0 bd d7 9a 6d bd 1f 30 1a 3d 10 7d 98 bd
       -0.08602358 -0.058008995 0.037643548 -0.07445729
0002c0 cf e1 d6 bd e5 d4 e1 3b ec 99 c9 3d 35 13 31 3e
       -0.10492288 0.006891834 0.098438114 0.17292483
0002d0 f1 57 75 bb 09 42 84 bd 77 c4 ed bb 28 a1 cc 3d
       -0.003743645 -0.06457908 -0.0072560865 0.099916756
0002e0 a0 58 e0 3c 65 34 22 3e 6a e3 c2 3d c6 61 92 3c
       0.02738601 0.158403 0.09516032 0.017868888
0002f0 bb e8 f8 bc 3e 47 84 3d 33 a6 8f bd 2a d9 cd bc
       -0.030384412 0.06458901 -0.07014122 -0.025127966
000300 f0 94 89 bd 6d 78 e2 bc 2c b9 09 bd e1 57 7f bd
       -0.06717861 -0.027645314 -0.03362386 -0.062339667
000310 31 46 aa bc 8a ee 32 bd f6 41 1e 3d 9d d3 1b be
       -0.020785423 -0.04368452 0.038637124 -0.15217443
