model/results/skew-skew/var-e10000/200-200-SGD-relu-0.001-50-e10000-var.pt (torch, 168895 bytes, 5 tensors)

layers.0.weight f4 [200, 5]
0	0xbe29f05f	-0.165956
1	0x3d6fc08c	0.058533236
2	0x3ed0dd83	0.40794
3	0x3eb2ec22	0.3494578
4	0x3eafda1d	0.34346095
5	0xbe31af68	-0.17352068
6	0x3da3622f	0.079777114
7	0xbe918f1d	-0.284295
8	0xbe4b7cb6	-0.19871792
9	0x3e55411c	0.20825619
10	0xbea80264	-0.32814324
11	0x3c3e3410	0.011609092
12	0x3dad3e06	0.08459096
13	0x3e237354	0.15961963
14	0xbedc9d46	-0.4308874
15	0xbee1f9d8	-0.44135928
16	0xbe70546b	-0.23469703
17	0xbdf92cb3	-0.12166729
18	0xbd74c7c8	-0.05976084
19	0xbe85b5f5	-0.26115385
20	0x3ec0d9b0	0.37666082
21	0x3e9152d6	0.2838351
22	0xbccb5745	-0.024821887
23	0xbed71815	-0.4201056
24	0xbeb983e6	-0.36233443
25	0x3e7a11be	0.2442083
26	0x3e22075e	0.15823123
27	0x3d23a2f0	0.03995031
28	0xbeb11a49	-0.34590366
29	0xbed0b555	-0.40763345
30	0x3e20c0e1	0.15698577
31	0xbb7a05e0	-0.0038150474
32	0x3e4259ee	0.18979618
33	0x3e7251dc	0.2366404
34	0xbd093b49	-0.033503804
35	0xbe6a214f	-0.22864269
36	0xbd64a98c	-0.055825755
37	0xbdef49bd	-0.11683986
38	0x3eb1c013	0.34716853
39	0xbca036fd	-0.01955747
40	0xbcbb6d50	-0.022879273
41	0xbccd5762	-0.025066081
42	0xbeccc0a1	-0.39990714
43	0xbde0ea94	-0.10982242
44	0x3e6fcb64	0.23417431
45	0xbea79e0a	-0.32737762
46	0x3ea0e3e5	0.3142387
47	0x3ebd4a4e	0.36970752
48	0xbe71887b	-0.2358722
49	0x3d5bbba0	0.05364573
50	0x3dc33f84	0.09533599
51	0xbd521045	-0.051285047
52	0xbed1f7b1	-0.41009286
53	0x3dec422e	0.1153606
54	0xbe357d66	-0.17723617
55	0xbd828d0e	-0.0637456
56	0xbe6d7834	-0.23190385
57	0xbe5dbe09	-0.21654524
58	0xbeaaf50b	-0.33390078
59	0x3b890db2	0.004182541
60	0xbe4521a5	-0.19251116
61	0xbd4ab78e	-0.049491458
62	0x3b88a29b	0.0041697747
63	0xbd8b5d28	-0.068048775
64	0xbe2dd610	-0.1697619
65	0xbd7a0865	-0.061043162
66	0xbd0b8acf	-0.034067925
67	0xbed3b4ed	-0.41348973
68	0x3e60b1f1	0.2194288
69	0xbd55bb3e	-0.05218052
70	0x3ec6c4c4	0.38821995
71	0xbede2d34	-0.43393862
72	0x3dfe8028	0.124267876
73	0x3db69ccc	0.089166254
74	0xbe49a9b6	-0.19693646
75	0xbd86d172	-0.06582917
76	0x3ed412b1	0.4142051
77	0xbded6d9f	-0.11593174
78	0x3ea7a4d2	0.32742935
79	0xbedeeae9	-0.43538597
80	0x3e35931a	0.17731896
81	0x3e3241a0	0.17407846
82	0xbec61d54	-0.3869425
83	0xbdc4030a	-0.09570892
84	0xbda31c69	-0.07964403
85	0xbe995e59	-0.29954794
86	0x3e5e7393	0.21723776
87	0xbe8a187e	-0.2697181
88	0x3affa1f7	0.0019503225
89	0xbebcd951	-0.3688455
90	0x3e430a37	0.19046865
91	0xbe362c95	-0.17790444
92	0x3ee43297	0.44569847
93	0x3e82a664	0.2551757
94	0xbe45ec83	-0.19328503
95	0xbe6c75c7	-0.23091803
96	0x3ddcd738	0.10783237
97	0x3ec797ca	0.38982993
98	0x3e735e6e	0.23766491
99	0x3e84da30	0.25947714
100	0x3ecd91ca	0.4015029
101	0x3e8e312b	0.27771887
102	0xbe96eab5	-0.29475942
103	0xbddaf459	-0.10691137
104	0xbe80ba05	-0.25141922
105	0x3bab9afc	0.0052369814
106	0x3e9efb6b	0.31051192
107	0x3ec0dc64	0.37668145
108	0xbe7c7b45	-0.24656399
109	0x3eb43a01	0.35200503
110	0xbddc5225	-0.10757855
111	0x3e864c75	0.26230207
112	0xbe2f8fa5	-0.1714464
113	0x3dd88e18	0.10573977
114	0xbda327d9	-0.07966585
115	0x3e41edea	0.18938413
116	0xbebb2979	-0.3655508
117	0x3e5aa737	0.2135285
118	0x3d873809	0.06602485
119	0xbec87f67	-0.391597
120	0x3e668dda	0.2251505
121	0x3ed57be4	0.41696084
122	0x3e797246	0.24359998
123	0xbe589284	-0.21149641
124	0x3ee0067d	0.4375495
125	0xbe936472	-0.2878757
126	0x3eb267c4	0.34844792
127	0x3e9b2b73	0.30306587
128	0xbe97e5d1	-0.29667524
129	0xbe0d0697	-0.13772045
130	0x3e7d64ec	0.2474553
131	0xbe70a7b9	-0.23501481
132	0x3dbbe660	0.091748
133	0x3dc92c63	0.09822919
134	0xbd3644d8	-0.04449925
135	0x3ea6f44e	0.32608265
136	0x3ea64ea1	0.32481864
137	0x3ed33c11	0.41256765
138	0x3e49e9a8	0.19718039
139	0x3e484db6	0.19560894
140	0xbe8c6c76	-0.274265
141	0xbddf9e87	-0.109189086
142	0x3ec373e0	0.38174343
143	0xbd6aa274	-0.057283834
144	0x3dcb56e1	0.0992868
145	0x3ec2d275	0.3805119
146	0xbe6b004b	-0.2294933
147	0xbedae23b	-0.42750725
148	0xbdee3fb3	-0.116332434
149	0xbee0d25e	-0.43910497
150	0x3e3f8403	0.18702702
151	0xbea017d0	-0.31268167
152	0x3e2abcde	0.1667361
153	0xbdade76f	-0.08491408
154	0xbec3c750	-0.38238
155	0xbe7014ca	-0.2344543
156	0xbe252c3c	-0.16130155
157	0x3ba06020	0.0048942715
158	0x3e783549	0.24239077
159	0x3ed3076e	0.41216606
160	0x3eb4ceec	0.3531412
161	0x3e5190c9	0.20465387
162	0xbd4f6f82	-0.05064345
163	0x3ec21664	0.37907708
164	0xbe79e9c8	-0.24405587
165	0x3e215d14	0.15758163
166	0x3eba41a3	0.36378202
167	0xbe858934	-0.2608124
168	0x3eb92bd5	0.36166254
169	0x3e276b50	0.1634953
170	0x3ebe0bf9	0.3711851
171	0xbebb8c15	-0.36630312
172	0xbec14fde	-0.37756246
173	0xbdbd9cb2	-0.09258403
174	0x3e3be353	0.18348436
175	0x3dffa585	0.12482742
176	0x3e958b06	0.2920763
177	0xbe9170d3	-0.2840639
178	0xbeaa8d5f	-0.33310983
179	0xbe3a3a41	-0.18186285
180	0xbec77f7a	-0.38964444
181	0xbe1b2d6b	-0.15154044
182	0xbc398035	-0.011322071
183	0x3e703aa1	0.23459865
184	0xbed856ce	-0.42253727
185	0x3eb38df3	0.35069236
186	0xbde1b336	-0.1102051
187	0x3ecd0539	0.40043047
188	0xbeda00b9	-0.42578676
189	0xbd6adc35	-0.057338912
190	0x3e8c22a0	0.27370167
191	0x3e159df2	0.14611033
192	0x3d32a200	0.043611526
193	0xbe61f486	-0.22065935
194	0xbe21517d	-0.15753742
195	0x3c8a4fe6	0.016883802
196	0x3e54362a	0.20723787
197	0x3e60c5c6	0.21950445
198	0xbdbf08cf	-0.09327852
199	0x3d031a88	0.032007724
200	0xbe376d3c	-0.17912763
201	0x3d7d18a5	0.06179108
202	0xbee3393e	-0.4437961
203	0x3ee1355f	0.4398603
204	0xbddde5e6	-0.10834865
205	0x3e3685d2	0.17824486
206	0xbe4cd723	-0.20003943
207	0xbea646cc	-0.3247589
208	0x3ee32a05	0.44367996
209	0xbe9f8f2a	-0.31163913
210	0x3dea2217	0.11432283
211	0x3dd7b422	0.105324045
212	0xbe5b3f02	-0.21410754
213	0x3ed3b00a	0.41345245
214	0x3e6b09bc	0.22952932
215	0x3ea5a571	0.32352784
216	0x3e4581ab	0.19287746
217	0xbdac4579	-0.08411688
218	0x3e0498d0	0.12948918
219	0x3dfc1ea3	0.12310531
220	0x3e4464c8	0.1917907
221	0xbdbb928e	-0.091588125
222	0xbee24219	-0.44191054
223	0xbdfb12a8	-0.12259418
224	0xbec532ed	-0.38515416
225	0xbd191c15	-0.037380297
226	0xbe144af0	-0.14481711
227	0xbdd0b99f	-0.101916544
228	0x3e9fb030	0.31189108
229	0x3e97120f	0.29505965
230	0x3e61e6ff	0.22060774
231	0x3baa7ced	0.0052028806
232	0xbecd57e2	-0.40106112
233	0xbdc52edc	-0.09628078
234	0xbebf1656	-0.37321728
235	0x3e7a65c6	0.24452886
236	0x3ed6c808	0.41949487
237	0xbdc7e8ac	-0.097611755
238	0x3e3ef426	0.18647823
239	0x3e83da41	0.25752452
240	0xbe2a8573	-0.1665247
241	0xbe39a5de	-0.1812968
242	0xbec3f871	-0.38275483
243	0xbe653781	-0.22384454
244	0x3e7c947a	0.24666014
245	0xbec5008b	-0.38476977
246	0xbed63006	-0.41833514
247	0xbeb4b9f1	-0.35298112
248	0x3cb635b9	0.022242414
249	0x3e400570	0.18752074
250	0x3ededdd7	0.43528625
251	0xbeb7c148	-0.3588965
252	0x3ee0dcac	0.4391836
253	0xbedea2d5	-0.43483606
254	0x3da67be1	0.08129097
255	0x3ed97c5b	0.42477688

layers.0.bias f4 [200]
0	0x3e8bdc49	0.27316502
1	0xbec74370	-0.38918638
2	0xbed8617b	-0.42261872
3	0xbe3efd46	-0.18651304
4	0x3eacd6cd	0.3375763
5	0xbec4ed64	-0.38462365
6	0xbdf7e0be	-0.12103413
7	0xbe5538b9	-0.20822419
8	0xbd991ef9	-0.07476611
9	0xbe9bb75b	-0.30413327
10	0xbe6142f3	-0.21998195
11	0xbee05f28	-0.43822598
12	0x3e07d475	0.1326464
13	0xbec37123	-0.38172254
14	0x3d9f19d8	0.07768601
15	0xbeb583ec	-0.3545221
16	0x3ded51a9	0.11587841
17	0xbe6e670c	-0.23281497
18	0xbe052ba2	-0.13004926
19	0xbe7b3614	-0.24532348
20	0xbebf36fb	-0.37346634
21	0xbecc4352	-0.3989511
22	0x3ebfd8b1	0.3747001
23	0xbc1238ba	-0.0089246575
24	0xbb43f068	-0.0029897932
25	0xbe0a1a3f	-0.13486575
26	0x3ebe5b36	0.37178963
27	0x3dd07f78	0.10180563
28	0xbe98d488	-0.29849648
29	0x3e1a29ca	0.15055004
30	0x3dc614b1	0.09671915
31	0xbe2275cc	-0.15865248
32	0x3df3f4e0	0.119119406
33	0x3bbff8a6	0.0058584986
34	0xbe4bdbb7	-0.19908033
35	0x3e8437a3	0.25823697
36	0xbeae452e	-0.34037155
37	0x3edbb41f	0.4291086
38	0x3e52b832	0.20578077
39	0x3b316583	0.0027068562
40	0x3e9e2e1d	0.30894557
41	0x3ea77e61	0.32713607
42	0x3ed22f11	0.41051534
43	0xbe7f46e3	-0.24929385
44	0x3e90cfc6	0.2828352
45	0x3dbe1e28	0.092830956
46	0xbe0fbf53	-0.14037828
47	0xbc8b5489	-0.017008083
48	0x3eb81f06	0.3596117
49	0xbe18caef	-0.14921163
50	0x3e5f9cd0	0.21837163
51	0x3e1c6092	0.15271214
52	0xbe86daa8	-0.26338696
53	0x3e8d04e7	0.27542803
54	0x3d25eb5a	0.040507652
55	0x3de05a2a	0.109546974
56	0x3db29ca7	0.08721285
57	0xbe21a1ba	-0.1578435
58	0xbec37b2c	-0.3817991
59	0xbe8c0a70	-0.27351713
60	0x3dca9926	0.09892492
61	0xbeae3924	-0.3402797
62	0xbeb97462	-0.36221606
63	0x3d126bf3	0.03574748
64	0xbecf5d7b	-0.40501007
65	0xbd33a29c	-0.04385625
66	0x3e3e3ec3	0.18578629
67	0xbdb084a0	-0.08619046
68	0xbd8de778	-0.06928915
69	0xbe81c303	-0.25344095
70	0xbd3a2308	-0.045443565
71	0x3d2c1394	0.04201086
72	0x3ee19888	0.44061685
73	0xbe483c91	-0.19554354
74	0xbe07533d	-0.13215347
75	0x3e25645f	0.1615157
76	0xbe39529e	-0.18097922
77	0xbd20a95f	-0.039224025
78	0xbe65b94e	-0.2243397
79	0xbe81d0b8	-0.25354552
80	0xbed11a7d	-0.4084052
81	0xbed66d87	-0.41880438
82	0x3ecc341f	0.39883515
83	0xbdc34c96	-0.09536092
84	0xbe626523	-0.22108893
85	0x3e8384d5	0.2568728
86	0x3dcdc490	0.10047257
87	0xbe84c1e9	-0.25929192
88	0x3ea19a71	0.31563142
89	0xbd6e4a7a	-0.058176495
90	0xbe8c3c5a	-0.27389795
91	0xbe6b9079	-0.2300433
92	0xbe830628	-0.25590634
93	0x3ccf74ec	0.025324307
94	0xbeca0427	-0.39456293
95	0xbdf88828	-0.12135345
96	0xbdd15f12	-0.10223211
97	0xbe6ab6c6	-0.22921285
98	0xbe1935c5	-0.14961918
99	0xbd81a89c	-0.06330988
100	0xbdb7c84e	-0.08973752
101	0x3e84e94f	0.2595925
102	0xbe69cffd	-0.22833247
103	0xbecf5f89	-0.40502575
104	0xbea84fc6	-0.32873362
105	0x3eab9017	0.3350837
106	0x3e17b4a6	0.14815006
107	0x3e886cf3	0.26645622
108	0x3e0fa7cc	0.14028853
109	0xbebff394	-0.37490523
110	0x3e17a7dd	0.14810129
111	0x3edf8a83	0.43660364
112	0x3eaa5474	0.33267558
113	0x3cfa9fd8	0.030593798
114	0x3e8d06ed	0.27544346
115	0x3ec70a5a	0.38875085
116	0xbe3d1aa4	-0.18467194
117	0xbe2d34e2	-0.16914704
118	0x3dd0a65f	0.10187983
119	0xbe39c8e8	-0.18143046
120	0x3ed61f86	0.41820925
121	0x3ee71c1a	0.45138627
122	0xbeb1be98	-0.34715724
123	0x3e773acf	0.24143527
124	0xbd914c80	-0.07094669
125	0xbd8a1987	-0.0674315
126	0xbed4ef24	-0.415887
127	0xbe4dd449	-0.20100512
128	0xbed79bbb	-0.42111
129	0x3ee03a6d	0.43794575
130	0xbe49458e	-0.1965544
131	0xbe4b4a8c	-0.19852656
132	0x3daa5963	0.083178304
133	0xbe5d0ec4	-0.21587664
134	0x3e495cf2	0.19664362
135	0xbd808f49	-0.062773295
136	0xbe6b59d7	-0.2298349
137	0x3eb808c1	0.3594418
138	0x3ee60704	0.44927227
139	0x3e4bdb52	0.19907883
140	0x3e7bcb86	0.24589357
141	0x3e6bb5f2	0.23018625
142	0x3eb2551c	0.34830558
143	0x3ec126d9	0.3772495
144	0x3e39ec93	0.18156652
145	0x3d8acc0e	0.067772016
146	0xbe1e01cc	-0.15430373
147	0xbec704eb	-0.3887094
148	0x3e8e797f	0.2782707
149	0x3ea24ab8	0.3169763
150	0x3ee9c97b	0.4566153
151	0xbc417ecf	-0.011810019
152	0x3e6eb188	0.2330991
153	0x3e07ab1e	0.1324887
154	0xbecf5748	-0.40496278
155	0xbe8b6362	-0.2722426
156	0xbeabfa01	-0.33589175
157	0x3d9397c8	0.07206684
158	0x3c64b0e9	0.013958194
159	0xbeeea308	-0.46608758
160	0xbec1d85e	-0.37860388
161	0xbe36a59e	-0.17836615
162	0xbe6e51c8	-0.23273385
163	0x3ee56c31	0.44809106
164	0x3e162dcc	0.14665908
165	0xbeb3c1de	-0.35108846
166	0x3ecb9a68	0.3976624
167	0x3e46f479	0.19429196
168	0xbe9abc27	-0.30221674
169	0x3ee03b1d	0.437951
170	0xbe42d9f7	-0.1902846
171	0xbcf051a5	-0.029335806
172	0x3de3abd1	0.11116756
173	0xbeb63f9d	-0.35595408
174	0xbeae2273	-0.34010658
175	0xbda65809	-0.0812226
176	0xbdf99183	-0.12185957
177	0x3d845843	0.06462147
178	0x3de53bc4	0.1119304
179	0xbea5df76	-0.3239705
180	0xbec184d5	-0.37796655
181	0x3ae10ef9	0.00171706
182	0xbe25e0b7	-0.16199003
183	0x3cacfcc4	0.021116622
184	0x3e50574c	0.20345801
185	0xbe2e0035	-0.16992266
186	0xbebb41ad	-0.36573544
187	0xbec8ca8e	-0.39217037
188	0xbe6c298c	-0.23062724
189	0xbccad431	-0.024759384
190	0xbed8475c	-0.42241943
191	0xbd8a1787	-0.06742769
192	0xbd2e6a28	-0.042581707
193	0xbd2d0d4c	-0.04224901
194	0x3da9ca3a	0.08290525
195	0xbc06368f	-0.008191719
196	0xbdb3bb5d	-0.08775971
197	0xbe94a8a7	-0.29034922
198	0xbca772ea	-0.020440537
199	0xbeb76d1f	-0.3582544

layers.2.weight f4 [200, 200]
0	0xbd698ef9	-0.057021115
1	0xbbb51275	-0.005525882
2	0x3d405e87	0.04696515
3	0xbc0404fd	-0.00805783
4	0x3b76bfdb	0.0037650976
5	0xbd878bdc	-0.06618473
6	0x3ccfcc40	0.025365949
7	0x3d81941a	0.06327076
8	0xbd86cd6a	-0.065821484
9	0x3d7a5458	0.061115593
10	0xbd3d0647	-0.046148565
11	0xbc0aa62e	-0.008462472
12	0x3d49233e	0.049105875
13	0x3d7c9d5f	0.06167352
14	0xbbec6531	-0.0072142114
15	0x3c38a0cd	0.011268807
16	0xbd84558a	-0.06461628
17	0xbd33703c	-0.043808207
18	0x3ce8b61c	0.028407149
19	0xbcaf5283	-0.02140165
20	0xbceb8004	-0.028747566
21	0x3c96455c	0.01834362
22	0x3c7db81d	0.015485791
23	0x3d503f31	0.050841514
24	0xbd5a9e2c	-0.0533735
25	0x3cb74dcb	0.022375962
26	0xbd74355c	-0.0596212
27	0x3ccbd857	0.024883432
28	0x3d823eca	0.06359632
29	0xbd2d5327	-0.04231563
30	0xbcddf88d	-0.027096057
31	0x3b83b69d	0.004019572
32	0xbcd34eca	-0.025794405
33	0x3d3ceb41	0.046122793
34	0x3d27c126	0.040955685
35	0xbd5543b7	-0.05206653
36	0x3b039440	0.0020077378
37	0xbbc06cdf	-0.0058723534
38	0xbd010486	-0.031498455
39	0x3d3f190d	0.04665475
40	0x3b9fe9fe	0.004880189
41	0xbb8624d5	-0.004093746
42	0xbd2a3322	-0.04155267
43	0xbc3ec905	-0.0116446065
44	0x3cdbbeac	0.026824318
45	0xbc122fc7	-0.008922524
46	0x3d7b2fef	0.06132501
47	0xbd0df7b8	-0.03466007
48	0xbd498cbb	-0.049206477
49	0xbd517f32	-0.051146694
50	0xbcfc827e	-0.030823942
51	0xbca301f5	-0.019898394
52	0xbcf08f86	-0.029365312
53	0xbcc5dd31	-0.024153324
54	0x3d175809	0.03694919
55	0x3d4a27f5	0.049354512
56	0xbd2e1c5c	-0.042507514
57	0xbc872ac0	-0.016499877
58	0x3d53b51f	0.051686402
59	0xbd2df3db	-0.042468887
60	0x3d0cb98f	0.03435665
61	0x3d1ea58b	0.038732093
62	0xbc92b55c	-0.017908745
63	0xbd0372c6	-0.03209188
64	0xbc73dcfe	-0.014884232
65	0x3c4048a0	0.011736065
66	0xbcd2caa8	-0.0257314
67	0x3d43b580	0.047780514
68	0xbd8062d7	-0.06268852
69	0x3d04c762	0.03241671
70	0x3c36e0f8	0.011162035
71	0xbd7d08a7	-0.06177583
72	0x3d54896d	0.051888872
73	0xbd07fcd6	-0.033200108
74	0xbd49c43e	-0.049259417
75	0xbd93a520	-0.072092295
76	0x3d1b5548	0.037923127
77	0x3d8b0942	0.06788875
78	0xbd8481c4	-0.06470063
79	0x3d76054c	0.060063645
80	0x3d8a3994	0.067492634
81	0xbc5d7dfa	-0.013518805
82	0x3d04d222	0.03242696
83	0xbd023d93	-0.031797003
84	0xbb71c781	-0.0036892595
85	0x3d3ccb26	0.046092175
86	0x3ce2aa40	0.027669072
87	0xbbe02426	-0.0068402467
88	0xbd04875c	-0.03235565
89	0xbd42b05d	-0.047531474
90	0x3d7203b8	0.059085578
91	0xbd76addf	-0.06022441
92	0x3c2ba21d	0.010475663
93	0x3d683fb0	0.056701362
94	0xbd17bfc0	-0.0370481
95	0xbd8c8f36	-0.06863253
96	0xbb8ab2b5	-0.0042327293
97	0x3ccc317d	0.024925942
98	0x3cef7ed2	0.029235277
99	0xbd2a75f2	-0.041616388
100	0x3d8c4c93	0.06850543
101	0x3d8d119e	0.06888126
102	0x3cd859e1	0.026410045
103	0xbce0f07c	-0.027458422
104	0xbd44b323	-0.0480224
105	0x3d587d34	0.052853778
106	0x3d7b0c32	0.061290927
107	0xbcde3af6	-0.027127724
108	0xbd4cd251	-0.05000526
109	0xbd8f2f10	-0.06991398
110	0xbca0c29a	-0.019624043
111	0xbcf5b0e7	-0.02999158
112	0xbcdbeaba	-0.026845325
113	0xbd848879	-0.064713426
114	0xbbd2020c	-0.0064089354
115	0xbc724c27	-0.014788664
116	0x3d21bca9	0.03948656
117	0x3c05024e	0.008118225
118	0xbd17bc23	-0.037044656
119	0xbd3e797f	-0.046502586
120	0xbb0650f1	-0.0020495022
121	0xbcd5fbc8	-0.026121035
122	0x3d23e7bd	0.040015925
123	0x3cc016e0	0.023448408
124	0xbd51828c	-0.05114989
125	0x3c1db5af	0.009625836
126	0xbd3daee4	-0.046309367
127	0xbd6ce801	-0.057838444
128	0x3d905c7a	0.070488885
129	0xbabcfc21	-0.0014418402
130	0xbd308f81	-0.043105606
131	0x3cd1516d	0.025551522
132	0xbc1d4d92	-0.009601014
133	0x3d07223a	0.032991625
134	0xbd8d3573	-0.0689496
135	0x3cb69a14	0.022290267
136	0x3c8f6bd5	0.017507473
137	0x3d4119fc	0.04714392
138	0x3d32ea01	0.043680195
139	0xbd2e934d	-0.042620946
140	0xbd7fcfac	-0.06245391
141	0xbd4c71d4	-0.049913242
142	0xbad3ee29	-0.0016169
143	0x3ca15de5	0.019698093
144	0x3cac231f	0.02101284
145	0x3cc58532	0.024111364
146	0xbd22ea34	-0.039774135
147	0x3cb83f20	0.022491038
148	0x3c9c5775	0.019084672
149	0x3c973a0d	0.018460298
150	0x3ce70a32	0.028203104
151	0xbd00b8ea	-0.031426348
152	0xbd780eb5	-0.0605609
153	0xbd73c47a	-0.059513547
154	0xbd751f0a	-0.059844054
155	0xbcc197b4	-0.023631908
156	0xbc229ba9	-0.009924808
157	0x3cdcd74b	0.026958128
158	0x3cca1116	0.02466635
159	0x3d50d58f	0.050984915
160	0x3d759a7f	0.059961792
161	0xbc0ba54a	-0.008523295
162	0x3d2f7d65	0.042844195
163	0x3d4940aa	0.049133934
164	0x3d0473b3	0.032336902
165	0xbd814f7d	-0.06313989
166	0x3cc74b7a	0.024327982
167	0x3c82b819	0.015956925
168	0x3d16f393	0.036853384
169	0x3d67033b	0.056399565
170	0xbd4979b0	-0.049188316
171	0xbd6ff16d	-0.05857985
172	0x3cdddff1	0.027084323
173	0xbd8e9e55	-0.06963793
174	0x3d6a4331	0.057192985
175	0xbd817937	-0.06321948
176	0x3d2f04a8	0.04272905
177	0x3b0e5a70	0.0021721385
178	0x3d3a82cb	0.04553489
179	0x3d56834e	0.052371316
180	0x3d33d446	0.04390361
181	0xbca333dd	-0.019922191
182	0x3c8a1b5a	0.016858745
183	0x3d6e6ed9	0.05821118
184	0xbbef2086	-0.0072975783
185	0xbce8a416	-0.028398555
186	0xbc8fff17	-0.017577691
187	0xbc7204bc	-0.014771637
188	0xbc3892db	-0.011265482
189	0x3cfadb89	0.03062226
190	0xbd6133ee	-0.054981165
191	0xbd833541	-0.06406642
192	0x3c1db560	0.009625763
193	0xbd8aa080	-0.06768894
194	0x3d131a18	0.035913557
195	0x3d6cf40d	0.057849932
196	0xbbbeff57	-0.0058287787
197	0xbd71ca24	-0.059030667
198	0xbc12c28b	-0.0089575155
199	0xbd8e9c8e	-0.06963454
200	0x3d1332aa	0.03593699
201	0xb9af41a5	-0.0003342751
202	0xba950226	-0.0011368438
203	0x3d3685a3	0.04456104
204	0xbd83608f	-0.064149015
205	0x3d8656e6	0.06559543
206	0x3d36215b	0.044465404
207	0x3cd72933	0.026264763
208	0xbd4e41b7	-0.05035564
209	0xbd3f76a3	-0.046744
210	0xbd4c3a98	-0.049860567
211	0xbd89b88e	-0.06724654
212	0xbd81d8cc	-0.06340179
213	0xbd168e73	-0.036756944
214	0x3c833185	0.016014824
215	0xbd7e69d5	-0.062112648
216	0x3ca05f8f	0.019576816
217	0x3d90bac0	0.0706687
218	0x3d4ccd2e	0.050000362
219	0x3c0e7340	0.00869447
220	0xbc9f3f57	-0.019439382
221	0x3d546420	0.0518533
222	0xbd06c980	-0.03290701
223	0xbd0023b7	-0.03128406
224	0xbd0f77a9	-0.035026226
225	0xbb4bd7eb	-0.003110404
226	0xbadafb52	-0.0016706979
227	0xbd602f61	-0.054732684
228	0xbd4f977a	-0.05068157
229	0x3cc32d51	0.02382532
230	0xbd852524	-0.06501225
231	0xbc60047c	-0.013672944
232	0x391fd147	0.00015241384
233	0xbd12c792	-0.035834856
234	0xbd74fef8	-0.05981347
235	0x3d425b79	0.047450516
236	0xbc871956	-0.016491573
237	0xbc2d3cd2	-0.010573583
238	0x3bb6aa79	0.005574521
239	0x3cf4f4e1	0.029901924
240	0xbc1d84a9	-0.009614148
241	0xbd481f59	-0.04885802
242	0xbd7aedd5	-0.06126197
243	0x3c83c16b	0.01608344
244	0x3d274f4a	0.0408471
245	0x3b4d98b2	0.003137153
246	0x3d2d024f	0.04223853
247	0x3ceafdf8	0.028685555
248	0x3cdb4b86	0.02676941
249	0x3c92d879	0.017925488
250	0xbc88246a	-0.016618926
251	0xbd26d5f0	-0.04073137
252	0xbd612e83	-0.054975998
253	0x3d13fd96	0.03613051
254	0xbbc4633a	-0.005993274
255	0xbc863370	-0.01638195

layers.2.bias f4 [200]
0	0x3d1e29fd	0.038614262
1	0x3c730d9f	0.0148347905
2	0x3d37c84c	0.044868752
3	0xbd38f381	-0.0451541
4	0xbd672071	-0.056427423
5	0x3d803b02	0.06261255
6	0x39b564e4	0.0003459818
7	0xbd7db989	-0.06194452
8	0x3ab1be35	0.0013560714
9	0x3d3cea08	0.046121627
10	0x3cbb67e8	0.022876695
11	0x3c4db94e	0.012556387
12	0x3cbb1fb7	0.022842271
13	0x3d8f4caa	0.069970444
14	0xbb2bf7b2	-0.0026240167
15	0x3c728b5a	0.014803732
16	0xbd7a5177	-0.061112847
17	0xbc28eef0	-0.010310873
18	0xbc703e04	-0.014663223
19	0xbc9707bb	-0.018436303
20	0xbcf8dbe8	-0.030378297
21	0x3d318661	0.043341044
22	0xbc17ec97	-0.009272716
23	0x3d00c9cb	0.031442445
24	0xbb8d5044	-0.004312547
25	0xbd0ed59e	-0.03487169
26	0x3c0e0682	0.008668544
27	0x3d6822b7	0.05667373
28	0xbd5bda24	-0.053674832
29	0x3d2d7bce	0.042354397
30	0xbc559bfe	-0.01303768
31	0xbd87c1c1	-0.066287525
32	0xba6fc8be	-0.00091470394
33	0x3d4cc3d7	0.049991455
34	0xbcfa0050	-0.030517727
35	0xbd895fe1	-0.067077406
36	0xbbe552bb	-0.0069983876
37	0xbd5a0813	-0.053230356
38	0xbc85f95d	-0.016354257
39	0x3cfba2f4	0.03071735
40	0x3c01064e	0.007875038
41	0xbd72e18e	-0.059297137
42	0x3cf2a249	0.0296184
43	0x3d3c1ff9	0.04592893
44	0xbd49cc1a	-0.049266912
45	0x3d5beae6	0.053690813
46	0x3d8557a5	0.065108575
47	0xbc99ddd6	-0.018782537
48	0x3cb39341	0.021920802
49	0xbca025d1	-0.019549282
50	0xbd90e8a3	-0.07075622
51	0xbd15bb82	-0.036555775
52	0xbccd543f	-0.025064586
53	0x3d104fee	0.035232477
54	0xbd6de05e	-0.0580753
55	0x3cbdc707	0.023166193
56	0xbc4734e0	-0.0121586025
57	0xbd57582a	-0.052574314
58	0x3d221fd2	0.039581127
59	0x3cfc9b3c	0.03083574
60	0xbd7f6b96	-0.06235846
61	0xbd5049d9	-0.050851677
62	0xbd561085	-0.052261848
63	0xbaf52be5	-0.0018705098
64	0xbd4522ef	-0.04812902
65	0x3d073533	0.03300972
66	0x3d2fb2aa	0.042894997
67	0x3d9612e3	0.07327821
68	0x3d90b6cd	0.070661165
69	0x3c93852f	0.018007843
70	0xbd8ce7c5	-0.06880144
71	0xbd0a8660	-0.033819556
72	0xbccc3a19	-0.024930047
73	0x3d6112b3	0.054949474
74	0x3d52c485	0.051456947
75	0xbd891502	-0.0669346
76	0x3d6a6005	0.057220478
77	0xbce3c89c	-0.027805619
78	0x3d237ecb	0.03991584
79	0xbd8c18a7	-0.068406396
80	0x39a5ae29	0.00031601012
81	0x3d5c8493	0.05383737
82	0x3c8566a4	0.016284294
83	0x3bbd9259	0.0057852683
84	0xbd83b73c	-0.064314336
85	0xbd6a33b1	-0.057178203
86	0xbd6deddf	-0.05808818
87	0x3c0ddc05	0.008658414
88	0x3d7608d9	0.06006703
89	0xbcdb38e3	-0.026760524
90	0xbccf6bf3	-0.025320029
91	0x3d8af2f7	0.06784623
92	0x3d007232	0.031358905
93	0xbce22cba	-0.027609218
94	0x3c3874d3	0.011258322
95	0x3d2ce195	0.04220732
96	0xbc24ef9a	-0.010066891
97	0x3cc06889	0.023487346
98	0xbc92891a	-0.01788764
99	0xbc06892f	-0.008211418
100	0xbd1a4d1e	-0.0376712
101	0x3d23244b	0.039829534
102	0x3d4be90c	0.049782798
103	0xbd6baa91	-0.05753571
104	0x3cb03812	0.021511111
105	0xbd796111	-0.060883585
106	0x3bdfa22b	0.006824752
107	0x3d8fb4c2	0.07016899
108	0x3be6459e	0.007027342
109	0x3c863bbb	0.016385904
110	0xbd63d29a	-0.055620767
111	0x3d5155fe	0.0511074
112	0x3c86567a	0.016398657
113	0xbce668a6	-0.028126072
114	0x3d6786bb	0.056524973
115	0xbc2641e2	-0.010147544
116	0x3c445186	0.011982327
117	0xbd3c9fde	-0.0460509
118	0x3d361140	0.044450045
119	0xbd642d28	-0.055707127
120	0xbad57ee9	-0.0016288433
121	0xbcb55797	-0.022136493
122	0xbd5081e8	-0.05090514
123	0x3d5d6e29	0.054060135
124	0x3d527527	0.051381256
125	0xbd7706cc	-0.060309216
126	0x3d3fdd88	0.046842128
127	0xbaf60dac	-0.0018772385
128	0xbcd337b4	-0.025783397
129	0x3ca69be6	0.02033801
130	0x3d171f28	0.036894947
131	0xbb80cf3f	-0.0039309557
132	0xbc9e831a	-0.019349623
133	0xbcc0b8f0	-0.023525685
134	0xbd124e18	-0.035719007
135	0x3d6241b5	0.055238444
136	0xbd64bcc0	-0.05584407
137	0x3d2a9e77	0.04165503
138	0xbcae68b3	-0.021290159
139	0x39da72b0	0.0004166565
140	0xbd5451af	-0.051835712
141	0xbc609a92	-0.013708727
142	0xbc9dc428	-0.019258574
143	0xbc19b48e	-0.0093814265
144	0xbd471347	-0.04860237
145	0xbc848e3b	-0.016181102
146	0x3c067af5	0.008208026
147	0x3b896d5f	0.0041939463
148	0x3d1135e1	0.035451774
149	0x3d8018e5	0.06254748
150	0x3d4ca04e	0.049957566
151	0x3c6fe2d6	0.014641484
152	0xbd8db06b	-0.06918415
153	0x3d28648e	0.04111152
154	0x3da2720d	0.0793191
155	0x3d5206a8	0.05127588
156	0xbb916f3c	-0.004438309
157	0xbd87c57f	-0.06629466
158	0x3d81084c	0.06300411
159	0xbc8bc2f2	-0.01706073
160	0x3c9d1291	0.019173892
161	0xbc52cdf9	-0.0128664905
162	0x3d378db7	0.044812884
163	0x3d788f37	0.060683455
164	0x3d291005	0.041275043
165	0xbd3d7d50	-0.046262085
166	0x3cf39b64	0.029737182
167	0xbbce6bee	-0.0062994873
168	0x3cc84659	0.024447607
169	0xbd85232d	-0.0650085
170	0x397ae80a	0.00023928299
171	0x3d6a258b	0.05716471
172	0x3ce727e4	0.028217264
173	0x3b9c4464	0.004768895
174	0xbd87d208	-0.06631857
175	0x3bea36a1	0.0071476256
176	0x3c339685	0.01096118
177	0xbd64dd15	-0.055874903
178	0xbc64bf06	-0.013961559
179	0x3c7333ad	0.014843863
180	0x3d596218	0.053072065
181	0xbcc64af8	-0.02420567
182	0x3d384555	0.044987995
183	0xbcdacddd	-0.026709491
184	0x3d8b1114	0.06790367
185	0x3ca591cf	0.020211129
186	0x3d454c96	0.04816874
187	0xbd463589	-0.0483909
188	0x3bc8c024	0.0061264206
189	0x3d0b25e4	0.033971682
190	0xbc875131	-0.016518207
191	0xbd20dbac	-0.039271995
192	0x3c8e5265	0.017373273
193	0xbc34a0ab	-0.011024634
194	0x3c15b926	0.009138381
195	0xbb43771b	-0.002982563
196	0xbd681c9c	-0.05666791
197	0x3b97e3f1	0.004635327
198	0xbd7810b4	-0.060562804
199	0x3d80ff86	0.06298737

layers.4.weight f4 [1, 200]
0	0xbd3131f4	-0.04326053
1	0x3d3336cd	0.043753434
2	0x3d98bca7	0.074578576
3	0x3e16a911	0.14712931
4	0xbd689874	-0.056786016
5	0xbd9ad000	-0.07559204
6	0xbc91a181	-0.017777206
7	0xbd3a546d	-0.04549067
8	0x3df3b9b9	0.11900658
9	0x3cbfc374	0.023408629
10	0xbcc824f9	-0.024431692
11	0x3d7bfb6b	0.061519068
12	0x3d81f74c	0.06345996
13	0xbda038e0	-0.07823348
14	0xbca887db	-0.020572593
15	0x3db6ee9c	0.0893223
16	0x3ba42bde	0.005010112
17	0xbd84046e	-0.064461574
18	0xbdb5f094	-0.08883777
19	0xbd330d74	-0.043714
20	0x3dbc72e6	0.09201603
21	0xbd58cf4a	-0.05293206
22	0x3c39b790	0.011335269
23	0xbdad2e41	-0.08456088
24	0x3ddebd54	0.10875955
25	0x3d0fa693	0.035070967
26	0x3d2cf4ca	0.042225637
27	0xbb1d8609	-0.002403619
28	0xbca9a4e4	-0.020708509
29	0x3ca75a3e	0.020428773
30	0xbd934440	-0.07190752
31	0x3daf4837	0.08558696
32	0xbd99e4fa	-0.07514377
33	0x3c38c12b	0.011276524
34	0x3d5a218b	0.053254645
35	0xbcb64346	-0.022248875
36	0x3d52c63f	0.051458593
37	0x3c9560b4	0.018234588
38	0x3c0db4a9	0.00864903
39	0x3d1fa8b8	0.038979262
40	0xbcdfcd10	-0.027319461
41	0x3c68292d	0.014169973
42	0xbda4f155	-0.08053843
43	0x3e07f2c6	0.13276204
44	0x3d79cca5	0.06098618
45	0x3d4626ba	0.048376776
46	0xbd82ddeb	-0.06389984
47	0xbd31cb01	-0.04340649
48	0x3b13be4b	0.0022543843
49	0x3de9f702	0.11424066
50	0xbd267ce9	-0.040646467
51	0xbc886c6d	-0.016653264
52	0xbd223128	-0.03959766
53	0x3d92abf5	0.071617045
54	0x3d81937f	0.06326961
55	0x3d91b02f	0.071136825
56	0x3d07f6c0	0.033194304
57	0xbcbdac16	-0.023153346
58	0xbe028096	-0.12744364
59	0x3d80ab5a	0.06282683
60	0x3d982e2f	0.07430684
61	0x3cbde221	0.023179116
62	0xbce55074	-0.027992465
63	0x3e237f55	0.15966542
64	0xbdaeb5a9	-0.08530743
65	0xbaed5e3d	-0.001810975
66	0x3e133078	0.14373958
67	0xbd0fc4b2	-0.035099693
68	0xbd5f5315	-0.054522593
69	0x3db19865	0.08671645
70	0x3de913f5	0.113807596
71	0xbdddeffe	-0.108367905
72	0x3d9bb569	0.076029606
73	0x3df924d0	0.121652246
74	0x3ce3d5a2	0.027811829
75	0x3d2aa1a5	0.041658062
76	0x3d84d5de	0.064861044
77	0x3db94658	0.0904662
78	0xbd347e5d	-0.044065822
79	0x3c0442dc	0.008072581
80	0x3de2fff6	0.11083977
81	0xbc0353bc	-0.008015569
82	0xbd9075b6	-0.070537016
83	0x3c31aff4	0.010845173
84	0xbd867c62	-0.06566693
85	0x3d830b8f	0.06398689
86	0xbd1c93b0	-0.038226783
87	0x3da440e4	0.080201894
88	0x3cf9d91c	0.030499034
89	0x3d19073a	0.037360407
90	0xbd711bae	-0.058864288
91	0xbc8bf332	-0.017083738
92	0x3c186dd5	0.00930353
93	0xbd2a8753	-0.04163296
94	0xbdd1f3f6	-0.1025161
95	0x3ccaefbd	0.02477252
96	0xbd5f566f	-0.05452579
97	0xbdc68e3e	-0.09695099
98	0xbd4b5164	-0.049638167
99	0x3d95b03f	0.07309007
100	0xbcc7013e	-0.024292585
101	0xbcf4d7b8	-0.029888019
102	0x3d7cdb2d	0.06173246
103	0x3d544a7c	0.051828846
104	0xbc05610b	-0.008140813
105	0xbd6f387e	-0.058403485
106	0xbd17ef64	-0.037093535
107	0xbd6f7d04	-0.058468834
108	0x3d29789d	0.04137479
109	0x3d82da62	0.063893095
110	0xbd35d887	-0.04439595
111	0x3ca81a41	0.020520331
112	0xbd052bed	-0.032512594
113	0xbd2301a0	-0.03979647
114	0x3d38c1ce	0.0451067
115	0xbcbdcedb	-0.023169925
116	0x3dd0fceb	0.1020449
117	0x3c1f38ac	0.0097181015
118	0x3d0b5a4a	0.034021653
119	0xbcd2c6c8	-0.025729552
120	0xbd851674	-0.06498423
121	0xbd86d748	-0.065840304
122	0x3c261701	0.0101373205
123	0xbdbe118d	-0.09280691
124	0xbc9f896d	-0.01947471
125	0xbc77313f	-0.015087425
126	0x3d47eb50	0.048808396
127	0xbd60015a	-0.05468879
128	0x3bf503a9	0.007477243
129	0x3cbdd7f2	0.02317426
130	0xbdbab7b6	-0.09117071
131	0x3de08327	0.10962515
132	0x3d612103	0.054963123
133	0xbd452f23	-0.048140656
134	0xbc4daba2	-0.0125531275
135	0x3c2dfcec	0.010619383
136	0xbd7f588b	-0.0623403
137	0xbcf9bd40	-0.03048575
138	0x3dc353ea	0.0953749
139	0x3da1aee4	0.07894686
140	0xbdc31c04	-0.09526828
141	0x3d4a0e69	0.04933015
142	0xbdb58234	-0.08862725
143	0x3b63284b	0.0034661468
144	0x3d1c031e	0.03808891
145	0xbbf0c31d	-0.007347478
146	0xbd7bd924	-0.06148638
147	0xbd231854	-0.039818123
148	0xbd98e5bb	-0.074656926
149	0xbcc3e932	-0.023914907
150	0xbdfbf41c	-0.123024195
151	0x3d01961d	0.0316373
152	0xbc0e447e	-0.008683322
153	0xba861ad9	-0.001023139
154	0xbdce7888	-0.10081583
155	0xbd03482a	-0.032051243
156	0xbdaf329c	-0.08554575
157	0xbc7731bc	-0.015087541
158	0xbda64190	-0.08117974
159	0x3d5ed7c4	0.05440499
160	0xbcac4f76	-0.021033984
161	0x3939ea2f	0.00017730215
162	0xbd2583f6	-0.04040905
163	0xbd145cc5	-0.036221284
164	0x3dc154e2	0.09440018
165	0xbd94bb46	-0.07262282
166	0x3d75cfc6	0.0600126
167	0xbce1ba70	-0.02755472
168	0x3e090cb8	0.13383758
169	0x3d27c054	0.040954903
170	0xbd3ba539	-0.045811865
171	0x3e12b066	0.14325103
172	0x3d5fe93d	0.054665793
173	0xbd8ec189	-0.06970508
174	0x3d933e45	0.07189611
175	0x3cba2a55	0.022725264
176	0xbd1470e4	-0.036240473
177	0x3d76face	0.06029778
178	0xbdf7a625	-0.120922364
179	0xbcaf3955	-0.021389643
180	0xbe2180f5	-0.1577185
181	0xbd697592	-0.05699689
182	0xbbf5311e	-0.007482662
183	0xbd0f428a	-0.034975566
184	0xbccf1466	-0.025278281
185	0x3dfde8d3	0.12397923
186	0xbd3b7495	-0.04576548
187	0x3d6845c1	0.056707148
188	0x3afe16a5	0.0019385411
189	0xbc40d297	-0.0117689585
190	0x3d5071b4	0.050889686
191	0xbd0251da	-0.03181634
192	0x3d333850	0.043754876
193	0x3d85cc52	0.06533112
194	0xbca51ce7	-0.020155383
195	0x3d8db4ee	0.06919275
196	0xbd5f71b4	-0.054551795
197	0x3cca9edf	0.024733959
198	0x3c44e9f3	0.012018668
199	0xbd0335fe	-0.032033913
