model/results/skew-skew/var-e10000/25-25-SGD-relu-0.001-50-e10000-var.pt (torch, 5807 bytes, 5 tensors)

layers.0.weight f4 [25, 5]
000000 fd 22 be be 93 06 bb be 63 40 9b be 52 5f 86 3a
       -0.3713607 -0.36528453 -0.3032256 0.0010251796
000010 d9 5d d0 be e3 78 82 3d 91 ef c1 3c f9 49 9a 3e
       -0.406966 0.063707136 0.023673804 0.30134562
000020 cc 70 fa be 4b 52 e1 3d f2 44 5e be f3 ba 85 3e
       -0.48914182 0.11002024 -0.21705988 0.26119193
000030 06 8d 6b 3d bd ef b5 be a2 37 8c 3e 22 8b 35 be
       0.057507537 -0.35534468 0.27386194 -0.17728856
000040 2c b7 17 3e 50 39 83 be a8 5e c8 3d 5f e0 58 3d
       0.14815968 -0.25629663 0.09783679 0.052948352
000050 f5 88 16 3c 9b b7 55 3e 7c f4 2b 3e 04 99 8a 3e
       0.009187927 0.20870821 0.16792482 0.27069867
000060 1b d6 ac 3e 4a 33 e1 be 17 ae 9e bd aa 7c bd 3d
       0.337571 -0.43984443 -0.07748049 0.092522934
000070 0a 90 ad 3d 80 68 08 3e dc c5 14 be 68 4e c6 bd
       0.08474739 0.13321114 -0.14528602 -0.096829236
000080 90 c5 39 be 25 02 ea bc 49 23 d5 be a1 da 9f be
       -0.1814177 -0.028565476 -0.41628483 -0.31221488
000090 a5 33 9f 3e b8 18 dd be 47 b3 ec 3d 4a c1 80 3c
       0.3109409 -0.4318292 0.11557632 0.015717167
0000a0 9b cd 00 3e 67 2b a0 bd cb fc 86 3e 85 1d 71 be
       0.12578432 -0.07820778 0.2636474 -0.23546417
0000b0 eb 9d a4 be ba ad fc bd a7 d2 22 3d 89 d3 9a be
       -0.32151732 -0.12337823 0.039751675 -0.30239514
0000c0 2d a5 e2 3d 2f c3 00 be df 39 cf bd 75 c9 6f be
       0.11066661 -0.12574457 -0.1011846 -0.23416694
0000d0 4b 9a 13 bc 65 f1 2c 3e a4 f6 f0 be 5c 0e c9 be
       -0.009008954 0.1688896 -0.47063172 -0.39268768
0000e0 84 31 9b 3e 58 8c 07 3d d5 76 ce bc 6e ac 82 3e
       0.30311215 0.033092827 -0.025203148 0.25522178
0000f0 cb 69 fc 3e af 25 01 3e d3 8f 3a 3e b3 35 6b 3e
       0.49299464 0.12612031 0.18218927 0.22969703
000100 b3 81 8f 3c c0 ce a6 3e c2 65 8c be 73 52 c2 bc
       0.0175179 0.32579613 -0.27421385 -0.023720955
000110 2f bf 8b be 5d b4 6a 3d c0 bb 07 bf c7 7a 15 be
       -0.272943 0.057300914 -0.5302086 -0.14597617
000120 ce 67 0e 3f ad 7c b7 3e 42 ab c0 3d 05 44 b9 bd
       0.55627143 0.35837308 0.09407665 -0.09046177
000130 1e 6d 3b be c6 1b 93 be 6f 8a 19 3f 9d 3c e3 bd
       -0.18303344 -0.28732127 0.5997686 -0.110955454
000140 85 21 7f be a0 af 00 be f2 ca 30 3e f2 e4 ab be
       -0.2491513 -0.12566996 0.17264917 -0.3357311
000150 49 30 99 3b 2d ac d3 bd 93 df 5c bd 91 64 20 3f
       0.0046749455 -0.10335574 -0.053924154 0.6265345
000160 ab 61 d1 3e 82 27 b8 3d 4f 08 9f 3e 65 3b 2c be
       0.40894827 0.089919105 0.31061026 -0.16819532
000170 d1 19 85 be a6 dd 35 3e ff 03 e3 3d 70 54 90 3e
       -0.2599626 0.17760333 0.110847466 0.2818942
000180 c3 c5 ce 3e 43 38 a5 3e 48 79 8f be 79 1f ca 3e
       0.40385255 0.32269487 -0.28022218 0.39477137
000190 15 b6 c8 be 86 75 73 be 65 f5 85 3e 20 27 9d bd
       -0.39201418 -0.237753 0.26163784 -0.07673478
0001a0 05 26 62 be 42 59 c0 3e e2 02 a9 3e 30 5d 75 bd
       -0.22084816 0.37568098 0.33010012 -0.059903324
0001b0 1f 32 bb 3e 1f 99 00 be 0c c3 c5 3e 7f 3a 9f be
       0.36561677 -0.12558411 0.3862537 -0.31099316
0001c0 94 27 24 be dc 70 60 be 35 3c 8f be 49 1c 97 3e
       -0.16030723 -0.21918052 -0.27975622 0.29513767
0001d0 e8 31 55 3e 33 99 82 be 50 48 a9 3e 05 87 5f 3e
       0.20819819 -0.25507507 0.33062983 0.2182885
0001e0 ff 5b 2d bc ca 7a 5c bd 17 bf f0 3d ae e9 ed bd
       -0.010581016 -0.05382804 0.117551975 -0.116168365
0001f0 29 9c 88 3e
       0.2668164

layers.0.bias f4 [25]
000000 bd 54 4e be 68 25 aa bd a9 22 b8 3d cc 80 ae 3d
       -0.20149513 -0.08307916 0.08990986 0.0852066
000010 06 05 68 be cc e6 bc be 82 c9 9d 3b 8b 38 3b bd
       -0.22658166 -0.36894834 0.0048152814 -0.04570822
000020 5a b3 ee 3e 74 8d 95 3e 36 95 1e bd db dc 83 3d
       0.4662121 0.29209483 -0.038716517 0.06438609
000030 85 9b 9e 3e 06 73 95 3e 55 85 f2 3c b1 98 40 bd
       0.30978027 0.29189318 0.029604593 -0.047020618
000040 59 b2 2b 3f 69 07 50 be 23 a6 62 3e 92 6b a8 3e
       0.6706901 -0.20315327 0.22133689 0.3289457
000050 88 4e c9 3d 8a 3f 99 3e c8 4e 06 3f a9 ff e7 be
       0.09829432 0.2993129 0.5246396 -0.4531224
000060 83 5b ce be
       -0.40304193

layers.2.weight f4 [25, 25]
000000 80 9f 51 bc 4a f3 43 be 00 72 7c 3b 67 c0 e2 bd
       -0.012794375 -0.19135776 0.0038520098 -0.11071854
000010 05 b1 3a 3e 4d 22 4c bd 0a 84 1f be 8a ae c1 3d
       0.1823159 -0.0498374 -0.15577713 0.09457119
000020 0a 4e 19 3e 1d 9e 09 3e 1a 8e 05 3d 35 f9 25 be
       0.14971176 0.13439222 0.03260622 -0.16208346
000030 95 38 27 be 8f 9b 13 be 0f 21 14 be 1f 62 4b 3e
       -0.16330178 -0.1441481 -0.14465736 0.19861649
000040 00 4e d1 bc 00 17 f0 3c 78 00 24 3e d0 32 84 3d
       -0.025549889 0.029307842 0.16015804 0.06455004
000050 43 9c b2 3d 1a 5f 48 3c 62 1f 24 be 83 31 17 be
       0.08721211 0.012229705 -0.16027597 -0.14764981
000060 ba 3d ea 3d 77 fc 0a 3d 7c 51 7b bd fd 0f 02 3d
       0.11437555 0.033932175 -0.061357006 0.03175353
000070 a7 3d ac 3d a9 ed 79 3e 4b 4f 10 3e 6e 79 ed bc
       0.08410197 0.24407066 0.14092748 -0.028988566
000080 fb 91 00 be 7f 7f 15 bd 98 9f 55 bd ab c2 06 bd
       -0.12555687 -0.036498543 -0.052154154 -0.032900494
000090 6b 59 09 be ba 97 c3 bd d7 49 32 3c 5a d4 8e 3e
       -0.13413016 -0.09550424 0.010881863 0.27896386
0000a0 52 eb 08 3e 04 96 d3 3c 15 b0 53 3e 29 27 24 bc
       0.13371018 0.025828369 0.20672639 -0.010019102
0000b0 38 0b b8 bd 6c a4 2f 3e ca fc 1a bd fe 51 20 be
       -0.08986515 0.17152566 -0.037838735 -0.15656278
0000c0 9f 6c e0 bd 5d c3 d8 bd c5 db 12 bc 39 ed b0 bd
       -0.10958218 -0.105841376 -0.00896353 -0.08638997
0000d0 fa 18 14 3e 3c 83 6b 3d b0 90 9b 3d ea f5 02 be
       0.14462653 0.0574982 0.07595956 -0.12789121
0000e0 ad 9d 73 bc c7 ce 1c 3e b7 2d a8 bd 6a d2 19 be
       -0.014869136 0.15313254 -0.082118444 -0.15021673
0000f0 b9 3f 0c be 3b 00 3f bd e8 60 2e be aa 67 36 3e
       -0.13696183 -0.04663108 -0.17029154 0.17812982
000100 8c 53 26 be fc 80 0f 3e 09 76 63 be 24 04 31 3e
       -0.16242808 0.14014047 -0.22212996 0.17286736
000110 9b 1c 6c bd c8 e1 aa 3d 34 ab 94 bc 37 e2 02 3e
       -0.057644468 0.083438456 -0.018148042 0.12781607
000120 4b 33 b6 3d e4 19 d0 bd f9 2d e3 3c 52 fc af bc
       0.08896502 -0.10161188 0.027731882 -0.02148262
000130 6d ad 3f be fa cf d7 3d 67 c5 41 bd 65 29 19 be
       -0.187185 0.10537715 -0.0473074 -0.14957197
000140 d3 f3 61 bd 7e 5c 23 be 36 bf 1d be 2b cd 27 3e
       -0.05516417 -0.15953252 -0.15404972 0.16386859
000150 e9 7f 13 be 7e 1a e9 bd 79 87 08 3d a5 d1 b0 bd
       -0.14404263 -0.11382006 0.03333232 -0.086337365
000160 60 11 a0 bb d3 7c d7 3d 97 ad 15 3e c3 5b 6b 3d
       -0.0048848838 0.10521855 0.14617 0.057460558
000170 d0 38 da 3b 3f 03 f3 3d af fb 03 be c5 08 f7 3d
       0.0066596046 0.118658535 -0.12888978 0.120622195
000180 48 28 32 3e 6c 61 e1 3d d2 2c fe 3d 58 fa a8 3d
       0.17398179 0.1100491 0.124108925 0.08250874
000190 3a af 36 3e 11 ec 11 be dc 01 3d 3d f5 09 81 3d
       0.17840281 -0.14250208 0.04614435 0.06300727
0001a0 cf 52 90 bd 9a f9 36 be 53 31 9d 3d 11 77 fe bd
       -0.070470445 -0.17868653 0.076754235 -0.12425054
0001b0 36 af d7 bd 6d 0b 49 3e cd 65 02 3e 87 b8 c0 bd
       -0.10531466 0.19633265 0.12734146 -0.09410196
0001c0 01 17 59 be 2b 90 14 3d 3d ea 00 be 1f b0 08 3e
       -0.21200182 0.0362703 -0.12589355 0.13348435
0001d0 b2 c1 0d 3e 3e 3f a5 3b 93 1f 20 be 46 f1 33 be
       0.1384342 0.0050429394 -0.15637045 -0.17572507
0001e0 57 5a 32 3e e6 7b f5 bd b8 73 2d 3e 3d 5f 0e 3e
       0.17417274 -0.119865224 0.16938674 0.13903518
0001f0 33 6a 7e 3d 3d 2e 70 bd e7 1c b7 3d 00 ae 60 3e
       0.062113 -0.058637846 0.089410596 0.21941376
000200 01 1b 98 3d b7 7e 1d 3e 73 71 06 3d 70 6a 1a 3e
       0.074270256 0.15380369 0.032823037 0.15079665
000210 44 9a 2c 3e ba ee f3 3d 5f 23 89 3e 7d 3e be bd
       0.16855723 0.11910768 0.26784799 -0.092892624
000220 4d 17 a0 bd 77 b7 d4 bd 81 79 1b be 2b 06 03 be
       -0.07816944 -0.10386556 -0.15183069 -0.12795322
000230 2f 0a db 3d 1b 55 bb 3d 3a 20 2b 3d ec ab 4a 3d
       0.10695302 0.09147092 0.04177878 0.049480364
000240 89 7b 38 bc c2 a4 b9 bd 54 07 ef bc 5a 44 59 be
       -0.011259922 -0.09064628 -0.029178299 -0.2121748
000250 4e 73 5f be ac 6a 26 be 21 c4 98 bc 33 35 56 3c
       -0.21821329 -0.1625163 -0.018648209 0.013074207
000260 9a 12 19 3e 40 96 fd bd 60 b4 cb 3c 2d 9e 51 bd
       0.14948502 -0.123821735 0.024866283 -0.05117624
000270 32 c9 14 3e 83 56 9d bd 0d 2c 94 3d 60 a0 9e 3d
       0.14529875 -0.076825164 0.072349645 0.07745433
000280 90 53 26 3e ad eb 8d 3d e6 a3 60 3c b8 e3 5e 3e
       0.16242814 0.06929717 0.013710951 0.21766555
000290 f2 cd 04 3e 3e 54 49 3e bf 27 b9 3d d2 46 32 3e
       0.12969187 0.19661042 0.09040784 0.17409828
0002a0 a1 49 1b 3e ff 84 eb 3c 3a cc 24 3e 45 99 ab bd
       0.15164806 0.02874994 0.16093531 -0.08378843
0002b0 d8 b0 d6 bc e9 82 5f 3c b7 e1 db 3d 3d 12 e4 3d
       -0.026207373 0.013642051 0.10736411 0.11136291
0002c0 0d 44 37 be 2c 59 91 3d 17 f8 49 3e 1a 0f 45 be
       -0.17897053 0.07097086 0.19723545 -0.19244042
0002d0 07 22 a4 3d 17 51 d2 bd 5a 30 1b be 64 e1 bf bd
       0.08014303 -0.10269373 -0.15155163 -0.09369162
0002e0 7f ae 5c bd 4b 0f cf bd af be 9d bc cf 24 ab bd
       -0.05387735 -0.10110339 -0.019255964 -0.0835663
0002f0 ff cf c1 3b 7d 28 41 be 6b 80 f2 3c d7 b0 da bd
       0.0059146876 -0.18863101 0.02960225 -0.10678261
000300 7e 49 1e bd 91 1d 28 be a2 86 22 be 35 32 c6 3d
       -0.038644306 -0.16417529 -0.15871671 0.09677545
000310 aa 51 62 3d 5b 8f 2b be d3 91 72 bd cd 0a 8d bd
       0.055253662 -0.16753905 -0.0592211 -0.06886826
000320 7e 4a 28 3d 2e 09 76 3d b9 13 90 bb 5b 4b 64 3d
       0.041086666 0.06006735 -0.0043968824 0.055735927
000330 19 fa 9a bd 8c fb 01 3e ac 83 2e be 47 6c 58 3c
       -0.075672336 0.12693614 -0.17042416 0.013209409
000340 57 19 10 3e 8a dc f2 3d b0 cf 12 3e 8d 15 43 3e
       0.14072166 0.11858471 0.14337039 0.1905119
000350 cd 7c ce 3d 3c aa 4b be b5 fc f9 bc 97 e5 1e be
       0.100823976 -0.19889158 -0.030516008 -0.15517269
000360 16 13 d7 bd 68 2e 11 3e d9 5b 19 3e b8 47 1e 3e
       -0.10501687 0.14177859 0.14976443 0.15457046
000370 87 7a 3d be 59 1c 7b 3d 38 2f 27 3d 1b 38 4d be
       -0.18503772 0.06130633 0.040816516 -0.20040934
000380 08 e6 a7 3d 23 5e a8 3d e2 37 96 3d 00 f4 b6 bd
       0.08198172 0.0822108 0.073348776 -0.08933258
000390 19 d9 83 bb cb d1 11 3e 5e b5 e0 3d c7 c3 b2 bd
       -0.004023683 0.14240186 0.10972093 -0.08728748
0003a0 27 60 f8 3d b2 df 49 3d d6 4f 18 be 78 e8 e2 bd
       0.121277146 0.049285598 -0.14874205 -0.11079496
0003b0 69 b3 1d 3e 9f 71 37 3d c1 be 50 be 33 b6 5d 3e
       0.15400471 0.044786092 -0.20385267 0.21651535
0003c0 3a ee 55 3d 59 26 cb 3d 2b 1a ae 3e d0 c3 c3 3d
       0.052229144 0.099194236 0.3400434 0.09558833
0003d0 e1 ed 53 be 9e fd fd 3d a2 19 40 be 2c bf e3 bd
       -0.20696212 0.12401889 -0.18759778 -0.111204475
0003e0 2a b0 ad bd 0a b0 92 3d 81 2d bd bd 75 c8 3d 3e
       -0.08480866 0.07162483 -0.09237195 0.185335
0003f0 d2 29 04 be ab fb d9 bc 96 98 12 be 1b 11 0a 3d
       -0.12906578 -0.026609262 -0.1431602 0.03370772

layers.2.bias f4 [25]
000000 b8 66 4a be 5d 07 15 be 48 28 13 3e c3 59 2a 3e
       -0.19765747 -0.1455359 0.14370835 0.16635804
000010 cb 70 86 3d e3 dd fe 3d dd 30 82 bd 62 11 23 3e
       0.06564482 0.12444665 -0.06356976 0.159246
000020 b0 68 91 bd be 40 b9 3c bd 09 64 3e e7 17 3d 3c
       -0.07100046 0.02261388 0.2226934 0.011541343
000030 f5 32 5d be e6 04 04 be 17 68 1a 3e 6b 36 23 bd
       -0.2160147 -0.12892494 0.1507877 -0.03984682
000040 68 5b d0 bd 73 d2 2f 3e 61 a7 df 3d fe 80 20 3c
       -0.10173684 0.17170124 0.10920597 0.009796379
000050 cc 2c 3c 3e 75 c4 24 be 68 4f 4e be 00 d1 42 bd
       0.18376464 -0.16090567 -0.20147479 -0.0475626
000060 16 83 47 3e
       0.19483599

layers.4.weight f4 [1, 25]
000000 60 00 ff bd 98 eb 7e 3e 23 a8 e5 3d 54 95 ec 3c
       -0.124512434 0.2489456 0.1121371 0.028879799
000010 eb a3 7c 3d 6e 47 b4 be f8 36 df bc c0 9e 1f be
       0.06167976 -0.35210747 -0.02724789 -0.15587902
000020 e4 a3 30 bd c0 ab 8d 3e 27 3e 8f be 93 3b ab bd
       -0.04312505 0.27670097 -0.27977106 -0.08360972
000030 50 57 9f be cf 2e da bd 63 a7 0c 3f 8c 61 d3 bd
       -0.31121302 -0.10653459 0.5494291 -0.1032134
000040 37 42 eb bd b2 80 31 3e 95 82 00 bd c0 87 e4 3b
       -0.11487239 0.1733425 -0.031374533 0.0069741905
000050 a4 ed 06 3e 73 4e e4 bd 17 47 96 3c fa 39 82 be
       0.1317659 -0.111477755 0.018344445 -0.25434858
000060 84 8e c0 3e
       0.3760873
